PyTorch/lightning_logs/version_12/checkpoints/epoch=2-step=357.ckpt (torch, 19995 bytes, 4 tensors)

fcIn.weight f4 [30, 126]
0	0xbda1fbe9	-0.07909376
1	0x39a614d5	0.00031677508
2	0x3cbe6d27	0.023245407
3	0x3bbf4d81	0.0058380966
4	0x3bb8cd76	0.005639727
5	0x3c933171	0.017967911
6	0x3d89ad67	0.06722527
7	0x3caccba5	0.021093199
8	0xbd8051cf	-0.06265604
9	0x3d34054a	0.043950357
10	0xbc852491	-0.016252788
11	0x3da87f18	0.08227366
12	0xbd7c43ec	-0.061588213
13	0xbda78ccc	-0.08181152
14	0xbd47cf56	-0.048781715
15	0xbc025ec6	-0.007957166
16	0x3c0a8ff1	0.00845717
17	0x3d4d8aff	0.050181385
18	0xbd8f2153	-0.06988778
19	0x3b6f7e5b	0.003654382
20	0xbd430a52	-0.047617264
21	0xbd32f7dd	-0.043693412
22	0xbd921ed8	-0.07134789
23	0x3d0d6224	0.034517422
24	0xbd4ce8d3	-0.050026726
25	0x3b808918	0.003922593
26	0xbd948711	-0.072523244
27	0x3d9f5ca7	0.07781344
28	0xb9889706	-0.00026052463
29	0x3da66b61	0.0812595
30	0x3d621671	0.055197183
31	0xbdab65b7	-0.0836901
32	0xbc993e36	-0.018706422
33	0x3c90639c	0.017625622
34	0x3d6886c5	0.05676915
35	0x3d13c560	0.036076903
36	0x3d0c9435	0.03432103
37	0x3d0593f9	0.03261182
38	0xbd344ae3	-0.04401673
39	0x3acaa3b2	0.0015460162
40	0x3c9b1bfe	0.018934246
41	0x3bc72d33	0.006078386
42	0x3be63998	0.0070259087
43	0xbdac0892	-0.08400072
44	0xbd080562	-0.03320826
45	0xbd141c22	-0.036159642
46	0x3d770ccf	0.06031495
47	0x3c3893f6	0.011265745
48	0x3d7cef68	0.061751753
49	0xbd063b51	-0.032771412
50	0x3af0fba7	0.0018385545
51	0x3cc469f4	0.023976304
52	0x3d8fe6a9	0.07026417
53	0xbdb1b126	-0.086763665
54	0xbbfa736c	-0.007643154
55	0x3d857d23	0.065180086
56	0xbd795369	-0.06087056
57	0xbd67c1e0	-0.056581378
58	0xbcd67b43	-0.026181823
59	0xbdaba09d	-0.08380244
60	0x3d109409	0.035297427
61	0x3c15c458	0.00914105
62	0x3b462531	0.003023457
63	0xbd9f17a8	-0.07768184
64	0x3d9940b6	0.07483046
65	0x3d6ee962	0.05832804
66	0xbdb081b9	-0.08618493
67	0x3d81274c	0.063063234
68	0x3c54b98c	0.012983691
69	0xbba859fd	-0.0051376806
70	0x3d8ef544	0.069803745
71	0xbce92e47	-0.02846445
72	0x3b6b25bc	0.0035880646
73	0xbcefdd76	-0.029280405
74	0xbdafdd4c	-0.08587131
75	0x3d8fa04d	0.07012997
76	0x3d71fd55	0.059079487
77	0x3ce18556	0.0275294
78	0x3b96fef3	0.004608029
79	0x3d9ec646	0.077526614
80	0x3cc30883	0.02380777
81	0x3bb485a1	0.005509094
82	0x3cd8c104	0.026459225
83	0xbbc7a2b5	-0.0060923942
84	0x3da6cfb8	0.08145088
85	0xbb84ce3e	-0.0040529063
86	0x3cdbc702	0.026828293
87	0x3af7cf5c	0.0018906402
88	0x3d311bec	0.04323952
89	0x3d3b529d	0.045733083
90	0xbd6e666a	-0.05820314
91	0xbc860d49	-0.016363757
92	0x3d6c8f43	0.057753813
93	0xb89d6cd0	-7.506611e-05
94	0x3c9a0c42	0.018804673
95	0xbb9cbffe	-0.0047836294
96	0x3c33fbab	0.010985295
97	0x3db6d7ff	0.08927917
98	0x3cc9c860	0.024631679
99	0x3dcfd275	0.10147563
100	0x3d7b822c	0.06140344
101	0xbc20f9dc	-0.009825196
102	0xbd0d60b9	-0.03451607
103	0x3c032e49	0.008006641
104	0x3d17c6af	0.037054714
105	0xbc3abf7e	-0.011398194
106	0xbc51890c	-0.012789022
107	0xbcc00253	-0.023438608
108	0xbca81d5d	-0.020521814
109	0x3d8649b8	0.065570295
110	0xbdabdd47	-0.08391815
111	0x3d37ce5e	0.04487454
112	0x3d9c9e4f	0.076473825
113	0x3d03273f	0.03201985
114	0xbda48eef	-0.08035075
115	0xbdb58769	-0.08863718
116	0xbd9637fb	-0.07334896
117	0xbd8f78b3	-0.070054434
118	0x3cf38866	0.029728126
119	0x3cbbbe7d	0.02291798
120	0x3caba218	0.020951316
121	0x3d8f73d6	0.07004516
122	0x3d169073	0.03675885
123	0x3d0e621d	0.034761537
124	0x3c91fadb	0.017819813
125	0xbcc7944a	-0.024362702
126	0x3d9696f5	0.073530115
127	0x3dd9f45d	0.10642312
128	0x3d8d4897	0.06898611
129	0x3df1ff01	0.11816216
130	0x3e27cddc	0.16387123
131	0x3dffe2c6	0.124944255
132	0x3e0f2d5d	0.13982148
133	0x3dd21c24	0.10259274
134	0x3e20c91d	0.15701719
135	0x3de58896	0.11207692
136	0x39145f41	0.00014149865
137	0x3d36d734	0.044638827
138	0x3dcb6e73	0.09933176
139	0x3cc71592	0.024302278
140	0x3db42eec	0.08798012
141	0x3cd0bf31	0.025481792
142	0x3e08a25d	0.13343187
143	0x3c1bf1a1	0.009518058
144	0x3c95e864	0.018299289
145	0x3e10e39b	0.14149325
146	0x3e1b62b2	0.15174368
147	0x3dc5fcbf	0.09667348
148	0x3d814c82	0.06313421
149	0x3d8bcdc6	0.068263575
150	0x3ce03dc4	0.027373202
151	0x3db06e09	0.086147375
152	0xbcbe6041	-0.023239257
153	0x3db20974	0.08693209
154	0x3db96d7e	0.09054087
155	0x3d05f64f	0.0327056
156	0xbc21acb8	-0.0098678395
157	0x3d3ec5c6	0.04657533
158	0x3dec398d	0.115344144
159	0x3c959457	0.01825921
160	0x3e0422b4	0.12903863
161	0x3d635e50	0.055509865
162	0x3db842a3	0.08997085
163	0x3d974f8a	0.07388218
164	0xbc5b1b41	-0.013373197
165	0x3d2ce39a	0.042209245
166	0x3d5a190e	0.05324655
167	0x3ce533d3	0.027978813
168	0xbda0c294	-0.07849613
169	0xbe231a99	-0.15928115
170	0xbe20118a	-0.1563169
171	0xbda1a68b	-0.07893094
172	0xbd832e9b	-0.06405374
173	0xbe06481a	-0.13113442
174	0xbe3f0191	-0.18652941
175	0xbdc08d5d	-0.09401963
176	0xbd742c7b	-0.059612732
177	0xbd26b73a	-0.040702082
178	0xbe3fac3b	-0.18718044
179	0xbdf83742	-0.121199146
180	0xbe1ed528	-0.15511
181	0xbd2e8e91	-0.04261643
182	0xbe3d507e	-0.18487737
183	0xbe34ef52	-0.17669418
184	0xbd93d31c	-0.07218
185	0xbda603f8	-0.08106226
186	0xbcc9aca2	-0.02461845
187	0xbe38cda0	-0.1804719
188	0xbdfd00c2	-0.1235366
189	0xbe1748a1	-0.147738
190	0xbe2a5239	-0.16632928
191	0xbdd9d23c	-0.10635802
192	0xbe136e64	-0.1439758
193	0xbe1b86c7	-0.15188132
194	0xbc182961	-0.009287209
195	0xbdaaae2d	-0.08334003
196	0xbe0193a2	-0.12653974
197	0xbe1156d6	-0.14193282
198	0xbdce4361	-0.10071445
199	0xbd94026b	-0.07227024
200	0xbca2982d	-0.019847954
201	0xbb52faa1	-0.0032192844
202	0xbd6c527d	-0.057695854
203	0xbc3c5168	-0.011494018
204	0xbb03dadc	-0.0020119464
205	0xbdf13d9f	-0.117793314
206	0xbc6a10ec	-0.014286261
207	0xbddf9a2e	-0.10918079
208	0xbc6053f0	-0.013691887
209	0xbc9d33e5	-0.019189784
210	0x3d9b62cb	0.07587203
211	0x3c34c14c	0.011032414
212	0xbc8bbdde	-0.01705831
213	0x3da5905e	0.080841765
214	0x3d1ad0dd	0.037796844
215	0x3d5b5cd5	0.05355533
216	0xbc0f121e	-0.008732347
217	0x3d84a2af	0.06476342
218	0x3d98b020	0.07455468
219	0x3d6bbba5	0.057552
220	0x3cc7e183	0.024399525
221	0xbd597423	-0.053089272
222	0x3db3a907	0.08772474
223	0x3d70e432	0.058811374
224	0x3cff6f7d	0.031181091
225	0x38c91df8	9.590009e-05
226	0xbbe77fb6	-0.007064785
227	0x3c6b1df6	0.014350405
228	0x3b80a9a7	0.003926474
229	0x3d0b7780	0.03404951
230	0x3da2ed6c	0.07955441
231	0xbdc2b824	-0.09507778
232	0xbd8a27b9	-0.06745858
233	0xbd896744	-0.067091495
234	0x3ce3e170	0.027817458
235	0xbd755bbc	-0.059901938
236	0xbd99a6e8	-0.07502538
237	0x3daed0db	0.0853593
238	0xbd9fd33b	-0.07803961
239	0xbc7add6c	-0.01531158
240	0x3d06a9ff	0.032876965
241	0x3ce47ed7	0.027892513
242	0x3cde4a99	0.02713518
243	0xbd0e87b5	-0.03479739
244	0xbc7cd162	-0.01543078
245	0x3d84fe88	0.064938605
246	0xbd359876	-0.04433485
247	0xbd002a96	-0.031290613
248	0x3c5fff26	0.013671672
249	0xbd80add5	-0.06283156
250	0x3d393518	0.04521665
251	0x3db51c20	0.08843255
252	0xbc11b50e	-0.008893264
253	0x3badfcba	0.0053096684
254	0xbd2ee3bc	-0.042697653
255	0x3d48aebc	0.048994765

fcIn.bias f4 [30]
0	0xbd9d71c3	-0.07687714
1	0x3e437e9a	0.19091263
2	0xbd8cefae	-0.06881653
3	0x3c5ab4af	0.013348742
4	0x3d27400c	0.040832564
5	0xbd4d9df1	-0.050199453
6	0x3cc95511	0.024576696
7	0x3d7ccf16	0.06172093
8	0x3d6c85b2	0.05774469
9	0xbdb527ea	-0.08845504
10	0x3d37f7c1	0.04491401
11	0xbd89fe0b	-0.06737908
12	0x3d343c5f	0.044002887
13	0xbd02bb99	-0.03191719
14	0x3d4c172e	0.049826793
15	0x3e883e75	0.2661015
16	0x3dccc8d9	0.09999246
17	0xbdac8f15	-0.08425728
18	0xbd82283b	-0.063553296
19	0xbcc8deb3	-0.024520254
20	0x3cc865c0	0.02446258
21	0x3c3c245c	0.011483278
22	0x3d6784c8	0.056523114
23	0xbd18bd6f	-0.037290033
24	0x3d80ea9d	0.06294749
25	0x3c802935	0.015644649
26	0xbd33b1ad	-0.043870617
27	0x3df57711	0.11985601
28	0x3df08ac0	0.117452145
29	0x3c1a29f5	0.009409417

fcOut.weight f4 [2, 30]
0	0xbef188e1	-0.47174743
1	0xbdab8f2b	-0.083769165
2	0xbe7b9d30	-0.24571681
3	0x3ea0c0cc	0.31397092
4	0x3b694ef4	0.0035600038
5	0x3e80ebb7	0.25179836
6	0x3c497f8a	0.012298474
7	0x3e161596	0.14656672
8	0xbe97fdad	-0.29685727
9	0x3def0dea	0.11672576
10	0x3e03ec0e	0.12883016
11	0xbd028626	-0.031866215
12	0xbcda9cef	-0.02668616
13	0xbe12c445	-0.14332683
14	0xbe58063a	-0.21096125
15	0xbe970151	-0.29493192
16	0x3f02af1c	0.51048446
17	0xbe97eb76	-0.2967183
18	0xbda3287d	-0.07966707
19	0xbe7ca32f	-0.24671625
20	0xbc9854eb	-0.01859518
21	0xbd81c2a8	-0.06335956
22	0x3f10aaac	0.56510425
23	0xbe00b05f	-0.1256728
24	0xbe17b3a8	-0.14814627
25	0x3de28277	0.110600404
26	0x3d6a1a11	0.057153765
27	0x3e9c1e7d	0.3049201
28	0xbec5a886	-0.38605136
29	0xbeab57a6	-0.33465308
30	0xbca47bfb	-0.02007865
31	0xbcdf6031	-0.027267547
32	0x3d9716b4	0.07377377
33	0x3ea1fa2e	0.31636184
34	0x3e54b7f9	0.20773305
35	0x3eb51f5f	0.35375497
36	0x3de9d2a4	0.1141713
37	0xbe271ce4	-0.16319615
38	0xbe856ed5	-0.2606112
39	0xbe418067	-0.18896638
40	0xbe3a1aec	-0.18174332
41	0xbb40c8b4	-0.0029416503
42	0x3d8527c6	0.06501727
43	0x3e833d8d	0.25632897
44	0xbe2663ef	-0.16249059
45	0x3e60f972	0.21970156
46	0x3e519b64	0.20469433
47	0xbdcbab9b	-0.099448405
48	0xbdb7ff39	-0.08984227
49	0xbe5133a8	-0.20429862
50	0x3f2b49bf	0.669094
51	0x3aac3f96	0.0013141509
52	0x3e54e101	0.20788957
53	0x3e25c3d6	0.16187987
54	0xbd28fd78	-0.04125735
55	0x3cbc12d8	0.022958204
56	0xbc61b233	-0.013775396
57	0xbdabb0ab	-0.08383306
58	0x3ed86d48	0.42270875
59	0x3bcd66f3	0.006268376

fcOut.bias f4 [2]
0	0x3e8e5468	0.27798772
1	0x3f81fc66	1.0155151
