PyTorch/lightning_logs/version_18/checkpoints/epoch=99-step=11900.ckpt (torch, 19995 bytes, 4 tensors)

fcIn.weight f4 [30, 126]
00000000: f98e 873d 56a1 b9bb 09ab 8b3c 39a0 a53c
00000010: e0b4 5e3d a085 58ba a82e 3abc c6b3 1bbb
00000020: e737 133d cabb 6b3d dba4 aa3c bba0 583d
00000030: 4289 843c e98b 8c3d 038e c33d 524d 413d
00000040: aaab 273d aa1a 063c 3c4d 253d d782 06bd
00000050: 1e6d 93bd 1105 a7bd 5678 16bc 95a1 4fbd
00000060: 6a9b 9cbd c11a 1a3d 9c2e cebd 33cf 593d
00000070: f242 dfbb 6d9b 00bd 5db0 c4bd a980 c3bd
00000080: 9b19 983d e8e2 25bd 9918 9a3c af65 ae3b
00000090: fc11 b5bd b463 5b3d 8d91 8cbd b033 ea3c
000000a0: 5d3b 8b3d 9d3d 9e3c 4dca a03d 40b8 943b
000000b0: a5df d13c 3fd7 663b 485a 5ebd 21e4 28bd
000000c0: 25d5 503d d074 c73d 1a21 2ebd b86e 0c3d
000000d0: 366b bd3d 0602 e8bc 8852 4cbb 64f0 cc3d
000000e0: c9a2 bc3d 7dc0 803d b1f4 22bc f3ba 3ebd
000000f0: b5c9 a73d fc81 f3bb 1783 58bd 5f8f a33d
00000100: 57db 82bc dfbe f5bc 1add b23d 69bf d03c
00000110: 3af7 54bd a3cf f43c 976f 6ebd d172 8c3d
00000120: c851 2ebd 4d15 8abd 16cd 48bd c70b b9bc
00000130: 7c35 443c 20e3 753d 0a43 943d 06f5 61bd
00000140: 4637 853d 9077 eebc 75e3 6ebd b054 6cbd
00000150: dc69 8abd 7503 a4bd 28d2 7abc 985b 60bd
00000160: 63d2 be3c 819e 36bd d5c4 e0bd eb8d d2bd
00000170: d726 d93c 491a 63bb 2295 edbd 68dc 51bd
00000180: 1c47 7c3c 7769 7ebc 5ae0 11bd 61d3 003d
00000190: c10e a5bd ffe0 ebbc 1b6d 1dbd 1058 abbd
000001a0: 0ef7 b3bd 91f7 813d 3dcf 733d 3fac aabc
000001b0: 1603 88bd 87aa a3bc 1eda f6bc a635 6fbd
000001c0: c55b 993d 1918 4fbb 464f 593d 1e61 7d3c
000001d0: 1c3e 823c 2bd2 23bd 545a 753d 0227 c83b
000001e0: 922b 893d 0d46 b23d f46d afbd 71ae 303c
000001f0: 76be 873d 69ff 50bd bb94 073d d23d 893d
00000200: cd2f 2ebd 5a22 803b a7cc df3c b91b b63d
00000210: 60b1 e73b 484b 9e3d acc0 ac3d 0b10 29bd
00000220: 36ba ac3d 38ad 1f3c b403 bf3c 8ba0 e93c
00000230: e45e 9cbc bb22 ac3d ddcd 9f3d 65d0 363d
00000240: 1d37 a7bc ab66 013d 6fd5 973d f255 0ebd
00000250: 0f8e 22bd 40aa 273b a763 9abc c7c5 65bd
00000260: 4f3b 953d 48bf bcbc a712 efba fd4b 24bd
00000270: 07be 883b e463 9fbd 5adb 193d d994 fcbb
00000280: 76c5 ac3d 7f09 a93d dd8e 743d 25c5 08bd
00000290: 19b2 53bb 6380 023d e320 8d3d 1327 863d
000002a0: 5582 713c 4b7e 803d 7773 643d e6ca 24bd
000002b0: d98a b0bc e378 25bc 8c06 04bd 6aba b23a
000002c0: 37d7 a03d 6b9b cd3c 06e5 3e3c 37e4 173d
000002d0: 88b4 ad3d c429 833d c70f b93d 36bd 923d
000002e0: 956d ac3c 9b7e 953d f995 fb3c 5963 7f3d
000002f0: 0a09 edbc 075c 983d d0b5 74bb eff0 1c3c
00000300: 4326 ab3d 65aa 14bd d0d1 1dbc ef11 8d3d
00000310: edf1 74bd 8a2a 21bd 82f5 58bd 8f9a 48bd
00000320: e79e f2bb 188f 373d 99d5 54bc 0461 96bd
00000330: c9ec 4ebc 451e bc3d 1f32 a13c 1d74 ec3c
00000340: 7cd9 74bd 84d6 89bd 99cb 1cbd 9bd4 1b3d
00000350: f825 d2bd 8b1f a1bd e90b e1bd a540 453d
00000360: 2714 3e3d ba2d 8abd b2b5 bcbd e9b6 1ebc
00000370: 4204 4abc cf4a 9fbd ea49 72bd 0ebc fc3c
00000380: 7111 2abd 72d2 03be 772c d23c a564 a8b9
00000390: af55 a4bc 4fdc babd 4d84 acbd 011e 313d
000003a0: ec1b 85bd 7a8a 96bd 728f 92bd 71aa d9bc
000003b0: 4430 2e3d 3836 383d 4a48 15bd f4ea 46bc
000003c0: 75c4 593d a91b 093c 4f7a 81bd 0978 aa3d
000003d0: 0e39 623d 3fbb cfbc e3c2 a23d aba7 4ebd
000003e0: 1ed9 833d c4db 4fbc 980a fa3b bb90 7c3d
000003f0: 399a 2d3d 93f0 dcbd c526 4f3d 4812 9ebd
0.06619067 -0.0056649847 0.01704933 0.020218002 0.054371715 -0.0008259658 -0.011363663 -0.0023758276
0.035941985 0.057552136 0.020830562 0.05288766 0.01617873 0.06862623 0.09548571 0.04719288
0.040935196 0.008185068 0.04035686 -0.032839622 -0.07198547 -0.08155263 -0.009183964 -0.050691206
-0.076468304 0.03762317 -0.10067484 0.053176116 -0.0068134004 -0.031398226 -0.09603951 -0.09546024
0.07426759 -0.040499598 0.018810557 0.00532218 -0.08841321 0.05356188 -0.06863699 0.0285891
0.06798432 0.019316489 0.07851086 0.004538566 0.025619337 0.0035223512 -0.054285318 -0.041233186
0.05098452 0.09739077 -0.042512037 0.034285277 0.092489645 -0.028321277 -0.0031177122 0.100067884
0.09210736 0.06286714 -0.009946034 -0.046565007 0.081927694 -0.007431267 -0.052859392 0.0798633
-0.01597373 -0.029998241 0.08733578 0.025481896 -0.051993586 0.029884165 -0.05821189 0.06857837
-0.04255846 -0.06742344 -0.04902371 -0.022588624 0.011975642 0.060031056 0.07239349 -0.055165313
0.06504683 -0.029109746 -0.05832239 -0.05769795 -0.06758472 -0.08008472 -0.015308894 -0.05477485
0.02329368 -0.044584755 -0.10975043 -0.10280975 0.026507778 -0.0034653118 -0.116007105 -0.051235586
0.015397813 -0.0155280745 -0.03561435 0.031451587 -0.08059455 -0.02879381 -0.03843413 -0.08366406
-0.08787356 0.06346048 0.05952381 -0.020834086 -0.066412136 -0.019978775 -0.030133303 -0.058400773
0.07488207 -0.0031600057 0.053054117 0.015465049 0.015898757 -0.039995354 0.059900597 0.0061081657
0.066977635 0.087047674 -0.08565894 0.010783778 0.066281244 -0.051024828 0.033100825 0.067012444
-0.042526055 0.003910345 0.027319266 0.088920064 0.0070707053 0.077292025 0.08435187 -0.041275065
0.084339544 0.009745888 0.023317195 0.028518936 -0.019088216 0.08405062 0.07802937 0.044632334
-0.020412022 0.031592052 0.07413756 -0.034749933 -0.03968626 0.0025583655 -0.018846346 -0.05609682
0.07286703 -0.023040429 -0.0018239812 -0.04011153 0.0041730436 -0.077827245 0.037562706 -0.0077081737
0.084361 0.08253764 0.059706558 -0.033391137 -0.00323022 0.03186072 0.06891038 0.065504216
0.014740546 0.062740885 0.05577418 -0.04023256 -0.021550583 -0.010099622 -0.032232806 0.0013635878
0.07853549 0.025098523 0.011651283 0.037082877 0.08481699 0.064044505 0.090362124 0.07164995
0.021048347 0.07299539 0.030711161 0.062350605 -0.028934974 0.07439428 -0.0037339814 0.009578927
0.08356907 -0.036295313 -0.009632543 0.06888186 -0.05980103 -0.03934721 -0.05296851 -0.048975524
-0.0074041965 0.0448142 -0.012990379 -0.07342723 -0.012629696 0.09185461 0.01967722 0.02886396
-0.05977772 -0.06730369 -0.038280103 0.038044553 -0.10261148 -0.078673445 -0.109886 0.048157353
0.046405938 -0.06747003 -0.09214343 -0.009687164 -0.012330117 -0.077779405 -0.05915252 0.03085139
-0.04152054 -0.12873247 0.025655968 -0.00032118443 -0.020060388 -0.09124052 -0.08423672 0.043241505
-0.06499466 -0.07350631 -0.07156266 -0.02657053 0.0425265 0.044973582 -0.036445893 -0.012140978
0.05316587 0.008368411 -0.06322157 0.08323676 0.055230193 -0.02535784 0.07947328 -0.05045287
0.06437896 -0.012686674 0.0076306574 0.061661463 0.042383406 -0.107880734 0.050574083 -0.077183306

fcIn.bias f4 [30]
00000000: 5b34 b7bd 8a2a 9ebd 4d02 a4bd c936 0a3e
00000010: db23 613d 2ae0 ff3d cb5e 99bc 04f9 543e
00000020: 5ba3 283e b066 ed3d 10e9 913d a4bb da3d
00000030: 5a3e 163c d529 f13d 14e7 473e d48d 8bbe
00000040: 42b1 1dbe 384c 2e3e 8187 1dbd 2c1b 12bd
00000050: 8a9a 903d 9b6d fcbd 438c 06bd c9f9 9bbe
00000060: f3e2 963d 2a6e 03be 1dc0 a2bd eaed 9f3c
00000070: 6169 c6bc 5852 153e
-0.08945533 -0.077229574 -0.08008251 0.13497461 0.054965835 0.12493928 -0.018721959 0.20798117
0.16468565 0.11591852 0.07124531 0.10680321 0.009170139 0.11775557 0.19521743 -0.27256644
-0.1539965 0.17021263 -0.038459305 -0.035670444 0.07060726 -0.12325593 -0.032848608 -0.30464008
0.07367506 -0.12834993 -0.07946799 0.019522626 -0.02422017 0.14582193

fcOut.weight f4 [2, 30]
00000000: d66e c7be a8e2 b0bd bcef 8abd e6dd 1d3e
00000010: 9bde 8a3d cd7a 2dbe 4a26 d13e 8e75 e13d
00000020: ea75 f63e ff57 8fbe 7f45 183e 120b 823f
00000030: 84e4 e43d 4907 753b 1ed7 e0bd 70b2 24be
00000040: 56ae 81bf 105d 7ebe b54a 1c3d b62e 913d
00000050: 4f56 17be 8e9e 283e 95ca 37bd dd82 f2bd
00000060: ac49 71bb db9a b33e 0d49 313e 6810 3b3e
00000070: 6c6a ecbe b858 c83c b34b d7bd 9ea9 3cbe
00000080: 8885 8e3d 2e5c d6ba 3289 57be 8769 9d3d
00000090: 7125 dd3d cfda f23d 3977 193f d392 6cbe
000000a0: d62f cbbc 21aa b53b 482d af3e d858 253e
000000b0: a368 18be cdaf 4bbe 3e66 a13e cf9e c53e
000000c0: 8423 1bbd 0745 4bbe da0f 1abe 7622 36bd
000000d0: 8097 4abe 236b 45be b0d5 003e 1ab7 903e
000000e0: eb0e 80bd 1b4e 5bbd b026 aa3e c692 d53d
-0.3895175 -0.08636981 -0.06784007 0.15416679 0.0678074 -0.16941376 0.40849525 0.1100875
0.48136836 -0.27996823 0.1487026 1.0159628 0.111763984 0.0037388375 -0.1097853 -0.16083694
-1.0131328 -0.24840188 0.038157184 0.070889875 -0.14779018 0.16466734 -0.04487093 -0.118413664
-0.0036817594 0.35079083 0.17313023 0.18267977 -0.46174943 0.024456367 -0.10512485 -0.18424079
0.06959063 -0.0016354376 -0.2104843 0.07686143 0.10798157 0.11858141 0.59947544 -0.23102884
-0.024803083 0.0055439626 0.34214234 0.16147172 -0.14883666 -0.19891281 0.31523317 0.38597724
-0.037875667 -0.1985055 -0.1504511 -0.04446646 -0.19784355 -0.1927915 0.12581515 0.28264695
-0.062528454 -0.053541284 0.3323264 0.104283854

fcOut.bias f4 [2]
00000000: c6a6 c53d 671a 813f
0.0965095 1.0086182
