PyTorch/lightning_logs/version_2/checkpoints/epoch=99-step=11900.ckpt (torch, 21587 bytes, 6 tensors)

fc1.weight f4 [30, 105]
00000000: d415 ae3d 81d2 44bd 6b2d b43d 7955 c9bd
00000010: 65c9 78bd db7d 9ebd c59a c3bd 8124 e3bb
00000020: f6e8 233d c4c2 423d 5edb 05bd ed8c 373d
00000030: 01d0 bbbc bfe7 613c fd14 71bd dd63 843d
00000040: c21e 9d3d c802 b33d f629 86bc 3d4c 8e3d
00000050: 4a20 5fbd 85dd 2e3d 7eec 303d fb84 b5bd
00000060: cdef 9c3c 4230 1c3d dfc8 233d 9a20 7b3c
00000070: 19d8 843d d2a6 83bd afe9 603c c469 753d
00000080: 03d5 77bb 8c5b 86bc 073d b83d f4f9 bebc
00000090: 2aa1 d2bc 35d5 283d 492d a1bd af89 b2bd
000000a0: 4f6a d23c b09d 913d dfdd 2ebd aada 2bbd
000000b0: a908 8c3c f6fd c4bb 31d2 b03d 89bb aa3c
000000c0: 9c5a cebd ba42 5dbb 784d 893d 401a 043d
000000d0: 892b 2fbc 9bc0 513d c01d 92bd 5921 babc
000000e0: 2ac1 b13d c526 78bd fec2 423d 5912 94bd
000000f0: 64d0 b7bd ce0d c8bd 7cef c0bb 3bc0 233c
00000100: 19b0 02bc 4783 f53b a4ee e13c 068e 9cbd
00000110: 0c33 06bd 1bcf 913d 98f1 803d dd0c bf3d
00000120: bc33 c33d f0eb ba3d 995b e4bc c20d 4438
00000130: 6e31 b93d e7ac 963c 4f4c f1bc 3250 bfbc
00000140: e76e 22bd c88a 21bd 0e98 ce3d ea22 993d
00000150: 8083 91bc 3ac5 b4bd b765 a1bd 0ccd 85bd
00000160: 6974 af3d 69a5 533c 5c87 8fbd 05af d8bc
00000170: fc46 b53d a6bd 7d3d 703f 083d 77b6 49bc
00000180: 9ba8 c8bd ae68 b03d 3ac3 7abd 6bfb 4db8
00000190: a66c 9fbd 295c 873d 6a84 3d3d e865 65bd
000001a0: a4c1 923d cd8a bcbb 2a80 89bc 5807 babc
000001b0: 4a06 693d 967f 51bd c83b 483d ca4f 1e3b
000001c0: 0378 873d 35c8 54bd 00a7 acbd 5559 073d
000001d0: 951d aebd a96e 99bd a497 ab3d 18cd 97bd
000001e0: 1746 c4bd 3354 d43b 0422 853d 1676 ecbc
000001f0: fb2e 25bd 10b4 bebd 3d0d 99bd 1ec1 a03d
00000200: 4a38 853d 11b3 48bc a42e 32bd 3c22 d7bd
00000210: e2fd 1f3d 6f96 e7bd 685f d33b 04e6 903d
00000220: aa4d 403b 93a8 e4bd 80cf 72bd e7e5 fdbc
00000230: 7d67 703d 491a 37bd 7be5 e9bc c3fe 953d
00000240: 4b6d 42bd 87d9 b4bc ed5c f13c 1c3b 04be
00000250: 8297 ddbd 6075 8ebc c7ef ccbb e876 05be
00000260: 08d3 b8bd c213 103c 5941 33bd 9b8b fc3b
00000270: c3cf e9bd 6b74 8dbd 4f6a b8bd 5da4 aebd
00000280: 2a73 00be 1b45 40bc d397 3d3d c12a 2fbd
00000290: e1f3 4fbd f601 8abc 5198 553d b1b0 8f3c
000002a0: 9e87 d3bd 09c9 bbbd 7dc8 09bd 6e77 0bbd
000002b0: b063 f8bc 4f36 983c 8508 72bc 8c89 02be
000002c0: b3b2 df3c ba71 0abe b5ef fdbd 0a0d 113a
000002d0: 26ad 43bc 84fe 22bd 4799 9bbd 9b04 d2bd
000002e0: 8076 98bb 6c10 833d e2dd 213d 841f 98bc
000002f0: a88d 5c3d 9dfa 073e 4f85 613d 0c5f c93d
00000300: ef50 13bd 1e58 e03d 735c ed3d 04d3 393d
00000310: dc02 0ebd 6caa baba 9a40 a8bc 735c 243d
00000320: 139d bebc dac6 e13c d547 7c3d 80ec 0d3e
00000330: 8d34 a33d 85f6 853c fb70 ba3d c07e 933d
00000340: d257 a33d accb 223d 921d 0f3d c41a be3d
00000350: 5f85 803d 2940 bfbc 0278 9a3d 5639 803c
00000360: fda1 b63d da30 9cbc 3aeb 1b3d e214 1dbd
00000370: 0168 163d 9b42 803d 909e 923d 7a4c 74bd
00000380: 3c19 fbbc f9c5 b73d 3d3a 553d ad4c babd
00000390: 05a5 d9bd 8c98 71bd 1c64 6f3d 6071 d3bb
000003a0: 071e 0abc c25e 853c e0b5 533d a385 b9bd
000003b0: 9d27 2dbd a308 113d 8a43 b1bd 6370 e43c
000003c0: 07b7 233d 471a 923c f010 993d 52de 8a3d
000003d0: b65d b93d 227a 003d 3586 30bb ca00 ad3d
000003e0: 821f c0bd b310 51bb 7aeb 983d 4dff 363d
000003f0: 4013 40bd f16b 3b3d 4054 14bd 4905 c3bd
0.08500257 -0.048052315 0.08797725 -0.09830756 -0.06073894 -0.07738849 -0.09551004 -0.006931842
0.04001709 0.047549024 -0.032679908 0.04481213 -0.022926332 0.013788163 -0.058857907 0.0646436
0.07671882 0.08740765 -0.01637743 0.06948135 -0.054474153 0.042691726 0.043194287 -0.08863255
0.019157315 0.03813196 0.039986487 0.015327597 0.0648653 -0.06428303 0.0137275895 0.05991532
-0.0037816174 -0.016401075 0.08996015 -0.023312546 -0.025711615 0.041218955 -0.078699656 -0.08717667
0.025685458 0.07110155 -0.04269206 -0.04195658 0.017093973 -0.00601172 0.08633841 0.020841377
-0.10075876 -0.0033761696 0.06704229 0.032251596 -0.010691532 0.051209074 -0.071345806 -0.02272098
0.08679421 -0.06058385 0.04754924 -0.07230062 -0.08975294 -0.09768258 -0.0058879238 0.009994562
-0.007976555 0.007492456 0.027579613 -0.07644276 -0.032763526 0.0711958 0.0629608 0.09328625
0.09531352 0.09127033 -0.027875708 4.6742854e-05 0.09042631 0.018392993 -0.029455332 -0.02335367
-0.039656546 -0.039438993 0.10087596 0.074773625 -0.0177629 -0.088266805 -0.07880729 -0.0653325
0.08567125 0.012917855 -0.070082396 -0.026450643 0.0885143 0.06194844 0.033263624 -0.012311569
-0.09797784 0.08613716 -0.06122134 -4.910996e-05 -0.07784395 0.06609375 0.046268858 -0.05600539
0.0716584 -0.005753851 -0.016784746 -0.02270858 0.056890763 -0.051147066 0.048885137 0.0024156445
0.06614687 -0.051948745 -0.0843029 0.033044178 -0.08501736 -0.0749181 0.083785325 -0.074121654
-0.09583681 0.006479764 0.065006286 -0.028864902 -0.040328007 -0.09311688 -0.07473228 0.07849334
0.06504877 -0.012249724 -0.04350151 -0.105045766 0.03906048 -0.1130799 0.0064505823 0.07075122
0.0029343166 -0.111649655 -0.05927992 -0.030993415 0.058692444 -0.0447028 -0.028551808 0.073239826
-0.04746751 -0.022076381 0.029463256 -0.12913173 -0.108199134 -0.017389953 -0.0062541696 -0.1303364
-0.09024626 0.008793773 -0.043763492 0.007707072 -0.114165805 -0.069069706 -0.09004652 -0.085274436
-0.12543932 -0.011735226 0.04628737 -0.042765383 -0.05076969 -0.016846638 0.052147213 0.017540308
-0.10328601 -0.09169204 -0.033638466 -0.034049444 -0.030320972 0.018580584 -0.014772539 -0.12747782
0.02730689 -0.13519946 -0.12399236 0.0005533254 -0.011943137 -0.039793506 -0.07597595 -0.10254785
-0.004652798 0.063996166 0.039518245 -0.018569715 0.05384603 0.13279195 0.055058774 0.09832582
-0.035965856 0.10954307 0.11589899 0.045367256 -0.034670696 -0.0014241464 -0.020538617 0.04012723
-0.023268258 0.02756064 0.061591942 0.13859749 0.07969008 0.016352901 0.091035806 0.0720191
0.07975735 0.039745018 0.03494031 0.09282449 0.062754385 -0.023346024 0.07542421 0.01565234
0.089176156 -0.019066263 0.038066126 -0.038349994 0.03672028 0.06262704 0.0715915 -0.059643246
-0.030651681 0.08973307 0.052057493 -0.09096656 -0.10627178 -0.05898337 0.05844508 -0.0064527243
-0.008430011 0.016280536 0.05168712 -0.09058692 -0.042274106 0.035408627 -0.0865546 0.027885621
0.03996947 0.017834796 0.07473934 0.067806855 0.09051077 0.031366475 -0.0026935462 0.08447416
-0.0938101 -0.0031900823 0.074667886 0.044677068 -0.04689336 0.045757238 -0.03621316 -0.095224924

fc1.bias f4 [30]
00000000: 9b60 b0bd a8be f53d b112 a7bc fae1 50bc
00000010: b55f 2e3b 1bdb 17bc d4f8 b6bc 17ed 603d
00000020: 69e9 e33d 6dc2 94be 9a97 ad3d ead6 51bd
00000030: f641 a2bd 9814 bc3e c48c b7bc 29e1 2cbe
00000040: 6f9c 323c 594c 37be 73f7 153e a2d6 013e
00000050: 51fd 1dbc 0f35 8cbc c529 8f3d 1e71 af3d
00000060: b3b7 85bc 2439 a93e 0cc0 3a3e ae8c 8fbe
00000070: 460a 0c3e a831 81be
-0.08612176 0.119992554 -0.020394655 -0.0127491895 0.0026607339 -0.009268547 -0.022335447 0.054913606
0.11128504 -0.29054585 0.08476181 -0.05123035 -0.07922737 0.36734462 -0.02240599 -0.16882767
0.0109015545 -0.17900218 0.14645176 0.12679532 -0.009642915 -0.017115144 0.06990389 0.08566497
-0.016322946 0.33051407 0.18237323 -0.28037018 0.13675794 -0.25233197

fc2.weight f4 [30, 30]
00000000: 478d 183c 75d6 66be 01cc f3bc dc93 7d3c
00000010: 79d6 903a 1ee3 f7bc dd35 b23d f298 e83b
00000020: 66ce aa3d e9a1 b3ba 382c 2cbe f61d 2dbe
00000030: 0aea 92bc 878d b6bd 8966 47bd 8c84 6e3e
00000040: d9a0 503d 48b7 2c3d 605a 26bd f07c 41be
00000050: d656 a7bd c24e f7bc 8f70 113d d701 21be
00000060: eaa2 ea3c 47e5 67be 8f1f 5abe 6b0e 593e
00000070: b3d1 ab3c 9c23 ba3d eed6 7b3d d9b1 23be
00000080: c66e 2cbe 201f 86bd 8440 a53d 8664 cfbd
00000090: aa30 56bd 90ab 0a3d 85f2 823d 1f2c a43e
000000a0: b49c dfbd 1fd6 6dbd ae7e 21be bb26 07be
000000b0: 9ebf c0bd 49eb a83d 636c 853d f5e6 253e
000000c0: 7d41 44bd 01b9 50be a636 1bbd 4ca8 933d
000000d0: 9c4b 4abc 0882 16be 8317 8f3c 2183 51bd
000000e0: ceae 743c 1a11 7d3d 5313 03bd 0e3b bc3a
000000f0: 4060 963d 8543 143e b387 863d bdeb 263d
00000100: 66c2 dabb 077b 063d a31b 12be d6c4 c93d
00000110: 1fd5 8a3d 7bc7 4e3e 4bbd a4bc 75bf 2abd
00000120: 34bb df3d 777b 7bbe bb05 dfbd 8fa6 bb3d
00000130: 0a4c a2bc 0efb 603e b997 8b3d 89b2 e43d
00000140: 29a3 0e3e 3323 35be e274 1339 7ee6 6cbd
00000150: dbf7 e23d 7ddd 02be 7de1 543c ad40 723e
00000160: f6bf 613c 8efe 033b 79be 41be 8c87 403e
00000170: ed61 703e 0935 9dbd f4f3 c03d bbbd a63d
00000180: 80f1 b33d 46a9 d63d a213 2a3d af57 d0be
00000190: e871 8b3e f991 c53d 17dd ddbc c993 9e3e
000001a0: e193 783d 8424 0ebd bada 6f3e 52c1 51bd
000001b0: 4d38 0c3e 6f4f 853e 737d 0cbe 47d6 1c3e
000001c0: dd3e 08be b6ad 053e 46c2 803d 8cf0 bf3e
000001d0: b479 893e af0d 57be 9d63 5c3d df1e 30be
000001e0: 400a 01be 1795 353e 9013 9bbd 98e4 2dbe
000001f0: 7270 033e f91f debd f2d8 1e3e 9f86 f1bd
00000200: eaf0 e53d a802 8f3e 90dc 893c 5e23 3bbd
00000210: e1d7 39be f716 51bd e64f febd 1f8d 5f3e
00000220: c334 38bc 37df c3bd c6cf f93d ad05 7f3e
00000230: 1f34 a2bd e22b 37be 1f82 65bd ef90 25be
00000240: cce2 853d a21c 503e d92b b33b 3115 a33d
00000250: fafe 223e e682 30bc 61a5 1cbe 07bf 13be
00000260: 30f0 713d 804a 70bd de40 233e efc6 0dbe
00000270: 1c1d 00bc eaa3 49bd 7881 39be 2fc9 a4bd
00000280: c857 073e a02a 0abe 5f1b babc 7c10 11bd
00000290: 9bf2 1e3e 3682 3dbe b8d4 8c3d 882a 8fbd
000002a0: 2f6b 0e3e e583 3ebe 1d74 33be a23f 383d
000002b0: fbf2 b83b 5522 1e3e fb68 043b ca67 063e
000002c0: 2860 f6bd 97f1 2ebe c039 c83d 30bd 423d
000002d0: 4257 763d f1ae d4bc 0bab 323e c8d8 473d
000002e0: 4194 323e 7f14 4abe e4dc 1c3e f9eb 363e
000002f0: 98ec 0cbe 5670 5d3e 90ec 653d 7151 203e
00000300: 8fff edbc 0104 873d 37c4 1e3e 5e22 533d
00000310: 1ec3 983d b7f3 923d 48bd 843d 8add 333e
00000320: 9ee0 973d e02c 89bd 7ca2 aebd 6bde bc3d
00000330: 29c7 ef3d f9f0 6dbc e345 873d 9db1 3e3d
00000340: 1e43 36bd 63bb aa3d 7b0c 733d a7e2 94bd
00000350: 9fef f4bd b678 003e 4cae 993d 70b7 283e
00000360: 4618 97bd 4762 8bbd 89a7 0fbe 95ac 4a3d
00000370: e7dd 22be 9931 253e 67c9 2abd 08aa 143e
00000380: 175c 20bc 7ffa 83bc 886d 423e 1c65 a33d
00000390: e638 c23c 6e6e fa3d eb17 2ebe b48b 8c3c
000003a0: 8b98 ce3d 589d fcbd ea4c 2c3d c798 0dbe
000003b0: fdd6 183e 1626 b23d e056 ecbd 093d 1f3a
000003c0: be95 c13d 7aea 82be 91c6 81be f590 1f3e
000003d0: dcfb 3fbe 11f3 793d 7493 3d3c d819 bcbd
000003e0: 49aa 5abe c542 153e 58fe 88be 53fd ddbd
000003f0: 46c3 fb3c f180 c0be e79c 21be 7b95 663e
0.009311027 -0.22542746 -0.029760363 0.015477147 0.0011050246 -0.030259665 0.0870168 0.0070983106
0.08340149 -0.0013704869 -0.16813743 -0.1690596 -0.017933864 -0.08913713 -0.04868177 0.2329275
0.050934646 0.042166978 -0.040613532 -0.18895316 -0.081708595 -0.030188922 0.035507735 -0.15723358
0.028642137 -0.22646056 -0.21301101 0.21196906 0.020974016 0.09088823 0.06148427 -0.15985812
-0.16839132 -0.065489054 0.08068946 -0.10126595 -0.052292503 0.03385502 0.06393913 0.32064912
-0.109185606 -0.05806553 -0.1577098 -0.13198368 -0.09411548 0.08248002 0.06514814 0.16201384
-0.047914017 -0.20383073 -0.037893914 0.072098345 -0.012347128 -0.1469804 0.017467266 -0.051150445
0.014934255 0.061783887 -0.03200085 0.0014360861 0.07342577 0.14478882 0.06568851 0.04075216
-0.006676006 0.03283217 -0.14268355 0.098519966 0.06778931 0.20193283 -0.020109793 -0.041686494
0.10924378 -0.24558817 -0.10889765 0.09162628 -0.019811649 0.2197077 0.06816048 0.111668654
0.13929428 -0.17689209 0.00014062555 -0.057837002 0.11082431 -0.12779804 0.012993214 0.23657484
0.013778677 0.002014074 -0.18920316 0.18801707 0.23474856 -0.07676131 0.0942153 0.08141657
0.08786297 0.10481505 0.04152263 -0.40691897 0.2723534 0.09646983 -0.027082963 0.30972126
0.060687903 -0.034702793 0.23423281 -0.051209755 0.13693352 0.26037166 -0.1371973 0.15316115
-0.1330523 0.13054547 0.06287055 0.3748821 0.26850665 -0.21001314 0.053805936 -0.17199276
-0.12601566 0.17732655 -0.075720906 -0.16981733 0.12835863 -0.10845942 0.15512446 -0.11793255
0.11227591 0.27931714 0.016828805 -0.045688026 -0.18148758 -0.05104729 -0.12417583 0.21831177
-0.011243048 -0.09564059 0.12197833 0.24904509 -0.079200976 -0.17887834 -0.056032296 -0.16168569
0.06537399 0.20323423 0.0054678735 0.07963026 0.15917578 -0.010773396 -0.15297462 -0.1442834
0.05906695 -0.0586648 0.15942714 -0.13845418 -0.00781944 -0.049228586 -0.18115795 -0.08046185
0.1321708 -0.13492823 -0.02271813 -0.03541611 0.15522234 -0.18506703 0.068765104 -0.06990534
0.13908075 -0.18605001 -0.17524762 0.04498256 0.0056442 0.15442784 0.0020204175 0.1312553
-0.12030059 -0.17084347 0.0977664 0.047543705 0.06014181 -0.025962325 0.1744806 0.048790723
0.17439367 -0.19734381 0.15318638 0.17863454 -0.13762128 0.21624884 0.056133807 0.15656067
-0.029052524 0.065925606 0.15504538 0.051546447 0.07459091 0.07175391 0.06481415 0.17564979
0.07415889 -0.06698012 -0.08527085 0.0922211 0.11707909 -0.014522784 0.06605127 0.046556104
-0.0444976 0.083365224 0.059338074 -0.07269793 -0.119597666 0.12546048 0.075039476 0.16476226
-0.07377677 -0.06805854 -0.14028753 0.049480993 -0.15904962 0.16132201 -0.04169598 0.14517987
-0.009787581 -0.016110657 0.18987095 0.079782695 0.023708772 0.12228094 -0.17001311 0.01715646
0.10087689 -0.123346984 0.04206554 -0.13827811 0.14925762 0.086986706 -0.115400076 0.00060744636
0.09452389 -0.25569516 -0.25346807 0.1558264 -0.1874842 0.06102282 0.0115708 -0.09184617
-0.21354021 0.14576252 -0.2675655 -0.108393334 0.030732762 -0.37598374 -0.1578251 0.2251796

fc2.bias f4 [30]
00000000: f42f 38be e38a cabb 33af 04be e9e7 3b3e
00000010: 4921 20be ef4c 70bd b90f f83c aed0 35be
00000020: b6c1 1dbe e201 f83d ef4e 013d e171 383e
00000030: 5645 82bc a50b c93d 008f 64bc 7e21 7dbd
00000040: 6772 643e 1db3 25be 7ddc 003e f747 333d
00000050: 6fe5 143e beef 713d af53 ae3d 5715 253e
00000060: 3a1f 3ebe ef76 d93c 41e9 cf3d bb09 d53d
00000070: d54b 393d 293d 78bd
-0.17987043 -0.0061811074 -0.12957458 0.18350185 -0.15637697 -0.05866712 0.030280935 -0.17755386
-0.15405926 0.12109734 0.031569418 0.18012191 -0.015902203 0.09816674 -0.0139501095 -0.06179952
0.22309266 -0.16181608 0.1258411 0.043769803 0.14540647 0.059066527 0.08512055 0.16121422
-0.185666 0.02654597 0.101519115 0.104022466 0.045238335 -0.060605202

fc3.weight f4 [2, 30]
00000000: 318e a7be c789 b1be e209 cbbe 352e 203f
00000010: 46c8 bfbe e499 1d3e c83b 59be 2fd4 0b3d
00000020: e716 35bf d19b 8bbe 1d23 efbd 2543 cd3c
00000030: d945 4d3e 2dd2 b8be b15f efbd 0f83 cfbe
00000040: 0b99 ee3e 9e16 03bf 402b 093e 7ccf 1b3e
00000050: 90d1 7cbe 82b4 1d3f 1619 26be b74f d4be
00000060: 783d ebbe 0c2b a33e 8b6f b13e be6e 143e
00000070: 8433 293e d5b4 b83e 18e4 613d 0cbd 853e
00000080: f70f bd3d bfd7 743e ba4b bf3d ec45 0d3e
00000090: 3da7 893e 2e83 20bd 6ff4 633e f4e3 9d3c
000000a0: be3d a13e c683 843e e9e8 1a3d 2cae 9e3d
000000b0: 372d 133c 1351 0c3e 4269 873e 7522 0e3e
000000c0: 8b42 fe3b e6b9 003e 3b29 9c3e ad05 a83d
000000d0: c121 563d 93ae 573e 81b5 51bb a743 973e
000000e0: 4dd9 2c3e 803f 2a3e 32f0 743e 4d17 7e3b
-0.3272567 -0.34675428 -0.39655977 0.62570506 -0.37457484 0.15390736 -0.21214211 0.0341379
-0.7073807 -0.27267316 -0.11676619 0.025056431 0.20046176 -0.3609785 -0.116881736 -0.40529677
0.46601138 -0.51206386 0.13395405 0.15215868 -0.24689317 0.6160356 -0.16220507 -0.41467068
-0.45945334 0.3186878 0.34655413 0.1449537 0.16523558 0.36075464 0.055149168 0.26120794
0.09231561 0.23910426 0.093406156 0.13796204 0.26885405 -0.039187603 0.22261213 0.019273736
0.31492418 0.25881785 0.037819777 0.077480644 0.008982948 0.13702802 0.26447493 0.13880332
0.0077593974 0.12570915 0.30500206 0.082042076 0.052278284 0.21062689 -0.0031999054 0.29543802
0.16879769 0.16625786 0.23919752 0.0038771213

fc3.bias f4 [2]
00000000: 203a d83d 0f99 aa3e
0.105579615 0.333199
