PyTorch/lightning_logs/version_23/checkpoints/epoch=99-step=11900.ckpt (torch, 19931 bytes, 4 tensors)

fcIn.weight f4 [30, 126]
000000 e3 13 5e bd 72 dc 45 3d f8 4d ce 3d ab 3e 64 bd
       -0.054218184 0.048305936 0.10073465 -0.055723827
000010 55 80 b2 3d 58 77 9f 3d 0d 62 8a bd d7 19 8b bd
       0.08715884 0.07786435 -0.06756983 -0.06792038
000020 44 ee c2 3d 9c 81 8f bd 57 d1 83 3d 3a 50 81 3d
       0.09518102 -0.07007143 0.06436413 0.0631413
000030 ae dc 15 bd 1a d2 a1 3b 9f 66 c4 3d 94 e6 3e 3b
       -0.03658741 0.004938376 0.09589886 0.0029129134
000040 20 71 17 3d 55 9c 81 bd 4d b2 d5 3d 9c d1 66 3d
       0.03697312 -0.06328646 0.10434399 0.056352243
000050 d0 d5 90 3d 94 de 93 3d e0 ae ab bc d6 94 6c 3d
       0.070720315 0.07220188 -0.02095741 0.05775913
000060 41 c5 aa bd a0 36 d9 3c d3 cc 2e 3d 31 2b 88 bd
       -0.083384044 0.026515305 0.042675804 -0.06648863
000070 5e 4d d4 3c b3 96 b2 bc e9 c9 35 3d 25 0e d6 3a
       0.025915798 -0.021800375 0.04438201 0.001633112
000080 2b c9 5f bd 17 62 cb bc 59 44 34 bd f2 5c 8d bb
       -0.054635208 -0.024827046 -0.044010494 -0.0043140585
000090 9c 3f 32 bd 27 b8 b9 bd 7f cf 1f 3c 71 4a 39 3d
       -0.043517694 -0.090683274 0.009754061 0.04523701
0000a0 f3 cb 99 3d 4b e9 92 3c e3 14 76 bd 8f 08 95 3a
       0.07509603 0.017933508 -0.060078513 0.0011370349
0000b0 54 f7 44 bd fa 5c 31 3d 82 43 13 bc 80 b5 13 bd
       -0.048087433 0.04330156 -0.008988263 -0.036061764
0000c0 32 99 bd bc 59 59 18 3d 33 2a 7c bd a7 dc 19 bd
       -0.023144338 0.037194584 -0.06156368 -0.037563946
0000d0 91 cf ce 3d 03 d1 ad bc 40 8a c4 3d 85 10 83 3c
       0.10098184 -0.021217829 0.095966816 0.015999088
0000e0 0d 67 34 bd 87 29 52 bd 54 05 05 38 e4 a8 51 3c
       -0.04404359 -0.051309135 3.1714633e-05 0.012796614
0000f0 03 88 7a 3b e7 ab 44 bd 70 1d 4a 3d c9 13 dc bb
       0.0038228042 -0.0480155 0.04934448 -0.0067162258
000100 a8 fb 0c 3b 68 55 09 3d 77 15 a0 3d b6 fa 21 bd
       0.0021512304 0.033528715 0.07816594 -0.039545737
000110 b9 73 80 3d 6b fc 8a bd 85 23 03 3d bd 25 44 3d
       0.06272072 -0.06786426 0.032016296 0.047887553
000120 90 e0 bd 3d 6c dd 4e 3d 91 66 94 3d 00 49 9f 3d
       0.092713475 0.050504133 0.072461255 0.077775955
000130 da ab c4 3d f8 15 9b bd 42 34 c0 3d b7 52 8a bd
       0.096030906 -0.075725496 0.093849674 -0.06754058
000140 e1 d1 e9 3c 69 92 c0 bc d7 3c 8f 3b f7 34 96 bd
       0.02854246 -0.023507314 0.0043712663 -0.07334321
000150 7f de 79 b8 db 70 fa bd 8e 6b c4 bc 74 fd fd bd
       -5.9573442e-05 -0.12228557 -0.023977067 -0.12401858
000160 ca 6b e2 bd c7 3c ac bd 77 ef 3f bd 54 47 83 bc
       -0.110557154 -0.0841003 -0.04685923 -0.016025223
000170 09 18 e7 bc e8 63 1e bd 15 dd 1a bc d3 18 ed bd
       -0.028209703 -0.038669497 -0.009452124 -0.115770005
000180 22 b0 41 bd 2c 18 ca bd 9b e9 05 bd 8c 26 8f bd
       -0.047287114 -0.09867892 -0.032693487 -0.06989774
000190 7b b9 e4 bc 64 fc d7 bd 23 f6 b1 bb cd 13 00 bd
       -0.027920475 -0.105461866 -0.005430953 -0.031268883
0001a0 93 4b 15 be ad 63 4f bd 74 a2 97 bd 68 6e 78 3d
       -0.1457961 -0.050632168 -0.07404032 0.060652167
0001b0 26 e7 17 bb 47 8e b5 3d 8e a6 8f bd da 21 33 bd
       -0.0023178547 0.08865028 -0.0701419 -0.043733455
0001c0 40 fc f9 bc 0b 3d aa bd c2 6a b3 3d ce d5 2a 3d
       -0.03051579 -0.08312424 0.08760597 0.041707806
0001d0 d6 48 dc ba af 6f 13 bd 72 be 18 3d 26 75 2e bd
       -0.0016806375 -0.03599518 0.037290998 -0.04259219
0001e0 97 d9 84 bd 39 5a dd 3c c3 85 f6 3c c7 fb 4f bd
       -0.064868145 0.02702056 0.03009308 -0.050777223
0001f0 0a 0a a0 bd 05 13 a1 3d 83 64 9d 3b 9f 13 a6 bd
       -0.07814415 0.07864956 0.0048032417 -0.08109211
000200 a2 4d 8d 3d b7 25 86 bd ce 4b aa 3d f9 61 12 3c
       0.06899573 -0.06550162 0.0831524 0.008934491
000210 ac ec c8 bc b1 9f 9f 3d 9a 0c 96 bd e5 fc a8 bd
       -0.024526916 0.077941306 -0.07326622 -0.08251361
000220 e2 9b c0 bd bc 0e 76 3d 9b 80 cf 3b e1 6e 74 bd
       -0.09404732 0.060072646 0.0063324696 -0.059676055
000230 49 dd 09 3d 6e 8a 57 bd 8d b3 c6 b7 f0 0e 03 bb
       0.0336583 -0.05262225 -2.368705e-05 -0.0019997917
000240 df 48 c6 bd 4f 57 85 3d a4 76 bf bd bf ab 27 bd
       -0.09681868 0.065107934 -0.09348801 -0.040935274
000250 47 31 5d 3d cc e8 f4 3c ae 52 9b bd b7 2b 83 bd
       0.054002073 0.029896162 -0.07584129 -0.06404822
000260 da 93 63 bd 70 01 a5 bd 98 05 8c bd 92 1a 13 bd
       -0.055560924 -0.08056915 -0.068370044 -0.03591401
000270 6c 11 14 bd 48 ca aa bd 82 eb c2 bc 27 a2 7c bc
       -0.036149427 -0.08339363 -0.02379394 -0.0154195195
000280 ab d7 46 3d 9e e2 99 bd 46 2b cc bd 44 67 8b 3d
       0.04854552 -0.07513927 -0.09969191 0.06806806
000290 60 4d 4e 3d 29 17 4e 3d e6 04 24 3d ac d2 67 3d
       0.05036676 0.050315056 0.040043734 0.056597397
0002a0 d1 7f 54 bd cd 41 6f bd 99 6f 81 3a 40 06 5e bd
       -0.051879708 -0.058412362 0.0009875178 -0.05420518
0002b0 fc 65 84 3d 7e 31 a1 3d ba a1 b2 3d c9 c1 10 bc
       0.064647645 0.07870768 0.08722253 -0.0088352645
0002c0 9d 9b 57 bd 48 f8 96 3d ba 9c ae 3c a4 16 02 bc
       -0.05263864 0.07371575 0.021314967 -0.007939968
0002d0 df 26 a8 3c 06 0e bb 3d 53 c9 5a 3c 3c b0 a5 3d
       0.020526348 0.09133534 0.0133536635 0.08090255
0002e0 25 55 94 bc 93 c4 8c bc 44 15 01 bd ed 85 7e bc
       -0.018107006 -0.017183578 -0.03151442 -0.01553486
0002f0 6a d4 5a 3d 7a 0c 6e 3c d9 18 82 3c 95 13 88 bc
       0.05342523 0.014529342 0.015880989 -0.0166109
000300 77 3f 75 3d ac 04 e5 3c aa 3f 95 bd 83 b1 49 3d
       0.059874978 0.02795633 -0.072875336 0.049241554
000310 4d 7e c1 3b 93 c1 91 3d 58 bb 84 3d f5 7f b0 bd
       0.005904949 0.071169995 0.064810455 -0.08618156
000320 85 04 e3 3b 3f db 0a bd f4 2a b6 3c 71 b7 8a bc
       0.006928029 -0.033900496 0.022237279 -0.016933175
000330 6c 3c 80 bd e2 75 d6 bb 71 58 21 3d ac 60 d0 3c
       -0.062615246 -0.0065448144 0.039390985 0.025436722
000340 0b 61 8e bd 50 71 4f 3d 1b 10 e9 3d 6a d6 db 3d
       -0.06952103 0.050645173 0.11380025 0.107342556
000350 4f 20 d0 bc 3f 6b a3 3d 8d 08 bd 3d 51 e0 12 3d
       -0.025406031 0.0797944 0.092301466 0.035858456
000360 fa fe 18 bd d8 bc 6c 3d 96 03 dd 3d 9d 88 e8 bb
       -0.03735254 0.057797283 0.107916996 -0.0070963637
000370 23 48 f4 3c 43 37 9c 3c 94 d0 04 3e 3a 8c c9 3c
       0.029819554 0.01906932 0.12970191 0.024602998
000380 b8 f1 14 bd 25 68 34 3d 30 6c ba 3b db 94 fe 3d
       -0.036363333 0.044044632 0.0056891665 0.12430736
000390 5d 4e 62 3d 46 17 e5 3d 19 f1 a9 bc 36 35 8e 3c
       0.055250514 0.1118608 -0.020744847 0.017359357
0003a0 51 a1 3e bc a2 e4 c3 3c 17 3a 97 3d 0b ce b8 3c
       -0.0116351405 0.023912732 0.07384127 0.022559186
0003b0 3c dc 72 bc 13 ee e8 3c 99 fb 4e 3d 26 2a af 3d
       -0.014823016 0.028433835 0.05053291 0.08552961
0003c0 94 55 af 3d 3d fd 9f bd 4d c8 d0 bc 99 d5 1d ba
       0.085612446 -0.07811973 -0.025486136 -0.0006020903
0003d0 63 37 48 3d 79 4a 34 bc a5 f0 a0 bd 19 12 43 bc
       0.048880946 -0.011004084 -0.07858399 -0.01190617
0003e0 f1 21 a8 3d cd e5 c4 3c 85 89 96 bc a4 59 32 3d
       0.08209599 0.024035359 -0.018376121 0.04354252
0003f0 98 52 a3 3c 8c f5 e0 3d 05 8b 99 3d 94 06 32 bd
       0.019936845 0.10984334 0.07497219 -0.043463305

fcIn.bias f4 [30]
000000 dc a9 26 be 8f d0 f3 3c a8 d5 91 3c b2 79 13 be
       -0.16275734 0.029762534 0.017802075 -0.14401892
000010 f4 a4 1c 3d ba 6b 69 bd a2 9b 87 bd 64 e4 87 3d
       0.03824325 -0.0569875 -0.066214815 0.06635359
000020 89 5e 5d be 28 81 70 3c 07 7e d1 bb a5 33 83 bd
       -0.21618094 0.014679231 -0.0063931975 -0.06406335
000030 02 68 b6 3e 4c bc 90 bd fc 3b cd bc 73 c9 22 3d
       0.35626227 -0.07067165 -0.025053017 0.0397429
000040 54 e0 8e 3d 7d 1e 0b 3d 84 87 79 ba 2e 6e bb 3b
       0.06976381 0.033964623 -0.00095187896 0.0057199216
000050 6e 86 8d 3d 0b 5d b0 be 37 4c c6 bc c5 23 d2 3d
       0.06910406 -0.34445986 -0.024206264 0.10260729
000060 05 7b b3 bd a4 a5 34 3e c4 5c 60 3d c6 a3 31 3c
       -0.087636985 0.17641312 0.05477597 0.010842269
000070 3b cc 8e bd 85 0c 53 3c
       -0.069725476 0.012881403

fcOut.weight f4 [2, 30]
000000 cc 18 13 be 64 4a 91 bf d3 ea 54 be a9 c9 87 3e
       -0.14364928 -1.1350827 -0.20792703 0.26521042
000010 57 9f fc be 7e b7 90 be 2f a1 0e 3f 20 b0 03 bd
       -0.49340317 -0.28264993 0.55714697 -0.032150388
000020 96 47 27 be fa b7 02 be fd 8b 5e be 36 4f 37 3f
       -0.16335902 -0.12765494 -0.21733089 0.7160524
000030 34 fb da 3d 61 40 f7 3d e6 8b 00 bf 7e b2 e7 bb
       0.106924444 0.12072826 -0.5021347 -0.0070708385
000040 3c a3 bd 3e 96 d0 9f be 29 ad a6 bc 1e 78 a5 3c
       0.370386 -0.31213826 -0.020346241 0.020198878
000050 07 bd 08 3e 14 21 52 be 85 1a ac bc a3 4b 7e be
       0.13353358 -0.20520431 -0.02100874 -0.2483354
000060 ab e6 66 be 70 8e 46 be 02 73 e7 3d 76 96 0d 3c
       -0.2254893 -0.19390273 0.11301233 0.00864183
000070 c2 8f f0 3e f5 e2 2b 3e 84 7a dd 3d f0 e9 ac bd
       0.46984679 0.16785796 0.108143836 -0.084430575
000080 60 35 64 be 00 05 17 3e 9b d4 87 bd 18 6e ff 3e
       -0.22285986 0.14748001 -0.06632348 0.49888682
000090 02 a1 59 3e a7 c0 15 be bb 14 c5 3d da b8 3d bd
       0.21252826 -0.14624272 0.09623095 -0.046318866
0000a0 97 86 5a bd a1 cb 09 3e 65 2b 60 be 82 52 05 be
       -0.05335101 0.13456585 -0.21891554 -0.13019755
0000b0 26 c6 8f 3e 3e 67 ea bd 2e 8f 09 be 83 b4 cf be
       0.28080863 -0.11445473 -0.13433525 -0.40567407
0000c0 15 b4 94 3c 8b 5f e0 3d 0a da 85 3c 57 a0 b2 3e
       0.018152276 0.109557234 0.01633932 0.34887955
0000d0 db 5b 06 be f1 56 4e 3e 94 0e 06 be d6 a3 c2 bd
       -0.13120978 0.20150353 -0.13091499 -0.095039055
0000e0 33 e8 45 3d fc 5d 03 3c 81 f8 8a 3e 39 e1 83 bd
       0.048317146 0.008018013 0.27142718 -0.06439442

fcOut.bias f4 [2]
000000 58 8e cc 3e 1b d7 93 3f
       0.3995235 1.155002
