PyTorch/lightning_logs/version_4/checkpoints/epoch=99-step=11900.ckpt (torch, 19995 bytes, 4 tensors)

fcIn.weight f4 [30, 126]
00000000: 5501 5d3c 0ad1 633d bb3b 42bd 5f48 953d
00000010: 43a6 853d 8906 a33d 1e38 a4bc 890d 1c3d
00000020: 051f af3d cd24 283d 9025 8ebd a8d1 92bd
00000030: 8427 16bd fa3d 873d f621 853c fb21 9ebd
00000040: b2cf 2c3d 8be1 6f3b 90a2 e93c 6490 95bd
00000050: f8d3 1cbd 6879 1a3b c683 343d c016 62bd
00000060: 9c08 25bd 448a a4bc 8586 14bd 81e9 69bd
00000070: 51df 71bd c8fb 11bc 87c7 60bd 64df 863c
00000080: 1acc fab9 6602 c1bd d7cd bebd 9577 eabc
00000090: 86b2 7abc 5772 94bd 09cd 533d 28f9 0bbd
000000a0: f956 653c a301 873d 7862 1fbc 017a f63c
000000b0: 0458 d63c 7ded 85bd 6f00 6c3d b1ca 353d
000000c0: f3da 273d 64f9 b33d f98d 933d d40a 25bc
000000d0: 9abe c33d 0cbe fc3a 23b3 c63d 1151 153d
000000e0: 1204 b4bc 7414 623d e060 8abd 5fcd 003c
000000f0: c4ab 5dbd d268 9b3d 5e8b 25bc d926 3e3d
00000100: 8bc5 21bd 33a8 25bc 9cb9 193d 672d 823d
00000110: eb13 e8bc 1f1e 893c e230 88bd 5101 38bd
00000120: 5833 933b 4b32 38bd d612 9abd 5c02 87bd
00000130: 8eae 86bd 6e4d 2a3d 4c0f a43d 789b 8c3d
00000140: 07c9 7abd 5db1 4ebc 4c4f 5bbc b920 b83c
00000150: c56c aa3d 59fb c0bd 78fc dcbc e173 dbba
00000160: 93b6 26bd b4b0 c3bd a5e6 a13d 775a ffbb
00000170: db9d 9abd d21b bfbc 9593 9abd f52b 05bd
00000180: d83b fb3c d3c9 e4ba 8503 c7bb 5850 193d
00000190: 2f85 0bbd 43a1 b9bd 5e3f 5b3d c085 64bd
000001a0: b753 67bd b0e6 843d 47c2 a73b 62ee 94bd
000001b0: 589f 103b 364a b2bd ce5c 6f3b 4386 8a3d
000001c0: cc16 643d 609d 0c3d feff 043c f227 edbc
000001d0: 333d b3bd deb8 db3c a20d 82bd 6878 673d
000001e0: 5c4e 52bd 5e89 55bc 6aaf e83c a23b 563c
000001f0: 1bc9 b53d c779 03bd d447 9dbd 31e8 55bd
00000200: 2011 513d 101c 413c 1188 5abc 8807 0f3c
00000210: dbaa 93bd 074b 73bd f95c 093d 8475 4a3b
00000220: a320 aabd 6a2a 1d3d 7afd dabd 313d a0ba
00000230: 0de6 e4bd 4722 9fbd 4531 913c c73e 313d
00000240: 54f0 253d 0e9a eebd d71f 6d3d 3d7a f5bb
00000250: 0513 36bc 4bc6 83bc e949 adbd 297f aebd
00000260: be4b 36bd d396 dcbc e766 b2bd 6579 05be
00000270: 7285 a03c a8a3 17be 332a 13be b801 89bc
00000280: bab8 53bc 3355 e2bd 4bac 043d 0c03 923d
00000290: 7400 f5bc adb8 093d 141c 9b3d 8403 a13d
000002a0: 5463 8a3c bc43 cd3b 68a8 6f3d 792b df3c
000002b0: 5b0c e13c 7714 82bb 6ed7 503d 481a a43d
000002c0: 5538 a53c 61ac 1e3d ef0a 34bd 20e3 f73d
000002d0: 506c 743d 9b32 2aba 4ae8 f13d 6f58 773d
000002e0: 9110 743d b597 14bd ee6c 1fbd 9f52 0dbc
000002f0: 57f2 333d 1ae9 30bd cd99 debc b604 9abd
00000300: 308a bb3d 5188 8dbd a89d 36bd e62c a83d
00000310: b464 90bc f196 8e3d f594 c63d dabe de3d
00000320: 7ad7 ca3d 842a 29bd dc86 34bc 0e3f 85bc
00000330: c7a3 22bd c77d f7bc b450 7bbd a4e8 78bd
00000340: bd5a 433d eeca 883c 8549 2f3c 0bdd 64bd
00000350: 0219 e23c 91e9 6a3d c0eb 02bc 54a3 183d
00000360: 2859 59bd 489e 4a3d f03d 2abd ec9d 85bd
00000370: 0e52 c83c bab5 473d 27db e9bd 1fc4 14bd
00000380: cfcd b2bd cb5b 2c3d 6f8a ea3c 44a2 60bd
00000390: c2f9 223d da3b 283d 3f50 2cbd a645 aabc
000003a0: 7c89 463c 45b0 933d 12fc 9dbd 14a0 413d
000003b0: 0f9d 353d 3fee 863d 3c50 79bd 2245 40ba
000003c0: 5220 5c3d b743 693d d6d1 783d c873 b03d
000003d0: 00b0 7abd 5ea5 3f3c 31b8 3f3d f5fc cc3c
000003e0: 703d 54bb 7b17 ff3a 44fc 773d 22c6 653d
000003f0: 244f 883b d660 95bd a308 cfbb 8de3 5cbd
0.013489087 0.055619277 -0.047420245 0.07289194 0.065258525 0.07960231 -0.02004629 0.038098846
0.085508384 0.04105072 -0.06940758 -0.07168895 -0.03665878 0.06603618 0.016251545 -0.07721325
0.04219026 0.003660294 0.028519899 -0.07302931 -0.038288087 0.00235709 0.04407098 -0.055197477
-0.040291414 -0.020085461 -0.0362611 -0.057107452 -0.05905086 -0.008910127 -0.054877784 0.016463943
-0.00047835783 -0.094242856 -0.093166046 -0.028621474 -0.015301352 -0.07248371 0.05170921 -0.03417316
0.013997787 0.06592109 -0.009728067 0.030087473 0.026165016 -0.06539438 0.0576176 0.044382755
0.04098029 0.08787802 0.072048135 -0.010073382 0.09557839 0.0019282713 0.09702136 0.036454264
-0.021974597 0.055195287 -0.06756759 0.007861464 -0.054118887 0.07588352 -0.0101040285 0.046423767
-0.039495032 -0.010110903 0.037530527 0.06356316 -0.02832981 0.016737996 -0.06649949 -0.04492313
0.0044922046 -0.044969838 -0.07523124 -0.06592247 -0.065762624 0.04157775 0.0801073 0.06865591
-0.06122687 -0.012615529 -0.013385605 0.02247654 0.083215274 -0.09422941 -0.026975855 -0.0016742909
-0.04070146 -0.09555188 0.0790532 -0.0077927667 -0.0754964 -0.023328695 -0.0754768 -0.032512624
0.030668184 -0.0017455168 -0.0060734176 0.037430137 -0.03406256 -0.09063961 0.05352723 -0.055791616
-0.05647632 0.06489313 0.005119595 -0.072720304 0.0022067633 -0.08705561 0.0036523822 0.0676389
0.055685803 0.034329772 0.008117674 -0.028949711 -0.08751907 0.02682155 -0.063502565 0.056511313
-0.05134426 -0.013033239 0.028403956 0.013075741 0.088762484 -0.032098558 -0.07679716 -0.052223388
0.051041722 0.011786476 -0.013338105 0.008729823 -0.072103225 -0.059397724 0.03353593 0.0030892799
-0.08307006 0.038370527 -0.10692878 -0.0012225268 -0.11176691 -0.0777021 0.017723689 0.04327276
0.040512398 -0.11650477 0.057891693 -0.0074913786 -0.011112933 -0.016085764 -0.08461363 -0.085203476
-0.044505827 -0.026927387 -0.08711033 -0.1303459 0.019594882 -0.14808524 -0.14371566 -0.016724452
-0.01292246 -0.11051407 0.032390874 0.071294874 -0.029907443 0.033623386 0.07573715 0.07861999
0.016893066 0.006264178 0.058510214 0.027242409 0.027471712 -0.0039697248 0.0509867 0.08012825
0.020168463 0.038738612 -0.04395574 0.121038675 0.059673607 -0.0006492526 0.11811884 0.06038707
0.05958611 -0.03627749 -0.038922243 -0.008625655 0.043932285 -0.043191053 -0.027172947 -0.0752043
0.091572165 -0.06910766 -0.044583946 0.08211689 -0.017626144 0.069623835 0.0969638 0.10876246
0.0990438 -0.04130031 -0.011018481 -0.016265418 -0.03970697 -0.030211342 -0.06135626 -0.06076874
0.047693957 0.016698327 0.010698681 -0.055874866 0.027599815 0.057351653 -0.0079907775 0.037265137
-0.05306354 0.049467355 -0.041562974 -0.06524262 0.02445319 0.048757292 -0.11418753 -0.03631985
-0.08730661 0.042079728 0.028630463 -0.05484225 0.03978897 0.041072704 -0.042068716 -0.020785164
0.01211774 0.07211355 -0.07714094 0.047271803 0.044339236 0.065884106 -0.060867533 -0.00073345203
0.05374176 0.056949344 0.06074699 0.086158335 -0.061203003 0.011697141 0.046806518 0.025022963
-0.0032385252 0.0019461954 0.060543314 0.056097157 0.004159825 -0.072938606 -0.0063181682 -0.053927947

fcIn.bias f4 [30]
00000000: cb31 823d ed08 a2bd f767 103e 40cb 7c3d
00000010: 494a 0d3d b5d6 ddbd 145f ab3d dfa2 af3b
00000020: 4c27 1e3e e84b e53d f7a0 c0bd 530f 79bd
00000030: d3ee 883d cb10 343e 00fe e63c bcdb 853c
00000040: 9c09 7e3e 5b5d 4bbd d40f 3dbd b1e9 803d
00000050: 7dd6 1a3d 3746 8abd 229e 413e 87db a13c
00000060: 940d 07be db8c 51be 2394 59bd 0c95 97bd
00000070: 9ade a1bd 5893 f93d
0.063571535 -0.07911859 0.1410216 0.06171727 0.034494672 -0.10831968 0.08367744 0.005359992
0.15444678 0.111961186 -0.094057016 -0.06080563 0.06686177 0.17584531 0.028197289 0.01634013
0.24808353 -0.049649578 -0.046157673 0.06294573 0.03780221 -0.06751674 0.18907979 0.019758
-0.13188773 -0.20463888 -0.05311979 -0.07401475 -0.07903786 0.12186307

fcOut.weight f4 [2, 30]
00000000: c286 45be 36c5 b1be f977 733e 673d 32be
00000010: 3248 2bbf 86fd 5abe cad5 d0be 1300 b03d
00000020: 7d5d db3e 8ac9 1bbe db2c 80bc e356 e8be
00000030: 936a 5c3e adad 96be b844 bc3d 076f 91be
00000040: a8ff 16be 583d e8bd aceb 2bbe 2c09 1bbd
00000050: c12a d3bc 79dd e23d 8e67 91be 27b3 1bbe
00000060: a746 ea3d 1d48 e23d 418a c03e 7e87 41bf
00000070: 6662 143f ebca 173e 2eba c0bd ad8c a1be
00000080: 6829 063e 00c6 77be a5fe 943e cb47 273e
00000090: e390 1bbe 5929 e0bd 46e0 98bd 2e86 5cbe
000000a0: f662 7dbe d096 3c3d ab58 b63e 5f7a d33e
000000b0: e931 383e 20f2 113e 1af6 c6bd 47ff 87bd
000000c0: da77 1b3e 4f5f 1e3f 3e1b 2ebe 3dba 073e
000000d0: a1ba 2fbe a325 013e ad4a 253e 18f0 ab3b
000000e0: 7543 753e 1eae 903d 5122 0c3e de5b 6cbd
-0.19289687 -0.34720773 0.23776235 -0.17406236 -0.66907036 -0.21385774 -0.40788108 0.08593764
0.42844763 -0.152136 -0.015646389 -0.4537879 0.2152503 -0.2942938 0.091927946 -0.2840502
-0.14745963 -0.113398254 -0.1678912 -0.037850544 -0.025777223 0.11077399 -0.28399318 -0.1520506
0.11439257 0.11048911 0.3760548 -0.7559737 0.57962644 0.14823501 -0.09410511 -0.3155264
0.13101733 -0.24196625 0.29100528 0.1633598 -0.15191989 -0.109453864 -0.07464652 -0.2153556
-0.24744782 0.046042264 0.35614523 0.413043 0.17987789 0.1425252 -0.09714909 -0.06640487
0.15182438 0.6186418 -0.1700258 0.13254638 -0.17161037 0.12612014 0.16141768 0.0052471273
0.23951514 0.0706446 0.13684966 -0.0577048

fcOut.bias f4 [2]
00000000: b1ae 0c3f 48ec a93f
0.5495406 1.3275232
