PyTorch/lightning_logs/version_20/checkpoints/epoch=1-step=238.ckpt (torch, 19995 bytes, 4 tensors)

fcIn.weight f4 [30, 126]
000000 70 b5 c5 3d b4 f0 33 3c b9 94 6a bd 5f d2 86 3d
       0.09653747 0.010982681 -0.05727074 0.06583094
000010 ae 4f 46 ba ed 53 36 3d 50 0a 20 bd 48 0f d1 3d
       -0.0007564974 0.04451363 -0.039072335 0.10207993
000020 34 07 11 bc 1f 7b 47 3d 1d dc b4 bc ef dc 6f 3d
       -0.008851815 0.0487014 -0.022077614 0.058560308
000030 92 83 9b 3d ac b7 1c bd 89 5d 54 bd c1 75 d2 bc
       0.075934544 -0.0382611 -0.051847015 -0.025690915
000040 30 c7 05 3d 97 a3 cf 3c 3a 59 5d bc ab ce e2 3d
       0.032660663 0.02534656 -0.013510043 0.11074575
000050 ae b5 08 bd 48 8c c0 3d 65 71 d4 3d 38 12 90 3d
       -0.03337639 0.094017565 0.10373191 0.07034725
000060 3e 54 9e 3c d1 ce e4 bb 5c 98 a1 bc 16 6b 59 bd
       0.01932728 -0.0069826622 -0.01972597 -0.05308064
000070 de d0 84 3d 98 b8 72 bd bf fd 80 bc 60 5f ac bb
       0.06485151 -0.059258074 -0.015745996 -0.005260393
000080 0d 55 9e 3d 92 20 96 3d 48 03 9c 3d d9 41 8c 3d
       0.07731066 0.07330431 0.07617813 0.06848497
000090 dd 0f 3e 3d 0a 3c 77 3d 2a f3 7b bd eb 4c 3a bd
       0.046401847 0.060359992 -0.061511196 -0.04548351
0000a0 82 2b 15 bd e9 e2 4d bc c1 4f 96 bd c7 d8 76 bd
       -0.036418445 -0.012566307 -0.073394306 -0.06026533
0000b0 89 67 32 bc 3c d9 31 bc 00 cb 76 bd b4 f5 49 bd
       -0.0108889425 -0.010855015 -0.06025219 -0.049306586
0000c0 a8 69 4b bd 66 73 0a 3d b7 2c 93 3c f5 91 a5 bc
       -0.04966131 0.03380146 0.017965658 -0.0202112
0000d0 e7 c4 b4 bd 3c 71 f5 bb c7 c6 44 bd a3 92 c1 3c
       -0.08826619 -0.007490305 -0.04804113 0.023629492
0000e0 e3 06 dd bc ef 7b e0 bd 39 28 e5 bd 7a f6 e2 bb
       -0.026980823 -0.109611385 -0.111893125 -0.006926355
0000f0 8a 00 5e bd 7c bb 89 bd e9 cc 76 bd e9 56 e0 bd
       -0.054199733 -0.06725213 -0.06025401 -0.10954077
000100 44 37 26 3d 85 46 a9 bd e3 a1 36 bd d4 8b e6 bd
       0.04058005 -0.08265404 -0.04458798 -0.11257139
000110 31 92 cf bd 30 c3 03 3a 72 71 1c bd a0 91 98 bd
       -0.10135306 0.00050263386 -0.038194127 -0.07449651
000120 85 fb b8 bc b9 d3 96 bc 64 0a e7 bd 3a 01 87 bd
       -0.022580871 -0.018411504 -0.11281279 -0.06592031
000130 84 28 6b 3c fa 66 ce bd a0 2f 9c bb 40 74 08 3d
       0.014352921 -0.10078235 -0.0047664195 0.03331399
000140 82 2c a6 bd 6b cb 73 bd d0 b5 f6 bd 61 6e 8d bd
       -0.08113958 -0.059520166 -0.12046397 -0.06905819
000150 81 43 7d bd 5b 2d a4 bd 52 84 8b 3d bb 7f 9a bb
       -0.061831955 -0.08016463 0.068123475 -0.0047149337
000160 cb 29 f5 b9 06 37 40 3d fa c6 07 3d 9a ca 8f bd
       -0.0004676118 0.046927474 0.033148743 -0.07021065
000170 d4 f7 8b bd ba 3d 16 bc 18 41 99 3c 03 65 be 3d
       -0.06834379 -0.00916999 0.018707797 0.0929661
000180 04 f3 44 3d eb 1e 5e 39 9d 22 ee bc af c4 a5 3d
       0.04808332 0.00021183088 -0.02906924 0.08094155
000190 f7 2a 97 3d c9 04 3f bd 4a 72 7a 3d e6 f0 10 3a
       0.07381242 -0.046635423 0.06114415 0.0005529061
0001a0 28 b7 a1 bd db 99 9f bd 34 5b 85 3d 7a 91 8e 3d
       -0.078962624 -0.077930175 0.06511536 0.06961341
0001b0 1a a5 2f bd d6 74 28 3d a4 d6 ce 3c 01 80 5f bd
       -0.042882062 0.04112705 0.025248833 -0.054565433
0001c0 3e fa 58 bd 26 32 9b bd 09 7f 9e 3c 5a f1 dc 3c
       -0.052973025 -0.075779244 0.019347684 0.026970554
0001d0 f0 d7 96 ba 06 b4 6d 3d bb 15 91 bd 10 34 40 3c
       -0.0011508446 0.05803301 -0.07084223 0.011731163
0001e0 59 53 84 3d 16 3f 3b 3d b6 8f 38 bd 3b 6e 7d 3d
       0.0646121 0.04571446 -0.04505893 0.061872702
0001f0 5a 22 00 3d 93 3a a2 bc 4f 4f ba 3d 8a bb 9a 3d
       0.03128276 -0.019803321 0.09097158 0.075553015
000200 7f 0c f1 bc b7 e4 88 bd f4 79 ff bc 06 eb 59 3d
       -0.029424904 -0.06684249 -0.031186081 0.05320265
000210 77 75 8b bd 17 49 97 bd 9c 3c 4a 3d 11 b8 be 3b
       -0.06809514 -0.07386988 0.049374208 0.0058202823
000220 3c f0 a3 bd 56 cb 32 bd 31 2c 75 3d c0 98 60 3d
       -0.080048054 -0.043650948 0.059856597 0.054833174
000230 c0 95 88 3c 25 5c ac bc 0d df 75 3d 64 bd 94 bd
       0.016672969 -0.021040032 0.06002717 -0.07262686
000240 be 96 86 3d 9e 01 7b bd 84 54 19 bc 7d 32 62 3d
       0.065717205 -0.06128084 -0.009358529 0.05522393
000250 6f 80 95 bc 2a 2d 9a bc 56 74 7f bd c5 80 05 3d
       -0.018249718 -0.018820364 -0.062366806 0.032593507
000260 bc 8a 73 bd bc 98 39 3d 54 6f 64 bc 08 00 f2 ba
       -0.05945848 0.045311674 -0.013942558 -0.0018463144
000270 a7 b0 e1 3c 3e 3b d6 bd 71 88 00 be fa a0 81 bd
       0.027550055 -0.10460518 -0.12552048 -0.06329532
000280 38 f3 35 3d ae 8e e1 bc f4 4f 6b bd 05 5f 89 3c
       0.044421405 -0.027533855 -0.057449296 0.016768942
000290 34 a8 94 bd f2 e8 87 3d 76 e1 88 3d fc 88 5f 3d
       -0.07258645 0.06636228 0.06683628 0.054573998
0002a0 89 13 1b bd 72 ef 42 bd fa 2d 71 3d a5 0e 1a bd
       -0.037860427 -0.047591634 0.058881737 -0.037611622
0002b0 50 b9 56 3d f4 60 a6 3d 7d bd ac bc c8 6f b5 bc
       0.05242282 0.08123961 -0.021086449 -0.022148028
0002c0 93 23 40 bd 37 5e 38 bd ea be 35 bc 10 81 97 bd
       -0.046908926 -0.045011725 -0.011092881 -0.073976636
0002d0 62 d5 8f bd 8f 90 ba 3d 47 ff 95 3d d8 2e 1c 3d
       -0.070231214 0.091096036 0.07324081 0.03813061
0002e0 48 22 ee 3c ef a2 10 3d ca 20 aa 3b 07 6f 97 3d
       0.029069081 0.035311636 0.005191897 0.07394224
0002f0 2f 37 29 3d a5 fd fd 3c 33 86 c9 bc b5 17 ad bd
       0.041312393 0.031004736 -0.024600124 -0.084517874
000300 76 70 82 3d 45 d0 7c 3a 5d 64 b7 bd e3 fc 82 bd
       0.063691065 0.00096440717 -0.0895469 -0.063958906
000310 db 29 a2 3d dc d2 6a bc 37 7b b3 3d 95 71 1e 3d
       0.079181395 -0.014332499 0.08763736 0.03868254
000320 c6 c2 00 bd e3 7b a2 3d 07 68 90 3c ec b9 8b bd
       -0.03143575 0.07933786 0.01762773 -0.06822571
000330 c1 27 af 3d 93 6f e4 3c e8 94 e0 bc 06 5b 2e bd
       0.08552504 0.027885234 -0.027414754 -0.042567275
000340 ac 0e 3f bd 84 52 79 bd 1a f6 07 3d ee 87 79 3d
       -0.04664485 -0.06086971 0.033193685 0.06092065
000350 f7 5d e2 3c cd d1 e4 bc e2 ac b7 bc 6d f4 83 3d
       0.027632697 -0.027932072 -0.022421304 0.06443105
000360 0f ca b2 bd 0c e3 9c bd c8 96 07 bd 48 5f 69 bc
       -0.08729946 -0.07660493 -0.03310278 -0.014243908
000370 e7 8f a2 bd e2 ed 3b bd fe f9 99 ba d9 5f 3d bc
       -0.079376034 -0.04588116 -0.0011747477 -0.011558496
000380 57 75 d8 3c 05 ff 24 bd 34 e0 b1 3d f1 05 33 3d
       0.02642314 -0.040282268 0.086853415 0.043706838
000390 17 d7 3f bc c5 45 10 bc 2a f5 38 3d b1 86 b8 bc
       -0.011708996 -0.008805697 0.04515568 -0.022525163
0003a0 67 1c a5 bd 34 3b 4d 3d e1 c3 a8 3d 24 b7 68 bd
       -0.08062058 0.05010529 0.08240486 -0.05681528
0003b0 a8 58 f7 3c 3a dd 51 bd a8 61 1e bd c2 a4 4b 3c
       0.030193642 -0.05123637 -0.03866735 0.012429418
0003c0 66 e7 92 bd c6 f5 18 bc 21 93 8a bd f5 8c b2 bc
       -0.07173042 -0.009335941 -0.06766344 -0.02179573
0003d0 4c 15 66 bd f2 39 f4 bc bc b4 5c 3d 26 29 12 3d
       -0.056172654 -0.029812787 0.0538833 0.035683773
0003e0 9b 6e f5 bc da 02 66 3d 78 9f 58 3c 62 2a 7d 3d
       -0.029959967 0.056155063 0.013221614 0.061807998
0003f0 39 d5 23 3d 98 01 5b bd 38 32 9a 3d d9 08 11 3d
       0.039998267 -0.053468317 0.0752911 0.03540883

fcIn.bias f4 [30]
000000 a0 be 0d 3d a9 2a 5b 3d 0a 54 52 bd e8 82 07 3d
       0.034605622 0.05350748 -0.051349677 0.033083826
000010 21 b0 80 bd b4 c7 c6 3d 7e 39 1f bd 43 28 ec 3d
       -0.06283594 0.09706059 -0.03887319 0.11531117
000020 1f ad 83 bd 83 f8 7b bc f6 df 23 3d 6f 03 bf bb
       -0.064295046 -0.015379074 0.040008508 -0.0058292667
000030 0f d2 35 bd 3d 37 1f 3c bb b8 2b 3e 46 82 bd bc
       -0.04438978 0.00971776 0.16769688 -0.023133408
000040 b5 9d 14 3e 62 da 5c 3c 52 3b b7 bd 56 59 48 3c
       0.14513285 0.013479801 -0.08946861 0.012228331
000050 ea 04 25 bd 49 43 f5 3d 3a bc d1 3a 3f b7 d6 bd
       -0.04028789 0.11975724 0.001600153 -0.1048417
000060 ba e7 a9 bd f2 d3 ee 3c 2b 01 3e bc 6d ad 25 3d
       -0.082961515 0.029153798 -0.011596958 0.040448595
000070 b4 f9 71 3d f0 45 47 3d
       0.059076026 0.048650682

fcOut.weight f4 [2, 30]
000000 d4 17 f2 3d 37 32 a7 be a0 de c0 be ef f9 e9 3d
       0.11820951 -0.32655498 -0.3766985 0.11424624
000010 1e ff ef be f1 39 7e be 75 f7 9d bd 40 f1 e2 bd
       -0.46874326 -0.2482679 -0.07713214 -0.11081171
000020 26 6f 3f 3e e0 75 0a be 50 85 21 be fd a7 0c 3e
       0.18694744 -0.13521528 -0.15773511 0.13735957
000030 68 f1 0c be 46 f4 e8 3e f8 04 5c 3e 38 c1 ce 3d
       -0.13763964 0.45498866 0.2148627 0.10095447
000040 fe dc e2 bd 36 84 e2 3e 2e f4 f6 bd b8 88 35 3d
       -0.11077307 0.44241494 -0.12058292 0.04431984
000050 e7 ea 5d bd 6a 41 46 3d ab e7 85 3e 13 95 c7 3d
       -0.0541791 0.048402227 0.2615331 0.097452305
000060 e0 2a 9d bd 75 53 53 3e 05 44 39 bc 1e 6b de 3c
       -0.076741934 0.20637305 -0.011307721 0.027150687
000070 70 ba 64 3d 62 d5 f9 3e b0 e9 f9 bc 08 20 1b 3e
       0.055841863 0.4879561 -0.030506939 0.15148938
000080 88 b8 0c 3f 7c e0 37 3e b2 d4 d1 bd 84 8c 2f 3b
       0.5496907 0.17956728 -0.102456465 0.0026786635
000090 6a 30 43 be 81 0e 84 bd 81 06 a2 bd d5 94 18 3e
       -0.19061437 -0.06448079 -0.07911397 0.14900525
0000a0 fd 9a 1d be c0 d2 9a bd 6e 6d b5 bd ad 08 1d 3e
       -0.15391155 -0.075597286 -0.08858763 0.15335341
0000b0 b2 af 3f 3d c1 6e e5 bd f2 db e5 bd 58 d1 bf 3e
       0.046798415 -0.11202765 -0.11223592 0.37464404
0000c0 e5 7a f5 3e e1 19 0b be 0c bb 31 3c 7c 8a 30 bd
       0.47945324 -0.13584091 0.010847818 -0.04310082
0000d0 d4 ce 1e be 3d 7b e9 3d ba a8 4c be b2 f7 14 3e
       -0.15508586 0.11400459 -0.19986239 0.14547613
0000e0 66 b5 f0 bd 6e f7 54 3e 4d 70 89 3d 90 1e cd 3e
       -0.11753349 0.20797512 0.06710873 0.4006238

fcOut.bias f4 [2]
000000 5b 8f 2f 3e d5 4c 5b 3f
       0.1714453 0.8566411
