PyTorch/lightning_logs/version_7/checkpoints/epoch=99-step=11900.ckpt (torch, 19995 bytes, 4 tensors)

fcIn.weight f4 [30, 126]
0.01866803 0.050546452 0.052128527 0.023649752 0.0048261844 0.020184668 0.05126528 -0.0025283895
0.028508458 0.0039455583 -0.0893211 0.031956267 -0.07914544 -0.086097136 0.02089046 0.03063988
0.02451649 -0.00090832484 0.041692935 -0.0853493 -0.066050924 0.0083659645 0.023793047 -0.04787841
0.063702576 0.056661412 0.047182813 0.05493351 0.03744256 -0.032457076 -0.050135966 -0.012119834
0.020807236 -0.0914939 0.029492728 -0.050858688 -0.014842085 -0.07959032 -0.022628322 0.032650173
0.060872473 0.06191928 0.009186698 -0.05609626 0.10020996 0.09677204 0.020204911 0.038611226
0.08846247 0.10426167 0.08975752 0.09274092 -0.018341834 0.06890596 -0.02456936 0.10826062
0.0004897997 -0.04628101 0.012681294 0.018356275 0.060290013 0.09803908 -0.06688067 -0.05221083
0.039383437 0.033714972 0.07274396 -0.028577497 -0.04095465 0.05923618 -0.056731697 0.0035956781
-0.025662307 0.09155419 -0.028854765 -0.026001036 0.07075981 0.0009631265 0.022193214 0.093791276
0.08519554 -0.05971969 0.0476678 0.024169479 0.031496443 0.05832282 0.03605474 0.07333996
-0.011336216 -0.059984796 -0.08344495 -0.036424156 -0.041576654 0.082204565 0.053868912 -0.08625162
0.07109892 -0.0694482 0.037197355 0.005683903 -0.08834031 -0.036058795 -0.013244092 0.013069691
-0.05498767 0.042935774 -0.034581862 0.07606955 -0.08846452 -0.059925932 0.08239218 -0.050125357
-0.008669167 -0.04047156 -0.028269742 0.06857339 -0.075068496 -0.08892154 0.018325059 0.031454016
0.023434488 -0.022976765 -0.08504779 0.088860735 0.032848336 0.059816197 -0.07614957 -0.06622427
-0.027565464 0.016270164 0.097349785 -0.0015784586 -0.058843773 -0.015151411 0.025126534 -0.019009603
0.042371884 -0.008657605 0.009093149 -0.07945048 -0.05808932 -0.001486915 -0.01921872 0.054109465
-0.081538856 -0.012189372 -0.02770186 0.06797018 0.06187885 0.012143052 -0.07464296 -0.054185174
0.010560373 0.05324372 0.038155075 -0.00013758417 0.0043295594 -0.08202676 0.036698624 -0.0776547
0.036470674 -0.08165852 -0.05304576 -0.022471325 0.08093092 0.08366265 0.075556666 0.076910235
-0.041595683 0.02180029 -0.078238174 0.0041701966 0.051651504 0.06306157 0.059700496 0.046362966
0.08201698 1.4913732e-05 -0.05490367 -0.07565992 0.046975046 0.011768618 0.056454223 0.03734013
-0.053170875 0.07689969 -0.017730253 0.01930738 -0.05317815 -0.07458191 0.04430297 0.055818353
-0.059233274 -0.08480764 -0.06782289 0.04323073 0.055427857 0.06553077 -0.015190377 -0.035178147
0.04926367 0.07841581 -0.004478902 0.07364354 0.0031115466 0.0025627483 -0.093940355 -0.06364021
-0.094010115 -0.012564246 0.028488608 0.05830963 -0.011916459 0.035008464 -0.031748418 -0.039260264
-0.04042063 -0.03509307 0.05529421 0.04842582 -0.04541194 0.088603005 -0.024807176 -0.04522081
-0.016453663 0.05377521 -0.07382795 0.0672042 -0.034521554 0.041894943 -0.030425582 -0.06637504
0.05022199 0.08315519 -0.07975185 -0.0712313 -0.08035891 0.07320685 -0.048238855 0.06463925
-0.027496899 0.06293037 0.0244674 -0.039741963 0.07509856 -0.03124063 -0.069478825 -0.035937466
0.055894822 0.07583526 -0.013542533 -0.0054029813 0.080073535 0.08489298 0.08986611 -0.013954718
00000000: b2ed 983c cc09 4f3d b984 553d 20bd c13c
00000010: f824 9e3b 515a a53c 8bfb 513d 56b3 25bb
00000020: 928a e93c be49 813b fbed b6bd 93e4 023d
00000030: 0117 a2bd b253 b0bd 7822 ab3c 7c00 fb3c
00000040: ced6 c83c a61c 6eba 36c6 2a3d 9dcb aebd
00000050: b545 87bd 6611 093c a3e9 c23c 271c 44bd
00000060: 7f76 823d cc15 683d c442 413d f601 613d
00000070: 5f5d 193d b6f1 04bd 5f5b 4dbd 4592 46bc
00000080: f073 aa3c 2761 bbbd bc9a f13c 3351 50bd
00000090: 372c 73bc 4000 a3bd 085f b9bc 30bc 053d
000000a0: 6a55 793d 129f 7d3d ce83 163c 31c5 65bd
000000b0: e13a cd3d 6b30 c63d c584 a53c ce26 1e3d
000000c0: d02b b53d 2487 d53d cad2 b73d f4ee bd3d
000000d0: 9d41 96bc 911e 8d3d af45 c9bc beb7 dd3d
000000e0: e765 003a 2891 3dbd 34c5 4f3c e65f 963c
000000f0: a9f2 763d b7c8 c83d bcf8 88bd 06db 55bd
00000100: 8750 213d b618 0a3d c9fa 943d 5b1b eabc
00000110: 10c0 27bd a3a1 723d 7f5f 68bd 78a5 6b3b
00000120: c239 d2bc c380 bb3d d460 ecbc 2000 d5bc
00000130: 85ea 903d 537a 7c3a 8bce b53c a415 c03d
00000140: 007b ae3d a29c 74bd 503f 433d 12ff c53c
00000150: 6a02 013d e9e3 6e3d 23ae 133d 4333 963d
00000160: 89bb 39bc 9eb2 75bd 30e5 aabd 7f31 15bd
00000170: 484c 2abd de5a a83d a6a5 5c3d b0a4 b0bd
00000180: 509c 913d dc3a 8ebd 415c 183d 0940 ba3b
00000190: c4eb b4bd 63b2 13bd c0fd 58bc 4222 563c
000001a0: c03a 61bd 6cdd 2f3d b6a5 0dbd 5aca 9b3d
000001b0: e32c b5bd e574 75bd 3bbd a83d 3f50 4dbd
000001c0: 1f09 0ebc 82c5 25bd f295 e7bc 3570 8c3d
000001d0: 83bd 99bd 7f1c b6bd 6f1e 963c edd5 003d
000001e0: aff9 bf3c c539 bcbc 892d aebd 9efc b53d
000001f0: fa8b 063d d401 753d 4ef4 9bbd 97a0 87bd
00000200: f8d0 e1bc 0249 853c 535f c73d 48e4 ceba
00000210: 2b06 71bd a03d 78bc 29d6 cd3c 07ba 9bbc
00000220: 248e 2d3d a1d8 0dbc 6efb 143c efb6 a2bd
00000230: 11ef 6dbd 97e4 c2ba 9470 9dbc e3a1 5d3d
00000240: d8fd a6bd efb5 47bc 03ef e2bc f333 8b3d
00000250: ad74 7d3d a7f3 463c 69de 98bd 46f1 5dbd
00000260: 6a05 2d3c 1616 5a3d 7f48 1c3d 7844 10b9
00000270: fade 8d3b a5fd a7bd 4c51 163d 6d09 9fbd
00000280: 4662 153d 953c a7bd 8346 59bd c915 b8bc
00000290: 1cbf a53d 5357 ab3d 74bd 9a3d 1d83 9d3d
000002a0: 3c60 2abd 8696 b23c 563b a0bd 25a6 883b
000002b0: 8790 533d 6d26 813d 8288 743d 18e7 3d3d
000002c0: 85f8 a73d fe35 7a37 ace2 60bd 97f3 9abd
000002d0: e868 403d 29d1 403c 8b3c 673d f7f1 183d
000002e0: b4c9 59bd 967d 9d3d 093f 91bc 832a 9e3c
000002f0: 55d1 59bd 67be 98bd 0877 353d c9a1 643d
00000300: 979e 72bd a1af adbd bae6 8abd b512 313d
00000310: 5208 633d ff34 863d 0fe1 78bc f616 10bd
00000320: b4c8 493d 7898 a03d c1c3 92bb 6dd2 963d
00000330: 17eb 4b3b c8f3 273b cd63 c0bd cc55 82bd
00000340: 6088 c0bd 44da 4dbc f160 e93c 14d6 6e3d
00000350: 403d 43bc 0965 0f3d a10a 02bd 5fcf 20bd
00000360: 1a90 25bd c0bd 0fbd 2e7c 623d 275a 463d
00000370: df01 3abd 7e75 b53d 6b38 cbbc 7539 39bd
00000380: d5c9 86bc 6543 5c3d 1c33 97bd 5ba2 893d
00000390: 7966 0dbd 089a 2b3d 123f f9bc a3ef 87bd
000003a0: 93b5 4d3d 454d aa3d f054 a3bd b7e1 91bd
000003b0: 3693 a4bd 79ed 953d 1b96 45bd 9561 843d
000003c0: 2d41 e1bc a3e1 803d db6f c83c 78c8 22bd
000003d0: 46cd 993d 5aec ffbc ea4a 8ebd 2a33 13bd
000003e0: f8f1 643d 844f 9b3d 80e1 5dbc 7e0b b1bb
000003f0: 98fd a33d 5fdc ad3d b90b b83d 54a2 64bc

fcIn.bias f4 [30]
-0.003730257 0.068371676 -0.08035552 -0.09851882 0.19497299 0.02612092 -0.057535473 0.0050477823
-0.015307628 0.031411864 -0.059461124 0.01733444 -0.052569352 0.17527275 -0.06581617 -0.0150005035
-0.05352358 -0.10002779 -0.013431699 -0.1422806 -0.2642475 0.24268584 -0.07797336 0.14762418
0.14712772 -0.20198421 0.03154455 -0.003405651 -0.17110449 0.10202538
00000000: 5477 74bb 7306 8c3d 6f91 a4bd 3cc4 c9bd
00000010: 00a7 473e 8afb d53c 51aa 6bbd de67 a53b
00000020: d8cc 7abc baa9 003d 828d 73bd f500 8e3c
00000030: f652 57bd b37a 333e a1ca 86bd acc4 75bc
00000040: 8b3b 5bbd 5fdb ccbd a110 5cbc 01b2 11be
00000050: 734b 87be a382 783e 7fb0 9fbd cb2a 173e
00000060: a6a8 163e f3d4 4ebe dc34 013d 5831 5fbb
00000070: 0436 2fbe aff2 d03d

fcOut.weight f4 [2, 30]
-0.13732803 0.57569885 0.012455129 -0.2728474 0.09984887 -0.44592118 0.35349113 -0.17404132
0.15242831 0.19481823 -0.8265363 -0.2175815 -0.048316892 0.8584314 0.06464727 -0.76184225
-0.5812605 0.031908628 -0.07260939 -0.13469024 -0.036883846 0.10568349 -0.19765672 0.38312066
-0.21447372 0.099501245 -0.02073417 -0.016494505 -0.0028041448 -0.13130996 -0.13869613 0.19172479
-0.038109843 0.017906515 -0.026739515 0.07924665 -0.03633646 0.34636584 0.08123978 0.4168573
-0.04214207 -0.024111232 0.30296803 0.26619983 -0.09496139 -0.24626759 0.33901307 0.16209067
0.11616503 0.20271352 0.06648381 -0.0572905 -0.1569417 -0.13322936 0.43928143 -0.084885776
-0.025587875 -0.053174548 -0.0115073025 0.46087095
00000000: b89f 0cbe 0061 133f 9910 4c3c a8b2 8bbe
00000010: 907d cc3d c84f e4be cafc b43e e337 32be
00000020: 2b16 1c3e 6e7e 473e e297 53bf afcd 5ebe
00000030: efe7 45bd 29c2 5b3f ca65 843d 1808 43bf
00000040: 7dcd 14bf 9fb2 023d 3bb4 94bd 3dec 09be
00000050: 8413 17bd 9670 d83d 8666 4abe 6428 c43e
00000060: 009f 5bbe 4fc7 cb3d b5da a9bc 7c1f 87bc
00000070: bec5 37bb 1e76 06be 5c06 0ebe 8153 443e
00000080: 1119 1cbd afb0 923c d40c dbbc 114c a23d
00000090: 8ad5 14bd dd56 b13e 0b61 a63d 526e d53e
000000a0: 2a9d 2cbd eb84 c5bc a01e 9b3e 584b 883e
000000b0: 1e7b c2bd 922d 7cbe 1f93 ad3e 19fb 253e
000000c0: eee7 ed3d 2294 4f3e aa28 883d 71a9 6abd
000000d0: 53b5 20be 476d 08be 7fe9 e03e 98d8 adbd
000000e0: aa9d d1bc 8ecd 59bd 2089 3cbc 47f7 eb3e

fcOut.bias f4 [2]
0.37768224 0.8823773
00000000: 915f c13e 7be3 613f
