PyTorch/lightning_logs/version_7/checkpoints/epoch=99-step=11900.ckpt (torch, 19995 bytes, 4 tensors)

fcIn.weight f4 [30, 126]
00000000: ef8c b63d 8ef9 c43d 2398 b13d 45e3 b63d
00000010: 9168 713d 4171 913c ebe2 813d 34d4 fb3d
00000020: 79fa 423d b1df 093e b0c3 023e ba32 d43d
00000030: bf56 853d 58d1 ed3d 3b9c ad3d c7c5 d33d
00000040: 2eb1 dc3b af59 933d aa15 0abd dad2 06bc
00000050: da36 ff3d 4a38 1d3d cce8 a63d e419 0a3d
00000060: 7485 043d 98a8 c63a df74 46bd 7b0c 21bd
00000070: b3d8 5cbd 8f11 bb3c 5643 9a3c bd8c 3cbb
00000080: 8461 953d 3e5e 4ebd 274f 62bd db6e 90bd
00000090: 0661 863d 24e2 6a3b 44a3 bd3d 3743 823d
000000a0: 1aa4 4e3d bd59 35bd d1e7 86bd a7a7 023b
000000b0: 9ba5 623c ee33 6f3d 19da 0a3c 768e 26bd
000000c0: 639a 69bb 986d 2bbc 9dbd 7f3d 3ab8 98bd
000000d0: 1cc4 86bd 17c2 debc e7b5 57bc 897c 22bd
000000e0: 5abb 92bd 20fd a0bd 63b6 9bbd 62ba 1fbd
000000f0: eed8 813c 8d73 343d 5c19 b3bc 718b d93b
00000100: aa36 a2bd 4f62 503c ae13 35bc 3c52 823d
00000110: fcff d0bd ec06 cabd 0b4c 99bd f292 28bd
00000120: 4cfa 60bd a527 97bd 801a ebbb 2fa5 333d
00000130: 6800 883d e4fc 9abd abe1 8dba 7746 cf3c
00000140: 1a4f 6f3c e545 0c3c e849 893d 5da4 953c
00000150: beb8 f5bd a4df 04be 753f 35bd 5ac6 00be
00000160: 089d 0ebe 92a9 10be 0a17 26bd 60dd 903a
00000170: d75d 13be 51be b03c 51f8 74bd fc8e 14bd
00000180: 3a57 40bd a1fc 5ebc 7621 e3bd 88cc 10be
00000190: 0b86 d7bc 5977 8dbd 8840 a6bd 113c 18bd
000001a0: cfa7 edbc 8775 913b 1426 813d de65 33bd
000001b0: bf9e 983d 09a8 143c 58cb edbc 9872 87bd
000001c0: 6061 aebc 98a0 61bc 755e 933d 6871 88bc
000001d0: d983 aabd b13b 933c e086 003d a257 6bbb
000001e0: b218 5b3d b3c6 4c3d dbdf 803c 853d 673d
000001f0: c6ce c1ba 4f08 6d3d d7b1 e53c ea3e 423d
00000200: 620d 34bd e83d d1bc 6665 70bd 78e2 9a3d
00000210: 2c97 8dbd ecfc bd3c 275b 353c 51ef f93c
00000220: 2255 acbd 9a45 25bb 6643 de3a 36bb 1abd
00000230: c140 97bd 5ed3 973b aa96 693d 4ab6 39ba
00000240: b3c9 ea3c 019d 31bd 331e 243c 1c09 563d
00000250: 2dec 82bb 6d6f 793d 0027 46bd 8fec 1ebc
00000260: 847e 50bd 60a0 8c3d 9635 cd3d 71d4 c9bb
00000270: cf7b 7b3d 9368 ffbc 46f4 0fbd 5b4a 8abd
00000280: 5e96 643d 36f5 bd3d beac 7fbc 02e5 b53c
00000290: 7818 cb3c 4065 853d f5a7 813d 5b3d c03d
000002a0: ddd4 33bd e7f5 81bd 8aba 81bd 1816 94bc
000002b0: 9315 bdbc 50dd 593d cd55 233d 676c 7bbd
000002c0: 4844 9d3b 0232 68bd c4d1 e0bb 9dae 043d
000002d0: 606a b23c 2afa 02bc cda7 363d edf1 433d
000002e0: 2ef5 0a3c 1f32 573d d2b1 48bd 83e7 c83c
000002f0: 98b7 39bc 8344 173d 065f 973d 1794 963d
00000300: 002d 68bd ae52 4e3d dea7 02bd b96f 8fbd
00000310: 4634 9abd e3b7 5abd 03b7 173d 7942 b03d
00000320: 4d28 4cbd 9aa6 4c3d 8ea9 a63d ed20 613d
00000330: 5455 2d3d 8904 f1bc ba04 1c3c eccb d63d
00000340: 39fd 64bd 11db 57bd 2c53 83bd 5f8d 933d
00000350: 686a 1b3d 33f1 1abd 4513 d43b 6810 87bd
00000360: 6eda ab3c 6864 a13d 5140 38bd bafa 5b3d
00000370: 4688 df3c 3c50 b9bc 679a 18bd e1cf f83c
00000380: 24af 683d 26e8 ebbc c694 06bd 3c5c 613d
00000390: db1e 313d 01dd 62bd 2b72 093d c086 4abd
000003a0: a460 98bc 9779 19bd 140c ebbb e699 153d
000003b0: 6c10 aa3d 4025 29bd ace8 3a3d bdb4 00ba
000003c0: 4240 54bd 3244 993c 0df0 72bd e021 8abd
000003d0: 7eee 8d3d fe66 783d c083 013d f548 9fbd
000003e0: 9d25 9ebd 5b64 e1bc 5f33 6f3c dd43 273d
000003f0: 4090 3d3c 12a5 88bd 7f54 4d3d fb7d 853d
0.089136 0.09617911 0.08671596 0.08930067 0.058937613 0.017754199 0.06342109 0.12296334
0.04760215 0.13464238 0.12769961 0.10361238 0.06510686 0.11612195 0.08477064 0.103404574
0.0067349887 0.0719484 -0.033712067 -0.008228982 0.12461634 0.03838376 0.08149871 0.033716097
0.032353833 0.0015156446 -0.0484513 -0.039318543 -0.053917598 0.022835521 0.018830936 -0.002877041
0.0729399 -0.050382845 -0.055251267 -0.07052394 0.065614745 0.0035840357 0.09259656 0.063604765
0.05044947 -0.044275034 -0.06587184 0.0019936354 0.013833429 0.058399133 0.00847485 -0.040663205
-0.0035645 -0.010463141 0.06243669 -0.074570134 -0.06580374 -0.027192159 -0.0131659275 -0.039669547
-0.07164641 -0.0786078 -0.07603147 -0.038996108 0.01585051 0.04405551 -0.021862678 0.006638937
-0.079205826 0.012718751 -0.011052055 0.06363341 -0.10205075 -0.098646015 -0.07485207 -0.041155763
-0.0549262 -0.073806085 -0.00717479 0.043858703 0.066407025 -0.07567766 -0.0010824701 0.025302155
0.014606262 0.008561586 0.067035496 0.018266851 -0.119981274 -0.12975937 -0.04424997 -0.12575665
-0.1392709 -0.14127186 -0.040549316 0.0011052303 -0.14391266 0.021575125 -0.059807125 -0.036269173
-0.046958186 -0.013610036 -0.110903665 -0.14140522 -0.026309034 -0.069075294 -0.08117777 -0.03716666
-0.029010681 0.004439059 0.06306091 -0.04379832 0.074521534 0.009073266 -0.029027626 -0.06613654
-0.021286666 -0.013771199 0.071957506 -0.016655639 -0.08325929 0.017972799 0.031378627 -0.0035910388
0.05349035 0.04999418 0.015731743 0.056455154 -0.0014786355 0.05786925 0.028038902 0.04742328
-0.043958075 -0.025542215 -0.05869045 0.07562727 -0.06913599 0.023191892 0.011069096 0.030509623
-0.08414675 -0.0025218488 0.0016957342 -0.037776195 -0.07385398 0.004633351 0.05702845 -0.0007084353
0.02866063 -0.04336262 0.010016966 0.05225478 -0.0039954395 0.06089728 -0.048377037 -0.009699955
-0.050901905 0.068665266 0.10019986 -0.006159358 0.06139737 -0.031177795 -0.035145067 -0.067524634
0.055807464 0.09275286 -0.01560515 0.022203926 0.024791941 0.065134525 0.063308634 0.093867026
-0.043904174 -0.0634573 -0.06334408 -0.018076941 -0.023081576 0.053189576 0.039876748 -0.061382677
0.0047993995 -0.056688316 -0.0068609435 0.032393087 0.02177924 -0.007994214 0.04459362 0.04783814
0.008481307 0.052538034 -0.048997708 0.024524456 -0.011335276 0.036930572 0.07391171 0.07352465
-0.05668354 0.05037182 -0.031898372 -0.07003731 -0.075295016 -0.053398024 0.037039768 0.08606429
-0.04984312 0.04996357 0.08137809 0.05496304 0.042317703 -0.029421108 0.009522611 0.10488114
-0.055905554 -0.052699152 -0.06412348 0.07204699 0.037943274 -0.03782768 0.0064720237 -0.06594926
0.020978179 0.07880479 -0.044983212 0.05370591 0.02728666 -0.022621267 -0.037256625 0.030372562
0.056807652 -0.02879722 -0.032856725 0.055019602 0.043242317 -0.055386547 0.033556145 -0.049444914
-0.01860077 -0.037469473 -0.0071730707 0.036523722 0.083039135 -0.04129529 0.04563205 -0.00049097446
-0.051819094 0.018709276 -0.05931096 -0.067447424 0.069302544 0.060645096 0.031619787 -0.07777587
-0.07722018 -0.027513674 0.01459965 0.040836204 0.011570036 -0.0667211 0.05012941 0.065181695

fcIn.bias f4 [30]
00000000: 69a0 99bc 65c9 76bd 3a9c 8b3e 648b 173e
00000010: ade6 36bc 9672 293e 285c 573d 5fbc b03d
00000020: 8d7a 343e dcaf 00bd 12b2 5abe d503 c9bc
00000030: f1a9 203d 10db 29bd 5ff1 d0bb 0548 183e
00000040: 8223 e1bc 5e09 f9bc edfd 2c3e 3905 f6bc
00000050: df4b 963d 863a 703d 2b54 9bbd 826d 203e
00000060: fe9e 4739 64e6 ed3d dcd8 81bd 1ba7 333d
00000070: 568a 8cbd d4aa 0e3e
-0.018753247 -0.06025066 0.2726763 0.14799267 -0.011163396 0.16547617 0.05257812 0.08629679
0.17624874 -0.031417713 -0.21356991 -0.02453796 0.03922457 -0.04146868 -0.00637643 0.14871223
-0.027482752 -0.030399974 0.1689374 -0.030031787 0.0733869 0.058649562 -0.07584413 0.15666774
0.00019037348 0.11616209 -0.06340191 0.043860536 -0.06862323 0.13932353

fcOut.weight f4 [2, 30]
00000000: ede9 9ebd de59 61bf d041 20bf db7f 1d3e
00000010: e87a ba3c efeb 88bd bc98 acbc fb72 813d
00000020: f0d3 21bf b478 9cbd 184a 5dbe 4960 64be
00000030: bead 263e 1b3a 7fbe 6a58 e53e f479 ce3e
00000040: b8fa 1a3e f474 8abe 2292 6abd 7f24 003e
00000050: 7bac c8be 7aa3 d13e 6014 7bbd a33a f33d
00000060: ba50 05bf cd3a e23b ed68 a6be f3b8 b9be
00000070: 8162 85bd 87aa 80bd 6c7c aabb e9dc cfbd
00000080: e02e 94bc 6824 393e 20c6 fb3c 2212 e83d
00000090: 6eac 963d 6d0c fb3e b991 55bd c3a5 573e
000000a0: 43a5 a8bd 1654 f7bd a934 4abd c14a 633d
000000b0: 01f1 613e bb2a 50be bd1b 493d 1961 b33d
000000c0: 8a38 4d3e 3563 43be 8ea7 f73e 9698 053f
000000d0: 59c8 463e 1612 38be 65b6 15be 5598 1c3d
000000e0: b785 5f3d 3a8a 31be c5c5 85be f4c5 db3d
-0.077594616 -0.8802775 -0.6260042 0.15380804 0.022763684 -0.06685626 -0.021068923 0.06320759
-0.63214016 -0.0764021 -0.21610296 -0.22302355 0.16277215 -0.24924509 0.44794017 0.40327418
0.15134704 -0.27042353 -0.05726827 0.12513922 -0.39194092 0.40945035 -0.061298728 0.118764184
-0.52076304 0.0069039823 -0.32501927 -0.36273918 -0.06512929 -0.062825255 -0.0052028205 -0.10149557
-0.018088758 0.18080294 0.030734122 0.113315836 0.07357107 0.49032918 -0.052140925 0.21059327
-0.08234646 -0.12076585 -0.049366627 0.055491213 0.22064592 -0.203288 0.04909872 0.08758754
0.20041099 -0.19080813 0.48370022 0.5218595 0.19412364 -0.17975649 -0.14620359 0.038231213
0.05457088 -0.17337885 -0.2612745 0.10731116

fcOut.bias f4 [2]
00000000: 6f10 013f d54c 693f
0.504157 0.9113286
