PyTorch/lightning_logs/version_24/checkpoints/epoch=99-step=11900.ckpt (torch, 19931 bytes, 4 tensors)

fcIn.weight f4 [30, 126]
0.068124816 0.0807931 0.07260789 -0.060157716 -0.03367443 -0.0670655 0.03645625 0.007873735
-0.035171904 -0.06595628 0.035790473 0.08707289 -0.06953847 0.08476826 0.08068219 0.032916814
-0.0644993 -0.0022143766 0.025935262 0.021025317 0.022953022 0.01610624 0.10282523 0.080487624
-0.05767204 0.016588666 0.057142533 -0.014137995 0.07688879 0.06244609 -0.045813397 0.015969904
0.0057607675 0.06370692 0.022418302 -0.029923165 0.08892348 -0.016604269 0.07021262 -0.028367441
0.04964529 0.11054865 -0.013596506 0.020795844 -0.060654964 -0.02980145 -0.113081634 0.013207582
-0.094313055 -0.011543853 -0.07976563 -0.08206759 0.04623045 0.027794385 0.022578653 -0.09351434
0.031397667 0.0461576 -0.110621996 -0.07881717 -0.016454773 -0.021364905 -0.014551484 -0.019976825
-0.023026608 -0.051791575 -0.055843834 -0.102171965 0.037184134 -0.10276993 -0.017566154 -0.09255767
-0.096727915 -0.09878849 -0.09440141 -0.098836176 -0.100834556 -0.10012716 0.047452107 -0.09123201
-0.106620245 -0.029825969 0.011878898 0.012175898 -0.07352243 -0.080168 -0.041671615 0.014206237
0.0069533773 0.047259018 -0.057434626 -0.0009455172 -0.02296734 -0.016735217 0.04022315 0.061657045
0.05170735 0.000841609 0.003912168 0.06114062 0.023893032 -0.09786455 -0.08726785 -0.014460676
0.026484668 0.063548036 -0.058205415 -0.03169489 0.0020309626 -0.058435123 0.011890986 -0.08966157
-0.037926164 -0.081036 -0.08024827 -0.004143213 -0.043298826 -0.0867096 -0.06548957 0.046055865
0.043324042 0.024790296 0.006952427 0.0040647136 -0.08336021 0.08129381 0.03153799 -0.08280743
0.05446786 -0.057256967 -0.0714347 -0.057386395 0.07075241 -0.045830287 -0.013706497 -0.0114980815
-0.03586824 -0.054998234 -0.016291417 -0.053927585 -0.08726761 -0.06167196 0.08303133 0.074242584
-0.051939208 0.044471804 0.0008131036 0.06976275 0.045675535 -0.020642223 0.055923525 0.03267305
0.026715212 0.06290248 -0.031342953 -0.00077929616 -0.03675552 -0.061852828 0.03635653 -0.00820196
-0.040035143 0.012672166 0.0677055 -0.042908646 -0.033163816 -0.008612375 0.028986836 -0.02665906
0.07253571 -0.052802946 0.060302585 0.03394596 0.0021710955 -0.031395406 0.00093217747 0.0024530895
-0.047204044 -0.055007014 -0.08225731 0.058582034 0.04080508 -0.078897014 -0.02150423 0.05668804
-0.083988115 -0.04000899 -0.018005595 -0.058815073 0.033081375 -0.05731817 -0.01346041 0.06452257
0.051884584 -0.064933695 0.019856947 -0.092267 -0.031721268 -0.01723418 -0.001700445 -0.09351018
-0.080627136 -0.021595046 -0.0042295707 -0.06765641 -0.043224674 -0.032396637 0.05795097 0.03051083
0.013757042 0.08633709 -0.053802207 0.08582561 -0.07265583 -0.06675886 -0.042531203 -0.016197938
0.009820412 -0.013459351 0.051537536 0.08515653 0.024820587 0.028796537 0.11958913 0.102785185
0.054052826 0.038761903 0.06577525 0.06654661 0.08438053 0.01873443 0.046449628 -0.019316982
-0.0047322055 -0.009851462 -0.072148256 -0.061990686 0.07969777 -0.04712096 0.08291272 -0.036933485
0.028525116 -0.0067108395 0.047212347 -0.018911907 0.08157339 0.031449758 0.043633945 0.058148302
-0.024049714 -0.033716086 0.048146218 0.06559237 0.040905997 0.09755551 0.070360795 0.111018054
00000000: 0685 8b3d da76 a53d 72b3 943d f067 76bd
00000010: 33ee 09bd a359 89bd 2653 153d d700 013c
00000020: 6a10 10bd 1614 87bd 0899 123d 4553 b23d
00000030: 2f6a 8ebd fb9a ad3d b43c a53d c8d3 063d
00000040: 3618 84bd 131f 11bb 3076 d43c 493d ac3c
00000050: fa07 bc3c 3cf1 833c 0996 d23d b2d6 a43d
00000060: 8439 6cbd f4e4 873c 4a0e 6a3d 0da3 67bc
00000070: df77 9d3d 79c7 7f3d d4a6 3bbd 51d3 823c
00000080: d2c4 bc3b c678 823d 96a6 b73c 6d21 f5bc
00000090: 831d b63d ad05 88bc a2cb 8f3d d662 e8bc
000000a0: dc58 4b3d 5567 e23d e1c3 5ebc 0c5c aa3c
000000b0: 5771 78bd 2c22 f4bc 5897 e7bd 9d64 583c
000000c0: 3427 c1bd 6e22 3dbc 2a5c a3bd 0d13 a8bd
000000d0: 245c 3d3d 0db1 e33c def6 b83c 7284 bfbd
000000e0: d79a 003d c00f 3d3d c98d e2bd e56a a1bd
000000f0: 29cc 86bc 7405 afbc 5969 6ebc 70a6 a3bc
00000100: 4ca2 bcbc 6723 54bd 81bc 64bd 893f d1bd
00000110: 644e 183d 0b79 d2bd e5e6 8fbc e08e bdbd
00000120: 4919 c6bd 9f51 cabd 8755 c1bd 9f6a cabd
00000130: 5982 cebd 780f cdbd 245d 423d d9d7 babd
00000140: b75b dabd 9755 f4bc b69f 423c 6b7d 473c
00000150: ee92 96bd 1f2f a4bd dbaf 2abd 47c1 683c
00000160: 28d9 e33b ac92 413d 9240 6bbd 96dc 77ba
00000170: 0126 bcbc 4b18 89bc 08c1 243d 198c 7c3d
00000180: 16cb 533d 6d9f 5c3a a531 803b 966e 7a3d
00000190: 52bb c33c 366d c8bd 7db9 b2bd 79ec 6cbc
000001a0: 60f6 d83c 7925 823d cd68 6ebd 80d2 01bd
000001b0: e619 053b ab59 6fbd 69d2 423c 7ca0 b7bd
000001c0: 7758 1bbd 34f6 a5bd 3459 a4bd cac3 87bb
000001d0: 1c5a 31bd ce94 b1bd 651f 86bd 13a5 3c3d
000001e0: 8d74 313d 0515 cb3c 2fd1 e33b 4a31 853b
000001f0: c2b8 aabd 5e7d a63d fb2d 013d f196 a9bd
00000200: b119 5f3d 4886 6abd 5b4c 92bd ff0d 6bbd
00000210: a4e6 903d 8ab8 3bbd 3791 60bc 7362 3cbc
00000220: 93ea 12bd d445 61bd 9475 85bc 2ce3 5cbd
00000230: 5cb9 b2bd bd9b 7cbd 540c aa3d 7f0c 983d
00000240: 35be 54bd 1128 363d 7526 553a c6df 8e3d
00000250: 4516 3b3d e119 a9bc 1110 653d 2dd4 053d
00000260: dcd9 da3c 04d3 803d 7861 00bd ae49 4cba
00000270: f58c 16bd 6459 7dbd 96ea 143d 8361 06bc
00000280: e4fb 23bd eb9e 4f3c 2ea9 8a3d fac0 2fbd
00000290: c8d6 07bd eb1a 0dbc cd75 ed3c 1a64 dabc
000002a0: 9a8d 943d e747 58bd d8ff 763d eb0a 0b3d
000002b0: f048 0e3b 7898 00bd 5f5d 743a 03c4 203b
000002c0: 0759 41bd 094f 61bd 8576 a8bd b7f3 6f3d
000002d0: 3a23 273d c294 a1bd a429 b0bc b831 683d
000002e0: f601 acbd 77e0 23bd 7880 93bc 13e8 70bd
000002f0: 5680 073d 75c6 6abd 0d89 5cbc 6924 843d
00000300: ee84 543d f5fb 84bd 09ab a23c 7bf6 bcbd
00000310: 29ee 01bd b22e 8dbc 77e1 deba 4482 bfbd
00000320: d71f a5bd 18e8 b0bc 3698 8abb 728f 8abd
00000330: 5b0c 31bd 56b2 04bd ff5d 6d3d d9f1 f93c
00000340: 3765 613c 80d1 b03d b45f 5cbd 56c5 af3d
00000350: 94cc 94bd dfb8 88bd 3335 2ebd 8ab1 84bc
00000360: cbe5 203c 9c84 5cbc 0619 533d 8c66 ae3d
00000370: 8b54 cb3c b7e6 eb3c 25eb f43d 0a81 d23d
00000380: 7f66 5d3d cdc4 1e3d 2db5 863d 9749 883d
00000390: b3cf ac3d f378 993c f741 3e3d a63e 9ebc
000003a0: 9e10 9bbb 0768 21bc 77c2 93bd f2e9 7dbd
000003b0: 9638 a33d e801 41bd 25ce a93d 9147 17bd
000003c0: 81ad e93c 9ae6 dbbb bc61 413d 25ed 9abc
000003d0: f30f a73d 76d1 003d 82b9 323d ea2c 6e3d
000003e0: e803 c5bc e119 0abd f834 453d 4b55 863d
000003f0: 0c8d 273d 2fcb c73d 5219 903d 6f5d e33d

fcIn.bias f4 [30]
0.08883065 0.030606193 0.0856487 0.09229539 -0.054446563 -0.023987545 0.092686564 0.010404407
-0.025113603 -0.035720337 -0.016411582 0.14638229 0.14209035 0.08289499 0.21089852 -0.035437137
0.052016012 0.24510947 0.32107854 0.011056107 -0.016602276 0.020951264 0.1872647 0.08055668
-0.0653154 -0.052712224 0.0728733 -0.028301375 0.044774447 -0.24291547
00000000: d8ec b53d d7b9 fa3c 9668 af3d 5e05 bd3d
00000010: 5c03 5fbd 8781 c4bc 74d2 bd3d 3f77 2a3c
00000020: 0bbb cdbc 7d4f 12bd 9571 86bc 3de5 153e
00000030: 2280 113e d9c4 a93d c8f5 573e 8826 11bd
00000040: be0e 553d fafd 7a3e 6864 a43e ac24 353c
00000050: 7f01 88bc fca1 ab3c 51c2 3f3e e7fa a43d
00000060: 15c4 85bd c6e8 57bd 993e 953d 49d8 e7bc
00000070: 6965 373d d5be 78be

fcOut.weight f4 [2, 30]
-0.13091981 0.23413113 0.10881803 -0.16713433 0.2920295 -0.5518275 -0.28417543 0.2270731
-0.12595159 0.52277696 0.05022382 -0.83759636 0.0040808357 -0.62396485 0.08300091 0.14014944
0.54108167 -0.61732686 -0.25251284 -0.5333545 0.09667122 0.3759919 -0.3754427 -0.2282085
-0.12745677 -0.012803233 0.3650383 -0.5911025 0.41360888 -0.26631412 0.200518 -0.05283833
-0.15107863 0.25763386 0.42028037 0.1010121 0.02114964 -0.23753037 0.16630916 0.16879982
-0.087827936 0.12857631 -0.14200613 0.2533617 -0.088003546 0.12199695 0.30808264 -0.29679266
0.10068389 0.41604826 0.019448884 0.19987951 -0.03870545 0.3922948 0.12135968 0.17267591
-0.19946219 -0.19570124 -0.130972 0.10800786
00000000: d80f 06be 12c0 6f3e fddb de3d 4325 2bbe
00000010: e484 953e 9144 0dbf 717f 91be da85 683e
00000020: 74f9 00be b6d4 053f 7eb7 4d3d b76c 56bf
00000030: 88b8 853b 29bc 1fbf 62fc a93d 5683 0f3e
00000040: 5484 0a3f 2209 1ebf 5d49 81be ec89 08bf
00000050: 90fb c53d 0382 c03e 073a c0be 7daf 69be
00000060: 0784 02be a7c4 51bc 4de6 ba3e 7e52 17bf
00000070: 8bc4 d33e 535a 88be 9754 4d3e 016d 58bd
00000080: 5bb4 1abe 96e8 833e fd2e d73e 6fdf ce3d
00000090: 0342 ad3c 293b 73be f34c 2a3e dcd9 2c3e
000000a0: 22df b3bd 82a9 033e 0e6a 11be a0b8 813e
000000b0: 343b b4bd 89d9 f93d 02bd 9d3e 35f5 97be
000000c0: 5b33 ce3d 4704 d53e 4453 9f3c 37ad 4c3e
000000d0: 9b89 1ebd ddda c83e 6d8b f83d f4d1 303e
000000e0: d13f 4cbe e865 48be 861d 06be 3a33 dd3d

fcOut.bias f4 [2]
-0.13426319 1.4388995
00000000: 4a7c 09be dc2d b83f
