PyTorch/lightning_logs/version_0/checkpoints/epoch=99-step=11900.ckpt (torch, 21587 bytes, 6 tensors)

fc1.weight f4 [30, 105]
000000 90 31 40 3d b1 2e 31 3a db 48 38 bd e8 e7 87 3d
       0.046922266 0.0006758972 -0.044991355 0.066360295
000010 f9 92 70 bd 77 a1 14 bd fc b0 dd bc 97 79 bd bd
       -0.058733914 -0.036286797 -0.027061932 -0.09251707
000020 07 3d 55 3d fb f4 04 bd b7 af 31 bd 92 dd a0 3d
       0.052060153 -0.032460194 -0.043380465 0.07854761
000030 0c c0 05 bd 44 ae 6f 3d 24 a6 d0 bd 66 64 93 bc
       -0.032653853 0.058515802 -0.10187939 -0.01799221
000040 93 b5 d5 3c 91 6d 89 bd a4 ac 04 be df e9 80 3c
       0.026087558 -0.06710351 -0.12956482 0.015736518
000050 7f 73 67 bc f3 c1 f9 3c 65 e5 9f bc bd c0 04 3d
       -0.0141266575 0.03048799 -0.019518564 0.032410372
000060 2e 42 78 bd 61 46 e4 bd 2b c2 f8 bd 07 13 9f bd
       -0.06060999 -0.11146236 -0.121464096 -0.07767301
000070 bc 78 be bc 10 f2 b1 bc 98 59 c0 bd 3e 71 69 bd
       -0.02325093 -0.02172187 -0.09392089 -0.05699276
000080 de 04 4e bd 2b 78 15 3c b7 99 fa bd 79 cc 81 bd
       -0.05029761 0.009122889 -0.1223635 -0.06337828
000090 29 bf d6 bd 3b d8 dc bd e1 64 55 bd fd 84 b1 bd
       -0.1048568 -0.1078343 -0.05209816 -0.086679436
0000a0 29 05 88 3d 3e f4 ba 3d 24 e0 a2 bc a4 7d 56 bd
       0.06641609 0.09128617 -0.01988227 -0.052365914
0000b0 c5 b1 a8 bd 60 51 43 bc 18 20 3d ba ca 2c 73 bd
       -0.08237032 -0.011921257 -0.000721456 -0.059368886
0000c0 9c 92 0b be ef 5b c8 bd b7 10 be bc 11 30 81 bd
       -0.13630146 -0.0978316 -0.02320133 -0.06307996
0000d0 38 3d 56 3c a0 69 10 bc 5f ae a4 bd 20 ed 18 3d
       0.013076119 -0.008814245 -0.08041071 0.037335515
0000e0 f1 52 44 bd bd 50 54 bd 92 cd 39 bd 61 35 1b bd
       -0.04793066 -0.05183481 -0.045362063 -0.037892703
0000f0 5c e3 d3 bd 30 46 37 bd 0c ea d4 bd f6 e8 0d bd
       -0.103461 -0.04474467 -0.103962034 -0.034645997
000100 0c 1a 3a 3d fb ee 08 bd c0 79 6e bd f7 5d 27 bd
       0.045434996 -0.033431035 -0.05822158 -0.040861096
000110 e7 ce ef bd 69 bf e2 3c a4 5a d0 bd 1a 41 3b 3d
       -0.11709385 0.027679162 -0.10173538 0.045716383
000120 e2 05 ef bd 4f 2f ef bc 35 71 d7 bc 84 f5 70 3d
       -0.11671044 -0.029197363 -0.026299099 0.058827892
000130 42 46 6f 3d ef e9 57 b9 8e da 94 3d 7f 54 13 3d
       0.058416612 -0.00020591145 0.072682485 0.035969254
000140 03 f7 8a 3c 79 3b 41 3d 7e 27 65 bc 1c 01 6f bd
       0.016963487 0.04717586 -0.013986466 -0.058350667
000150 42 01 3d 3e a9 d6 1b 3e 36 37 cc 3d 2d 0c a9 3d
       0.18457511 0.15218605 0.09971468 0.082542755
000160 a0 f2 1b 3c 9c d9 64 3d ee d3 3c 3a a9 34 85 bd
       0.0095182955 0.05587159 0.0007203211 -0.06504185
000170 6c 91 85 3d d8 5f 46 bb 90 49 ad 3d ef 11 dc 3c
       0.06521878 -0.003026953 0.084612966 0.02686402
000180 65 09 ed bc af 22 82 bd 51 11 bc 3d 22 1b a8 bc
       -0.028935144 -0.063542716 0.0918299 -0.02052075
000190 5a e9 a6 3b fb 64 37 bd e6 c5 8d bc 64 a3 84 3d
       0.0050937356 -0.044774037 -0.01730628 0.06476477
0001a0 62 aa 49 3d ab 1f 4e bd ea af 1c 3d aa ba 86 3d
       0.049234755 -0.05032317 0.038253702 0.06578572
0001b0 d5 c9 b7 3c 16 cc 71 bd 94 27 42 bd 2b 0b 6e 3d
       0.022435108 -0.059032522 -0.047401026 0.05811612
0001c0 01 1c d5 3b 26 70 87 3d cb 9c 6d bd f7 5c a1 3c
       0.0065035825 0.066131875 -0.058010858 0.01969765
0001d0 ce 62 33 bd 1b 74 3e bc cb 4d 55 bd ca 17 ac bb
       -0.0437954 -0.011624361 -0.052076142 -0.0052518593
0001e0 9a 92 d6 bd 66 09 3d bd 69 d1 0a be c2 48 fa bc
       -0.10477181 -0.04615154 -0.13556446 -0.030552272
0001f0 d6 d7 0f be c9 24 96 3c 09 18 86 bd 3d 23 83 3d
       -0.14047179 0.018328087 -0.06547553 0.064032055
000200 09 78 05 bc 22 6d da bd 46 00 b3 bd 48 4f b4 bd
       -0.008146294 -0.10665347 -0.087402865 -0.08804184
000210 be 33 c7 3c ad d9 b2 3c e0 73 31 3b cb d1 24 be
       0.024316665 0.021832312 0.0027077124 -0.16095655
000220 0e 08 fe bd 74 65 36 be a0 73 46 be 09 51 17 be
       -0.1240388 -0.17812139 -0.19380045 -0.14777006
000230 21 d1 b4 bd ed 2e 10 be 73 c6 1c 3d 77 b7 59 bd
       -0.08828951 -0.14080401 0.038275193 -0.05315348
000240 0b 58 a9 bd 07 6b 2d bd 23 46 8a 3d a0 50 58 be
       -0.08268746 -0.042338397 0.06751659 -0.21124506
000250 ae 7a 35 be b9 7a 30 be 7f a2 00 be e4 21 1e be
       -0.1772258 -0.17234315 -0.12561987 -0.15442616
000260 7b 4f 6d bc 95 0e e2 bd c6 93 2f bc 4b 5b 98 bc
       -0.014484282 -0.110379376 -0.010716384 -0.01859822
000270 6d 2b 1a bc 00 ad 9e bd c2 37 5e bc f1 91 ad 3c
       -0.009409768 -0.07747841 -0.013563098 0.021187754
000280 08 ee d5 bc db 89 85 bd 21 16 17 be 56 e6 11 be
       -0.026114479 -0.065204345 -0.14754535 -0.14248022
000290 3a ab 52 3c 9f 0f 05 be 10 34 af bd 59 d2 c2 bd
       0.012858206 -0.1299424 -0.08554852 -0.09512777
0002a0 3a f4 99 bd d7 dd 39 be fa fc 39 be 00 c7 e3 bd
       -0.07517286 -0.18151031 -0.18162909 -0.111219406
0002b0 29 d3 e5 bd 8f 53 ef bc 89 39 94 bd 46 ac dc bc
       -0.11221916 -0.029214649 -0.072375365 -0.026937615
0002c0 b2 3c 2c be a1 ea d7 bc 2b 20 7c bd 27 f8 c3 bd
       -0.16820028 -0.026356997 -0.061554115 -0.09568816
0002d0 22 23 47 bd 71 2e dd bd aa 0c 16 bd 51 f1 11 be
       -0.04861749 -0.107998736 -0.03663317 -0.14252211
0002e0 be 7b c5 bd c2 e7 66 bd 54 3e bd 39 d2 e2 5f bd
       -0.096427426 -0.056373365 0.00036095327 -0.054659672
0002f0 a9 d5 79 bd b9 f4 47 3e 47 2d d5 3d 38 9f 44 3e
       -0.060994778 0.19526948 0.104090266 0.19201362
000300 b7 9d e9 3d e8 6e 31 3e 41 1d fe 3d 13 a3 0b 3d
       0.11407035 0.17327464 0.124079235 0.034091067
000310 00 59 60 3b 7a ec 26 3e 13 2e 04 3e 03 a6 fe 3d
       0.0034232736 0.16301146 0.12908201 0.12434008
000320 47 3c 6b 3d 6f 26 23 3e b7 b3 0f 3e e4 f5 17 3e
       0.05743053 0.1593263 0.140334 0.14839894
000330 f3 9d 54 3d 33 9b b2 3c 61 29 24 3e 6d 5d 01 3d
       0.051908445 0.02180252 0.1603141 0.03158324
000340 c7 e6 01 3e 19 5e af 3d 7c c3 ac bd 52 1a 98 3d
       0.12685691 0.085628696 -0.08435723 0.07426895
000350 d4 db 65 3d 84 65 70 3d 67 21 3c bd a9 52 c6 3d
       0.056117848 0.058690563 -0.045930292 0.09683735
000360 2d b3 b6 3d e9 81 61 bd f2 7f 43 3d 12 d6 7c 3d
       0.08920894 -0.055055533 0.04772944 0.06172759
000370 c5 6c 88 3d 97 4d 9d bd f0 b9 38 bd 72 6c 16 bd
       0.06661371 -0.07680815 -0.0450992 -0.036724515
000380 aa 93 67 bc a7 9f 5d 3d 65 ac 1e 3d 2a 65 d3 3c
       -0.014134327 0.054107334 0.038738627 0.025805075
000390 22 7e 9a bd a4 21 33 3c 06 13 80 bd df ff 35 bd
       -0.07543589 0.0109333135 -0.062536284 -0.04443347
0003a0 1c b8 b9 bb 3b 0a 0d 3d 14 ed be 3d a1 99 83 3d
       -0.0056676995 0.034433585 0.09322563 0.06425787
0003b0 97 7e 7d bb bc d6 5d 3d 51 0e f8 3a 56 53 c3 3d
       -0.003868019 0.054159865 0.0018925165 0.095373794
0003c0 0d 10 ee bb 9f 32 40 bd f0 60 8c 3b 41 16 b2 3b
       -0.007265097 -0.046923276 0.004284017 0.005434782
0003d0 50 ce 32 3d 8a b6 63 3d b1 ca a9 3d b8 21 cd 3d
       0.043653786 0.055594005 0.082906134 0.10016197
0003e0 d0 ba 49 bd 48 fc 47 bc a0 7c b9 bd 79 56 82 bc
       -0.049250424 -0.012206145 -0.090569735 -0.015910374
0003f0 92 84 90 bd dd 12 af bd 70 86 68 bd cf 5b 57 bd
       -0.07056536 -0.0854852 -0.056768835 -0.05257779

fc1.bias f4 [30]
000000 4f 8c 83 3e 8b 5d ef 3e 93 47 df 3d 91 ae 4a bd
       0.25692984 0.46751055 0.109023236 -0.049482886
000010 c4 6e c0 3d e8 81 8f 3d 04 7c 11 3e 2a 10 93 3e
       0.09396127 0.070071995 0.14207464 0.2872327
000020 e1 f1 0c bd fb 1a 83 bc c5 60 e0 3c f4 60 c3 3d
       -0.03441036 -0.016004076 0.027389893 0.09539977
000030 ca 06 41 3e 67 6c 85 3e 1c 47 4f 3d a2 38 41 bf
       0.18850246 0.26059267 0.050604925 -0.7547704
000040 8d 13 c4 bc ca 5a 4a 3d f5 d1 5f 3e 73 4e 32 bd
       -0.023935104 0.04940299 0.21857436 -0.043531846
000050 a4 6a 14 be 37 29 75 3d 8d 69 c7 3a b6 25 ce bd
       -0.14493805 0.05985376 0.0015213952 -0.100657865
000060 3f 1d 05 3e eb 5d bc 3d 6e fc 85 bd be e3 4e 3a
       0.12999438 0.09197601 -0.06542288 0.00078922126
000070 72 1c 96 3c 84 60 9b 3d
       0.01832411 0.07586768

fc2.weight f4 [30, 30]
000000 5e a7 05 be 3e 9c 82 3e 17 dd 07 3e 82 3d 71 bd
       -0.13052127 0.25509828 0.13267933 -0.05889655
000010 10 a1 39 3e c2 2c 17 3e b4 26 0b 3e a0 17 07 bc
       0.18127847 0.14763168 0.13588983 -0.008245379
000020 7e 0d 7b 3c 31 6b 9b 3c 05 a3 f5 bd 13 f4 9f bc
       0.015323041 0.018972011 -0.11993984 -0.019525563
000030 d0 54 fe bd 57 62 11 be c0 c9 39 be c8 bb 0d be
       -0.124185205 -0.1419767 -0.18143368 -0.13841164
000040 e3 7d 07 3e e7 eb 42 3d dd 30 a7 bd 97 ba ec 3d
       0.13231616 0.047588255 -0.08163617 0.11559027
000050 58 cf da 3d 5a 8c 7f bd ef cb 4d 3e 38 e4 97 bd
       0.10684079 -0.06238971 0.20097326 -0.07416576
000060 97 35 1b 3c 9f 70 c5 3d 6f c3 d4 3c ed f8 b0 3d
       0.009473226 0.096406214 0.025972096 0.08641229
000070 25 f5 c5 bd 27 b9 fb 3d 71 b2 1c 3e 49 f7 f2 bd
       -0.09665898 0.122911744 0.15302445 -0.11863572
000080 dd 55 28 bd 5f a0 1b 3e c8 13 96 bc 07 71 a6 3d
       -0.04109751 0.15197895 -0.01831998 0.08127027
000090 54 cf 91 bd b7 74 2d 3e 38 36 0a 3e 5e 64 ee 3d
       -0.07119623 0.16939054 0.13497245 0.11640237
0000a0 24 bb fe 3d 5e 63 19 be 1c d2 e4 3c d7 a5 2c be
       0.12438038 -0.14979312 0.02793222 -0.16860138
0000b0 c9 05 d2 3c 9c 88 24 3e 67 31 00 be ba 8b 9d 3d
       0.025637524 0.16067737 -0.12518845 0.07692666
0000c0 7c 35 33 be 66 8a 00 3e b1 8d 89 3d 77 1a ed bd
       -0.17500871 0.12552795 0.067164786 -0.115773134
0000d0 57 02 32 3e ad d9 1d be 09 ed 1c 3d 8c 77 00 3e
       0.17383705 -0.15415068 0.03831199 0.12545604
0000e0 1c fd 11 bd b0 e5 34 bd 5e 0c 8e bc f4 d5 1f 3e
       -0.035641775 -0.04416436 -0.017339882 0.1560896
0000f0 21 f0 47 be c7 1c 45 bd 38 22 c4 bd 86 6b ae bd
       -0.19525196 -0.048123147 -0.09576839 -0.08516602
000100 16 1a 89 3c 05 a2 18 be 46 66 a3 3d 8b f9 1f be
       0.016736072 -0.14905556 0.079784915 -0.15622537
000110 9a 7c 8f 3d 1a 87 bd 3d f5 36 44 bd c7 01 45 bc
       0.07006188 0.09254284 -0.047903974 -0.0120243495
000120 db b5 18 be d0 27 9a 3d 68 6f 22 3e 94 a4 a4 3e
       -0.14913122 0.07527125 0.1586281 0.32156813
000130 dc ad ca bd c0 76 a8 3d 9c eb a9 bc d6 7f 1f 3d
       -0.09896442 0.08225775 -0.02074223 0.038940273
000140 4b fe 10 3e c3 10 19 3c b9 50 a7 3d 65 32 04 be
       0.14159505 0.009342375 0.081696935 -0.12909849
000150 8c d3 57 bd 20 ee a3 3d 0d 00 83 3d ed ef ff 3b
       -0.05269198 0.08004403 0.06396494 0.007810584
000160 4c 41 89 bc 59 62 25 be ad 33 95 bd 59 89 63 3e
       -0.016754769 -0.16150798 -0.07285247 0.22220363
000170 b0 40 76 bc f9 d6 a3 b9 c9 a6 40 3d 0e 5b 22 be
       -0.015030071 -0.0003124995 0.04703406 -0.15855047
000180 96 64 59 3c 1e f8 77 3d 9a 03 94 bd 44 15 33 3e
       0.01326861 0.060539357 -0.072272494 0.17488581
000190 f3 4a 03 be 6c 7a 24 3d 0e e9 58 3e 5b 6e 0a 3e
       -0.1282156 0.040155813 0.21182653 0.1351866
0001a0 a1 1c 31 3e b1 75 aa be 48 06 29 be 29 70 2f 3d
       0.17296077 -0.33292916 -0.16506302 0.042831574
0001b0 b3 2a a1 bc dc cc 1a be a1 60 40 be c4 3b e9 3d
       -0.01967368 -0.1511721 -0.18786861 0.113883525
0001c0 b2 7c 53 3c ea 6c 09 3e 04 a8 de bd 4e 87 20 3d
       0.012908148 0.13420454 -0.1087189 0.039191537
0001d0 1c 8d 98 bd 54 1f 42 be f1 5f 13 be ba 05 02 be
       -0.074487895 -0.18957263 -0.14392067 -0.12697497
0001e0 be 7b 34 be fb 91 b2 be 02 a0 99 bd 1f fc 21 be
       -0.17625329 -0.34877 -0.07501222 -0.15818833
0001f0 cf 1c c8 bd a7 6b b0 3d ad ff a6 be 9b bf 4c be
       -0.0977112 0.08614283 -0.3261694 -0.19994967
000200 98 51 75 3d 19 3d b7 3d c4 71 cf bd cc c4 4b be
       0.059892267 0.089472 -0.10129121 -0.19899291
000210 a2 79 d5 bd 2c 42 98 be 7d f3 08 3e bf 56 cc 3e
       -0.1042359 -0.29737985 0.13374133 0.39909932
000220 1b 44 37 bd 03 64 31 be 0f 72 c2 bd 30 45 45 3d
       -0.044742685 -0.17323308 -0.09494411 0.048161685
000230 2a ba 61 3e 34 ed 2f 3d ba 6d 0d bd bc d9 2a 3e
       0.22043672 0.042950824 -0.03452847 0.16684622
000240 07 fa da 3c 19 b1 2f be 5e ba 5c bd 79 57 6d bd
       0.02673055 -0.17157401 -0.05388867 -0.05794475
000250 69 48 07 bd 86 2b b7 3d 68 63 80 3d c4 10 b3 bd
       -0.03302804 0.08943848 0.0626896 -0.08743432
000260 b7 d0 b1 bd 50 b8 80 3d 31 2b 00 be 55 ee c5 3d
       -0.08682387 0.06285155 -0.12516476 0.09664599
000270 b7 8e 84 be 91 74 9c 3d 0b 0d 0d bd e2 44 4b bd
       -0.25890133 0.07639421 -0.034436267 -0.04962624
000280 8b 1f 21 be db 3b 49 3e f1 36 ea 3d 95 62 6e be
       -0.15734689 0.1965174 0.114362605 -0.23279794
000290 da 30 2b 3e ae 2d d5 bd af da 2f be 53 a5 a8 bd
       0.16717854 -0.10409103 -0.17173265 -0.08234658
0002a0 2c e6 84 bd 92 1d 2c bd 1f 37 29 be 92 92 1c bd
       -0.06489214 -0.042020388 -0.16524933 -0.038225718
0002b0 9b 75 db bd 3e b5 51 ba 2e ac ed 3d f9 bd 2d 3d
       -0.10715791 -0.00079997245 0.11605106 0.0424175
0002c0 f6 59 08 be 43 1e 00 3e 97 89 0e 3e 9c 73 f2 bd
       -0.13315567 0.12511544 0.13919674 -0.11838457
0002d0 35 b3 2b be 3a 2d 86 be 34 d7 0a be 3a e8 b2 bc
       -0.16767581 -0.2620638 -0.13558656 -0.02183925
0002e0 38 6c 7e ba 5b a4 e0 3d 8c f5 eb bd af 4b 6a be
       -0.0009705457 0.10968848 -0.11521444 -0.22880433
0002f0 33 6b 0d 3e 7c 8e a2 3d 6d ca 79 bd 49 55 47 be
       0.13810425 0.07937333 -0.060984064 -0.19466127
000300 72 ba 06 be 10 55 52 be f9 30 66 bd 39 5f 99 3e
       -0.1315706 -0.20540261 -0.056199048 0.29955462
000310 d0 68 16 bd b2 52 99 3c f0 69 9e bd 7b 26 10 3e
       -0.03672105 0.01871619 -0.0773505 0.14077179
000320 d3 96 87 bd 1b c7 8a 3c f7 25 b8 3d 4b 96 bf 3d
       -0.06620564 0.016940644 0.08991616 0.09354838
000330 f7 b3 6b 3b e4 af 46 be 96 56 99 3d 1c 76 26 bd
       0.0035965422 -0.19403034 0.07487218 -0.04063998
000340 e3 4b d7 bc f5 ff 4c 3d 40 5a c2 bd db 39 79 be
       -0.026281303 0.050048787 -0.0948987 -0.24338476
000350 a2 3a 21 3e a2 ae c0 3d 78 37 6e 3d 03 57 e6 bd
       0.15745023 0.094083086 0.058158368 -0.11247065
000360 3b 7c 0f be 57 f8 d5 bc 1f d8 0d be 48 be db 3c
       -0.14012234 -0.026119394 -0.13851975 0.026824132
000370 f8 06 30 bd 68 1d 2f be e6 9c 1e bc c3 a1 3e be
       -0.042975396 -0.17101061 -0.009680962 -0.18616395
000380 7c 16 e5 bd aa 70 a7 3e a7 18 53 bd d0 d9 ae 3d
       -0.11185929 0.32703143 -0.051537182 0.08537638
000390 03 c3 81 bd 50 15 43 3e ba e5 bb bd 39 d1 45 3e
       -0.06336024 0.19051099 -0.09174676 0.19318093
0003a0 95 55 3a 3d 55 1b f1 3d 9e 31 7b bc 29 65 7f bc
       0.045491774 0.11772791 -0.015331654 -0.015588083
0003b0 23 71 e9 bd a6 3f 23 3e 59 fa 34 be 48 0e 32 bd
       -0.11398532 0.15942249 -0.17673625 -0.04347065
0003c0 4a 66 38 3c 9e d5 6b 3e 04 4f 8a 3d 8e 0d c2 3d
       0.011254856 0.23030707 0.06753352 0.094752416
0003d0 1b 26 50 bc 81 3f d4 3c 11 21 53 bd 53 cf 39 bb
       -0.012704398 0.025909187 -0.051545206 -0.0028352335
0003e0 a4 6a e0 bd 00 78 5c bd 69 9d 10 3e ea 3a b9 bd
       -0.1095784 -0.05382538 0.14122547 -0.0904444
0003f0 4d 5e a5 bd 6f 79 a0 bd de e5 2b bd c8 e6 60 be
       -0.08074627 -0.078356616 -0.041967265 -0.21963036

fc2.bias f4 [30]
000000 76 ac 82 3d 93 e9 f8 bd c6 4f e8 3d 34 09 1f bd
       0.063805506 -0.12153926 0.113433406 -0.038827136
000010 0d 75 9a bd 90 f4 07 3e a1 79 cc bd 64 9a 3c be
       -0.07541857 0.13276887 -0.099841364 -0.1841827
000020 12 ab 14 be 4c 85 22 be 6e 72 66 3d 51 18 fc bd
       -0.14518383 -0.15871161 0.056261472 -0.123093255
000030 a8 f5 38 3e 1b e5 01 3e ad e1 f1 bc 1e 3a 89 bd
       0.1806246 0.12685053 -0.029526556 -0.06700538
000040 5e 33 b0 bd 03 c8 39 be 81 e3 5b be 2c 71 39 be
       -0.086035475 -0.18142705 -0.21473505 -0.18109578
000050 d7 8a 17 be 09 95 f8 bd 75 86 1a be ad 94 88 bc
       -0.14799057 -0.12137801 -0.15090354 -0.016672457
000060 53 fb 40 be 6f 58 2c be 8a 3d 4c 3d b5 30 b3 bd
       -0.18845873 -0.1683061 0.049863376 -0.087495245
000070 16 c5 05 be b2 41 b1 3d
       -0.13063464 0.086551085

fc3.weight f4 [2, 30]
000000 e3 aa a7 3d ff e3 f0 bd de 5c be be 5e d8 d0 3e
       0.08186891 -0.11762237 -0.37180227 0.40790075
000010 61 24 17 bf cf 72 9c 3e fd 27 c1 be d3 80 da be
       -0.59039885 0.30556342 -0.3772582 -0.4267641
000020 07 29 bc 3e 13 39 42 be 19 6d b6 be 8f 18 9a 3e
       0.3675005 -0.18967085 -0.3563011 0.30096862
000030 02 02 94 3e fc 57 36 3e ba aa 21 3f a9 3a a0 be
       0.28907782 0.17807001 0.63151133 -0.31294754
000040 c1 de fc be 23 8f 6c be e2 ee fd be 06 bb d5 be
       -0.49388698 -0.23101477 -0.49596316 -0.4174425
000050 4c 18 85 be f1 7d aa be fb 7d 41 3e 75 f5 6a 3e
       -0.259951 -0.3329921 0.18895714 0.22945197
000060 ce 13 dc be bd 82 5f 3e af 23 25 3f 9c 0d 1e bc
       -0.4298386 0.21827216 0.64507574 -0.009646799
000070 ca 29 82 3e 02 ad da 3d dd 80 43 3e e4 91 0e 3e
       0.25422508 0.1067753 0.19092126 0.1392284
000080 43 28 ae 3e 20 b7 74 3e 38 78 17 3e 8f 2a 78 3e
       0.34015092 0.23897982 0.14791954 0.24234985
000090 e5 ee e9 3d e5 7f 89 3e 14 e6 3d 3e 48 5e 9c 3e
       0.11422519 0.26855388 0.18544799 0.3054068
0000a0 d5 19 49 3d 24 63 1b 3e 91 04 bc 3e d4 0b 89 3d
       0.0490969 0.15174538 0.36722234 0.06691709
0000b0 ac 27 8b 3e 97 7f d0 3d 42 c0 00 3e b2 01 88 3d
       0.27178705 0.10180586 0.1257334 0.06640948
0000c0 82 e1 d1 3d bf 49 d5 3d d0 ff 07 3d 79 02 19 3e
       0.1024809 0.104144566 0.033202946 0.1494235
0000d0 26 31 d6 3d 0d c6 e2 3d dc 6d a2 3e 8e 61 21 3e
       0.10458593 0.110729314 0.3172444 0.1575987
0000e0 0d af 02 3e 40 5e 31 bd aa 3a 4f 3e f5 c7 f6 ba
       0.12762089 -0.043302774 0.20237222 -0.0018827902

fc3.bias f4 [2]
000000 05 45 31 be 5f 14 4d 3e
       -0.17311485 0.20027302
