PyTorch/lightning_logs/version_8/checkpoints/epoch=99-step=11900.ckpt (torch, 19995 bytes, 4 tensors)

fcIn.weight f4 [30, 126]
0.011178682 -0.054590587 -0.057533454 0.048093487 -0.028874481 -0.05378773 0.051402293 -0.04215229
-0.034530785 -0.03958655 0.039889485 -0.009397437 0.06173927 -0.065506086 0.020616066 -0.06841315
0.07468166 0.025169093 0.052321643 0.015467962 0.036336385 0.0015477221 -0.0011731975 -0.0040347804
0.07264401 0.013213735 -0.05144062 0.05580705 -0.06439277 0.009165998 -0.03407039 0.05899727
0.077438466 0.055438187 0.016701026 0.0084005175 -0.005768641 -0.044318248 -0.0013235885 0.08445634
-0.053760283 -0.07590513 -0.06285818 0.034679014 -0.04624991 0.07447344 0.027338365 0.078809455
-0.06616973 0.048133478 -0.022758177 0.023281822 0.0024095478 -0.00864388 -0.028024152 0.04680036
-0.037909295 0.058757234 0.04516278 0.07862824 0.047585715 -0.050128162 0.08258005 0.010435937
0.026424943 -0.03573463 -0.07377253 0.069777 -0.05279378 0.07090548 0.005579478 0.04429961
-0.05006512 0.059828423 -0.07298592 0.023679541 -0.06964649 0.08800284 0.0076934206 0.09918385
-0.027086329 -0.0002558198 -0.04952835 0.039668433 0.07832706 -0.039848153 0.091112055 -0.035349768
-0.035718177 0.05654992 -0.01730284 0.017627355 -0.03389867 -0.016073136 0.06057917 -0.05213124
0.059690583 -0.033167474 -0.019427354 -0.047753684 -0.065761656 -0.042436004 -0.0026851818 0.021845486
-0.037470616 -0.0677815 -0.024078693 -0.004549399 0.0647868 -0.05040899 0.07651527 -0.03139473
0.008685455 0.08521927 -0.06684135 -0.07939257 -0.043888018 0.058717594 -0.061084066 -0.042455554
0.07267415 0.06444842 -0.07104247 0.070714936 -0.005518183 -0.04556567 0.050050892 0.121409126
0.07735528 0.07005978 0.073217556 -0.01179 0.11496483 0.012202481 0.10206387 0.060312215
0.014212335 0.014443982 0.08582467 0.04728654 0.13646951 0.0835266 0.10899265 -0.014170076
0.07045618 0.080285266 0.031296283 0.0786509 0.026084168 0.031509236 0.06734077 0.10865555
0.053759363 0.092040055 -0.056725223 0.04670857 0.108076155 0.10106544 0.029540906 0.018514756
-0.044990476 0.082549945 0.059487786 0.108620964 0.08783998 0.035029776 0.022290403 0.10594042
0.07207095 0.035324033 -0.10021638 0.027997443 0.056783948 0.028881602 -0.048140153 0.06571638
0.006654165 0.0066188904 0.04278641 -0.054282464 -0.0047147246 0.04245572 0.017376544 0.021387214
-0.09361653 -0.07431749 -0.037217148 -0.010634701 0.026186498 0.003484047 -0.06612516 -0.006598224
0.052614875 0.051077098 0.03879539 -0.018631106 -0.07122365 0.022221925 -0.03707684 0.004475234
-0.07575087 -0.0013189844 -0.02887108 -0.11159288 -0.0075708115 -0.10611519 0.04424556 -0.08754588
0.046356943 0.01743643 -0.08584975 0.006935576 -0.15432633 0.0050764238 -0.0053020953 -0.1183122
-0.07442638 -0.13691004 -0.15430029 -0.14070635 -0.13580471 0.020920618 -0.03957314 -0.012892993
-0.07096312 -0.025628354 -0.06636834 -0.012412881 -0.12224688 -0.14909239 -0.037000027 0.07599612
0.059037805 -0.04003618 -0.021513263 -0.012222294 -0.042943213 -0.017536242 -0.012834764 -0.05610516
0.042759627 0.022222657 0.012008381 -0.03004242 -0.04222087 0.062515356 -0.043146398 0.03990862
0.06595928 0.05898479 -0.03316758 -0.053339757 0.034020465 -0.005811382 -0.047147658 0.051685397
00000000: ca26 373c 619a 5fbd 33a8 6bbd adfd 443d
00000010: 2d8a ecbc 8650 5cbd 368b 523d e1a7 2cbd
00000020: 2770 0dbd 8225 22bd 2863 233d b5f7 19bc
00000030: 51e2 7c3d 0e28 86bd 06e3 a83c 321c 8cbd
00000040: b3f2 983d 6a2f ce3c 384f 563d 566d 7d3c
00000050: 76d5 143d f0dc ca3a fac5 99ba 3136 84bb
00000060: 62c6 943d 6c7e 583c 66b3 52bd ef95 643d
00000070: 5be0 83bd fb2c 163c 658d 0bbd 1fa7 713d
00000080: 0f98 9e3d 2713 633d 97d0 883c 53a2 093c
00000090: de06 bdbb 0d87 35bd 437c adba 72f7 ac3d
000000a0: be33 5cbd 2674 9bbd cabb 80bd 950b 0e3d
000000b0: 8c70 3dbd 8885 983d b5f4 df3c da66 a13d
000000c0: ff83 87bd 9c27 453d 5b6f babc 85b9 be3c
000000d0: 81e9 1d3b 0f9f 0dbc e892 e5bc bcb1 3f3d
000000e0: c746 1bbd 6dab 703d 9bfc 383d d807 a13d
000000f0: 3de9 423d 3053 4dbd bb1f a93d 7efb 2a3c
00000100: 1f79 d83c 7a5e 12bd 0d16 97bd 3ee7 8e3d
00000110: 4a3e 58bd e436 913d 0ed4 b63b 8273 353d
00000120: 1511 4dbd a60e 753d a479 95bd 99fb c13c
00000130: d2a2 8ebd d53a b43d 1719 fc3b e720 cb3d
00000140: 26e4 ddbc 8d1f 86b9 3dde 4abd 5e7b 223d
00000150: f069 a03d d137 23bd f598 ba3d ebca 10bd
00000160: 394d 12bd e4a0 673d afbe 8dbc 3e67 903c
00000170: 55d9 0abd cfab 83bc dd21 783d 9187 55bd
00000180: 1d7e 743d 9eda 07bd 1d26 9fbc 5e99 43bd
00000190: 0cae 86bd 60d1 2dbd e0f9 2fbb 4ef5 b23c
000001a0: ca7a 19bd 07d1 8abd ae40 c5bc 2013 95bb
000001b0: f1ae 843d a879 4ebd 0ab4 9c3d c397 00bd
000001c0: 704d 0e3c 7187 ae3d 1ee4 88bd 9298 a2bd
000001d0: ecc3 33bd dc81 703d 4933 7abd e0e5 2dbd
000001e0: 2fd6 943d 89fd 833d b77e 91bd fed2 903d
000001f0: e0d1 b4bb 11a3 3abd 2a02 4d3d 59a5 f83d
00000200: 726c 9e3d 807b 8f3d 16f3 953d d82a 41bc
00000210: ae72 eb3d eaec 473c dd06 d13d f109 773d
00000220: dbda 683c 74a6 6c3c d8c4 af3d 88af 413d
00000230: aabe 0b3e fe0f ab3d 8a37 df3d 9b29 68bc
00000240: 544b 903d 9a6c a43d 8830 003d b913 a13d
00000250: 77ae d53c d40f 013d f5e9 893d cd86 de3d
00000260: c732 5c3d 7f7f bc3d b558 68bd 7c51 3f3d
00000270: 0857 dd3d 66fb ce3d c5ff f13c 42ac 973c
00000280: ef47 38bd f20f a93d 77a9 733d ab74 de3d
00000290: 73e5 b33d 627b 0f3d 5d9a b63c 4af7 d83d
000002a0: ef99 933d efaf 103d 3f3e cdbd e55a e53c
000002b0: 4996 683d 1c99 ec3c 9c2e 45bd 4f96 863d
000002c0: 2f0b da3b 47e3 d83b cd40 2f3d 4a57 5ebd
000002d0: fa7d 9abb 0de6 2d3d 4159 8e3c 3d34 af3c
000002e0: 06ba bfbd c533 98bd 0271 18bd 2b3d 2ebc
000002f0: 1185 d63c 9c54 643b a16c 87bd ea35 d8bb
00000300: b282 573d 3836 513d eae7 1e3d 43a0 98bc
00000310: b4dd 91bd c10a b63c e2dd 17bd fca4 923b
00000320: 4623 9bbd c6e1 acba 0b83 ecbc cf8a e4bd
00000330: 9214 f8bb ec52 d9bd d53a 353d 414b b3bd
00000340: c7e0 3d3d d8d6 8e3c fed1 afbd d443 e33b
00000350: b907 1ebe 2158 a63b 33bd adbb ab4d f2bd
00000360: dc6c 98bd 2532 0cbe e500 1ebe 5315 10be
00000370: 6410 0bbe b761 ab3c 7217 22bd 223d 53bc
00000380: 1d55 91bd 8ef2 d1bc 20ec 87bd 655f 4bbc
00000390: 925c fabd adab 18be 578d 17bd dba3 9b3d
000003a0: a0d1 713d fafc 23bd 953c b0bc 0440 48bc
000003b0: 39e5 2fbd 2aa8 8fbc e748 52bc 86ce 65bd
000003c0: b824 2f3d 4a0c b63c cdbe 443c 851b f6bc
000003d0: caef 2cbd 0d08 803d 47ba 30bd 3977 233d
000003e0: a915 873d 099a 713d bada 07bd ca7a 5abd
000003f0: 0b59 0b3d 686d bebb e71d 41bd 11b4 533d

fcIn.bias f4 [30]
-0.035905484 0.083972566 -0.12615037 0.17940547 -0.33106056 -0.056896918 -0.0038068674 -0.008520113
0.07695586 -0.06598415 -0.053574342 0.024902225 -0.02505755 -0.0066138306 -0.05387187 0.033261236
0.08754411 0.120265454 -0.2587334 -0.05440975 -0.025188142 -0.05734775 -0.06700791 0.058764286
0.031752348 0.2226145 -0.11337618 0.01382528 0.11709327 0.12806088
00000000: a111 13bd cff9 ab3d 902d 01be 11b6 373e
00000010: c580 a9be be0c 69bd a37c 79bb f297 0bbc
00000020: 099b 9d3d b322 87bd c570 5bbd c0ff cb3c
00000030: 7e45 cdbc d5b8 d8bb c0a8 5cbd ef3c 083d
00000040: 544a b33d bc4d f63d b478 84be c2dc 5ebd
00000050: 5d57 cebc 79e5 6abd 713b 89bd d2b2 703d
00000060: c00e 023d 0ef5 633e c531 e8bd 6d83 623c
00000070: 99ce ef3d 6422 033e

fcOut.weight f4 [2, 30]
-0.12598804 0.17495048 0.09228341 0.056333274 -0.036235016 -0.7520641 -0.55285305 -0.045730628
1.2317709 -0.32501572 -0.18709578 0.09608499 0.118305415 0.27288705 -0.48133445 0.08563891
-0.05434236 0.29430464 0.2893727 -0.26202816 0.2054262 -0.18956369 -0.014589057 -0.14117664
-0.49940383 -0.10650266 -0.12253158 -0.0600662 0.13993622 0.07366145 0.27942726 -0.2617945
-0.16124442 -0.09855356 0.121536136 0.37910515 0.057074662 -0.040814172 0.4893891 0.32259798
-0.06384781 -0.18034343 -0.095449924 -0.16846433 -0.056933425 0.026354222 0.10270664 0.15273446
0.022492776 0.040364053 -0.11570952 -0.13693503 0.17801638 0.24949299 -0.035058837 -0.063987516
0.15484367 -0.10271433 0.004725109 -0.17595516
00000000: 0203 01be 3826 333e 16ff bc3d b8bd 663d
00000010: 2b6b 14bd 4687 40bf c787 0dbf 0a50 3bbd
00000020: abaa 9d3f 7668 a6be 0996 3fbe 35c8 c43d
00000030: 1c4a f23d dab7 8b3e 7871 f6be 7463 af3d
00000040: 1896 5ebd 19af 963e a928 943e 8e28 86be
00000050: 3f5b 523e fc1c 42be f106 6fbc 9c90 10be
00000060: dcb1 ffbe 111e dabd d6f1 fabd fa07 76bd
00000070: 714b 0f3e d0db 963d 1711 8f3e ee09 86be
00000080: 421d 25be 73d6 c9bd f0e7 f83d 121a c23e
00000090: 1fc7 693d c32c 27bd 3591 fa3e 902b a53e
000000a0: a4c2 82bd f3ab 38be 407b c3bd ea81 2cbe
000000b0: 0633 69bd cfe4 d73c dc57 d23d 6c66 1c3e
000000c0: c542 b83c c754 253d 1df9 ecbd b238 0cbe
000000d0: ed49 363e 177b 7f3e db99 0fbd e30b 83bd
000000e0: 578f 1e3e e45b d2bd 16d5 9a3b 972d 34be

fcOut.bias f4 [2]
0.30831343 1.5386184
00000000: 42db 9d3e 73f1 c43f
