PyTorch/lightning_logs/version_1/checkpoints/epoch=99-step=11900.ckpt (torch, 21587 bytes, 6 tensors)

fc1.weight f4 [30, 105]
000000 f8 87 b0 bb 41 11 f6 3c 38 10 8c bd 64 76 a6 3d
       -0.0053873025 0.030037524 -0.06839031 0.0812805
000010 ed 7b 8d 3d 49 1b 90 3c 30 7b 08 bd b5 3f 1b bd
       0.069084026 0.017591136 -0.033320606 -0.037902553
000020 3d 8c 4a 3d 39 00 62 3c ad 2e 82 bd 00 0a 62 3c
       0.049450148 0.013793998 -0.06356559 0.0137963295
000030 f5 2c 2b bd 8b db 01 3e 97 b7 43 3c d3 ec a7 3b
       -0.04179092 0.12681405 0.011945627 0.005124667
000040 bb b4 d4 3d 68 11 d0 3d b3 a1 6b 3c b4 75 ec 3d
       0.10386034 0.1015957 0.014381814 0.115458876
000050 0e 78 f8 3d 7d c2 8f bc be 7b ae 3d 4b 6d 51 3c
       0.121322736 -0.017548794 0.08519696 0.012782405
000060 c4 5c 92 bd cf 50 2c bd 71 66 21 bb d3 1b 82 3c
       -0.071466 -0.042069253 -0.002462771 0.015882408
000070 99 e3 15 3c ca 1e 1a bd a0 04 0e bd 9f 18 c1 bc
       0.009148502 -0.03762702 -0.03467238 -0.02357131
000080 26 90 c3 3c c3 d7 e1 3c 9f 62 3c 3d ad db 3d 3d
       0.023872446 0.027568704 0.04599249 0.046352077
000090 2f 29 6f bd d2 66 3c 3c 91 a0 b6 bb e0 a7 67 3d
       -0.058388885 0.011499124 -0.00557334 0.056556582
0000a0 c9 29 16 3d 2f 15 87 bd d3 77 f6 bc 08 06 24 bd
       0.036660943 -0.06595837 -0.030086434 -0.040044814
0000b0 8e 13 bd bc 3f 11 c4 3b ed 13 57 3c 2b 09 3f 3d
       -0.023080613 0.005983501 0.013127309 0.046639603
0000c0 35 d2 36 bd 72 bc 1a bd a0 8f 19 3d b0 0c cb bc
       -0.044634063 -0.03777737 0.037490487 -0.024786323
0000d0 cd 3d f1 bb e3 f1 e3 3d 52 92 bd 3d 30 91 06 3d
       -0.0073621036 0.111301206 0.09256424 0.032853305
0000e0 7f ba 1c bd 31 b1 ee 3d b0 16 6e 3c e5 59 a0 3d
       -0.038263794 0.1165489 0.014531776 0.07829646
0000f0 89 8f 70 bd 39 9d a3 3d 7f d6 4c bb b3 f0 33 bd
       -0.058730636 0.07988972 -0.003125578 -0.04393072
000100 42 bb a8 bc f0 5a 9d 3d 08 0c 0a 3d 0a 3d 9e 3d
       -0.020597104 0.076833606 0.03370288 0.07726486
000110 5c 1a f7 bc c1 f1 9b 3d 41 27 97 3d 94 16 9b bc
       -0.030163936 0.0761447 0.07380534 -0.018931665
000120 da 74 aa bc ef ee a1 bd a1 fc 54 bd a6 da 68 bd
       -0.020807672 -0.07906901 -0.05199874 -0.056849144
000130 31 3e 10 3d e0 e9 11 bc 6d 1f c5 ba d4 9d ef 3c
       0.03521556 -0.008905858 -0.0015039273 0.029250063
000140 0e 11 68 3d 1f 89 24 3d 88 1b 8c bc 1b 08 6b 3d
       0.05665689 0.04016983 -0.017102972 0.057380777
000150 75 cb 09 be 77 0d 4b bc 44 56 16 bd 36 0a fa bd
       -0.13456519 -0.012393347 -0.036703363 -0.12208979
000160 ce 16 3c bd 08 47 3e bd b9 3a 1c be 9e 0a 35 bd
       -0.045920186 -0.04645446 -0.15256776 -0.04419958
000170 90 63 dc 3b ed c1 54 bd 49 c0 35 bd 73 21 4d 3c
       0.006725736 -0.051942755 -0.04437283 0.012520182
000180 2d c9 af bd b8 38 0f bd f6 1c ce bd 2d 65 06 be
       -0.08583293 -0.0349662 -0.100641176 -0.13124533
000190 6e f2 b7 bd da 8d da bd 41 23 12 be 32 cd 68 bd
       -0.08981787 -0.10671587 -0.14271261 -0.056836314
0001a0 86 74 05 be a7 df ce bc 55 23 11 bb e7 e4 bd 3d
       -0.13032731 -0.02525313 -0.0022146304 0.09272175
0001b0 07 1a 81 bd af 23 4f bd 32 d7 19 bd 9b ad 14 bc
       -0.063037924 -0.05057114 -0.037558742 -0.009074594
0001c0 6a fb bf ba c8 78 58 bc 5a a2 07 3d b5 04 b8 3d
       -0.0014647071 -0.01321239 0.033113815 0.08985273
0001d0 10 ab 38 3c ee a2 a6 3d f7 c8 59 3d 7a 8e 19 3c
       0.011271253 0.08136545 0.05317017 0.009372348
0001e0 a7 d2 a0 3c 3e ad a4 3d 58 67 ef bc 1c e4 23 bd
       0.019631697 0.08040856 -0.029224083 -0.040012464
0001f0 c7 c7 a6 3d 04 0c 81 3c 42 a1 1f bd 76 67 98 bc
       0.08143573 0.0157528 -0.038972147 -0.018604022
000200 d1 90 69 bd 2a 8c e0 3a 2a a9 a1 3d 26 a9 b7 bd
       -0.057022873 0.0017131616 0.078935936 -0.089678094
000210 f3 41 00 bd 05 46 a1 3d 3e 63 9f 3d 52 b3 ae 3d
       -0.031312894 0.07874683 0.07782601 0.085302964
000220 db 51 aa 3d 21 f9 ad bc 0f 23 8d 3d b4 04 d1 3d
       0.08316394 -0.021236958 0.068914525 0.10205975
000230 54 e2 2f 3d 95 c2 5e 3d d5 7d 34 ba 3f 41 84 3c
       0.042940453 0.054384787 -0.00068852055 0.016144393
000240 40 cc 24 3d 19 3b 8a 3d e1 51 52 3d 9c 8d 8e bc
       0.04023385 0.06749553 0.051347617 -0.017401509
000250 dc 2e 8b 3d 93 56 ee bc 80 45 ad bd bc aa 16 3d
       0.06796047 -0.029094016 -0.08460522 0.03678392
000260 ba 3b 2d 3d 8d 96 72 bd 23 b1 e7 bc ec 0d 74 3d
       0.042293288 -0.059225608 -0.028282708 0.05958359
000270 9e c5 33 3d 38 68 14 3d f1 8e f7 bd f7 fa 2d 3c
       0.043889634 0.036232203 -0.12087811 0.010618917
000280 93 8a f7 bd 12 2f 5a bd 59 47 8b 3d 0a d4 d8 bd
       -0.12086978 -0.053267546 0.06800718 -0.10587318
000290 f1 37 82 bb 7d a7 a9 3b 0c f0 88 bd 12 f9 37 ba
       -0.003973954 0.005177437 -0.0668641 -0.00070180104
0002a0 40 d1 83 bd a4 a2 8c bd 2a 3c c7 3c 39 81 a4 bc
       -0.06436396 -0.06866959 0.02432068 -0.02008115
0002b0 59 65 86 3d 71 10 9c bd ef 8f 13 bd 95 34 a6 3d
       0.06562299 -0.076203234 -0.036025938 0.08115498
0002c0 aa 73 f6 3c 77 6f 10 bd ee d5 a6 3d a8 bd 45 bd
       0.03008445 -0.03526255 0.081462726 -0.048276573
0002d0 b8 e5 5f bd bc b1 03 bd 09 54 de bc 2a ac a2 3d
       -0.054662436 -0.032151923 -0.02713968 0.07942994
0002e0 15 41 9d bc aa 0d 96 3d 8d d4 45 3d ad 58 0a bd
       -0.019196073 0.07326825 0.048298407 -0.033775974
0002f0 48 0a 3c bd 61 d0 7b bd 72 57 86 bb 11 2e aa 3d
       -0.045908242 -0.061478022 -0.0040997798 0.08309568
000300 a9 87 76 3c bd 2a bc 3d f2 b3 94 3d c5 01 7f 3d
       0.015046992 0.09187839 0.07260884 0.062257547
000310 51 db 8c 3d fc 17 91 3c c8 3f 80 bc ba 02 75 3d
       0.06877769 0.017711632 -0.015655413 0.059817053
000320 6f 96 66 3d 57 f3 a2 bc 97 72 cd bb f6 8a 17 3d
       0.05629581 -0.019891424 -0.0062697637 0.036997758
000330 68 d9 70 bc e3 44 2a bd 04 50 d1 3d 79 04 a0 3d
       -0.014700271 -0.0415696 0.1022034 0.07813353
000340 4f 64 19 bd e5 8f b4 3d 16 05 56 bd 82 fa 86 bc
       -0.037449177 0.08816508 -0.052250944 -0.016476873
000350 2a 86 1c 3d d7 9c 77 bc b7 76 e0 bc 7f d1 bf 3b
       0.038213886 -0.015113077 -0.027400358 0.0058538313
000360 8c 47 39 bd 3c c4 62 bd b1 ac 8c 3d 59 4f 04 bd
       -0.045234248 -0.055362925 0.06868876 -0.032302234
000370 16 02 15 bb e1 93 0b 3c 39 c3 15 bd 26 ee 3f bd
       -0.002273684 0.008519144 -0.036563132 -0.046857975
000380 c9 fd 7f bc 19 c7 e7 bb 47 dc 10 bd 21 ab 73 bd
       -0.015624472 -0.007073295 -0.035366323 -0.059489373
000390 c3 29 77 bd 63 fa 7c 3c 1a 74 52 bc 52 b4 fd bc
       -0.06034256 0.015440556 -0.012845064 -0.030969772
0003a0 85 6d 82 bd 57 6d 97 bd 68 8b ca bd c3 9b 90 3d
       -0.063685454 -0.07393902 -0.09889871 0.07060959
0003b0 2b 1c 75 3d 87 d7 be bd ad d0 8d bd f7 8e c0 bc
       0.059841316 -0.09318452 -0.06924567 -0.023505671
0003c0 3e 34 e0 bd e0 5b 30 bd 14 f5 a0 bc 47 c6 18 bd
       -0.109474644 -0.04305637 -0.019648112 -0.037298467
0003d0 26 68 e4 bd bd 80 ca bd 87 44 11 bd e4 2f bc 3c
       -0.11152677 -0.09887836 -0.035465743 0.022972055
0003e0 0f 8d 5b 3c bb 1a ba 3d 98 c4 0c 3d b5 86 8a 3d
       0.01340033 0.0908713 0.034367174 0.067639746
0003f0 9a d9 09 3c 99 4a 08 be 1d 21 11 bd 64 63 82 bd
       0.008413697 -0.13309707 -0.03543197 -0.063666135

fc1.bias f4 [30]
000000 ce 7c 8a be e2 15 37 3d 07 f8 28 3e 5c cd 6a bc
       -0.27048343 0.044698603 0.16500865 -0.014331188
000010 5b 33 57 bc 10 84 91 be 7f 80 86 3d 97 d8 e2 bd
       -0.013134803 -0.28421068 0.065674774 -0.110764675
000020 c7 84 04 3d 57 ac 14 3d 45 a7 73 3d 0d 05 90 bd
       0.03235319 0.03629717 0.059485693 -0.07032213
000030 9d 64 fa bd 34 44 a8 be 7f 93 74 bd f1 34 9b 3d
       -0.12226222 -0.32864535 -0.059710976 0.07578457
000040 72 2c e5 bc 24 2b 49 3e 15 73 26 bd c4 15 a0 bd
       -0.027975295 0.19645363 -0.040637095 -0.078166515
000050 ae c6 4c bc ce d6 89 be 8b 5b c7 bc f9 48 4c 3e
       -0.012498541 -0.26921695 -0.024335643 0.19949712
000060 2c d5 a5 be fd 3f 16 3e 9f 97 6a bd 50 28 9e bc
       -0.323892 0.14672847 -0.057273503 -0.019306332
000070 af 68 38 3d fd 3e 1f be
       0.04502171 -0.15551372

fc2.weight f4 [30, 30]
000000 47 9d 63 3e a0 69 e5 3d 72 b6 8a 3c 06 c4 0d 3e
       0.22227965 0.11201787 0.0169327 0.13844308
000010 5c ef fe 3d 64 06 2e 3e 94 f5 b3 bd 1d 9d 32 3e
       0.12447998 0.16994625 -0.08787075 0.17442746
000020 ed bb 18 3a 9c 51 66 bd ae 21 b2 3c 0d a0 6a bd
       0.0005826343 -0.056230173 0.021744575 -0.057281543
000030 85 85 d6 bd 9b c9 0b 3d 17 1d 00 3e c0 5c 0d 3e
       -0.104746856 0.034127813 0.12511097 0.13804913
000040 af 89 26 3e c4 1e 69 be 90 30 e1 3d 09 15 2b 3e
       0.1626346 -0.22765642 0.10995591 0.16707243
000050 00 3c e0 bd 63 c6 e5 3d d0 eb 06 3e 44 52 c5 bd
       -0.10948944 0.1121948 0.13175893 -0.096348315
000060 fa ac f9 3d 14 db df bd 09 3e 86 bd 2e 49 ef bd
       0.12191196 -0.10930458 -0.06554801 -0.1168388
000070 13 1e 32 be d6 09 23 3d 5d fd d5 bc 03 1f 89 bc
       -0.17394285 0.039804302 -0.02612179 -0.01673842
000080 e6 4b 00 3e 73 ed 1e 3e 69 00 ab bc 22 35 be 3d
       0.12528953 0.15520267 -0.020874219 0.09287478
000090 0a b8 a5 bb 5c 47 15 be 49 56 69 bd c0 0e 0e be
       -0.0050573396 -0.14578003 -0.056967054 -0.13872814
0000a0 3b 0c 1e bd c6 02 29 3e 73 ca c8 bd 8a a5 0a 3c
       -0.038585883 0.16504964 -0.09804239 0.008462319
0000b0 cb 99 f5 3d a7 4c be bd 97 83 46 be bd 7a 68 bd
       0.11992224 -0.09291964 -0.19386135 -0.056757677
0000c0 88 cd ce 3d 72 9a 05 3e 33 51 0c bd c2 de b4 3c
       0.10097796 0.13047197 -0.034257125 0.022078875
0000d0 6e 6c a1 bd 92 f7 f8 ba e6 71 aa 3d 23 4e 8e 3c
       -0.078820094 -0.001899468 0.08322506 0.017371243
0000e0 17 05 f8 3b e6 d6 45 b8 a6 6e a0 bd 3a f4 9c bd
       0.007568966 -4.71686e-05 -0.078336045 -0.0766377
0000f0 9a 18 c5 3b 7f ee df 3d 8d 56 d7 3c 1b cc 11 3e
       0.0060148956 0.109341614 0.026286388 0.14238016
000100 fd 45 ad b9 56 80 32 3e 33 5e 3c 3e 29 04 01 3e
       -0.00033049277 0.17431769 0.18395309 0.12599243
000110 52 34 2a 3e 68 e4 c4 3d b4 8a d5 bd d0 18 e5 3d
       0.16621521 0.096138775 -0.10426846 0.11186373
000120 3c 35 04 be 1b e7 16 3e d0 f7 1d bd 3b 96 b5 bc
       -0.12910932 0.14736597 -0.03856641 -0.022166362
000130 07 18 e2 3d 79 e1 1b 3e b6 76 00 be a7 ef aa bd
       0.11039739 0.1522273 -0.12545285 -0.08346491
000140 84 dc 05 be 8b 9c 92 bd ba 78 c3 bd 65 c3 89 bc
       -0.13072401 -0.071587645 -0.09544511 -0.016816804
000150 78 df c6 3d 03 0c d9 bd db be a6 bc 03 d1 f5 bd
       0.09710592 -0.10597994 -0.020354679 -0.120027564
000160 a0 cb ef bb ea 2e 50 3c bf 38 b9 3d 43 c7 a4 3d
       -0.007317975 0.012706498 0.090440266 0.08045819
000170 88 f7 e6 bc ef d1 d6 3d 41 5c 11 be bd b8 b9 3b
       -0.028194204 0.104892604 -0.14195348 0.0056677745
000180 f5 b7 a1 bd dd 92 ac 3d 92 87 ce bc b7 c2 6c bd
       -0.07896415 0.084264494 -0.02521113 -0.057802882
000190 54 75 9f 3d cd 5b 05 bd 7c 43 10 be 28 27 29 3e
       0.077860504 -0.03255825 -0.14088243 0.16518843
0001a0 ab 74 12 3e d3 2d d5 bd f9 7f 9a bc d5 a0 e2 bd
       0.14302318 -0.10409131 -0.01885985 -0.110658325
0001b0 c1 a6 2e be e3 ad 15 3d 3a 55 82 3a 50 be c6 3c
       -0.17055799 0.036542784 0.0009943612 0.02426067
0001c0 d5 fa 6c 3d 4a 05 11 3e 91 99 65 3e 82 a4 36 3d
       0.0578564 0.14162174 0.22421862 0.04459048
0001d0 0c 38 4b 3e f7 a3 25 be 62 bd f9 3d 5b fd 36 3e
       0.19845599 -0.16175829 0.12194325 0.17870085
0001e0 50 c1 55 3d eb 96 6c 3d da 66 18 3d 7a d6 38 3e
       0.05218631 0.057761114 0.037207462 0.18050566
0001f0 ee 17 3c 3e c5 3c 98 3d fe ee 78 3d fb c1 2e be
       0.18368503 0.07433466 0.060774796 -0.17066185
000200 ba 3f af bd 28 b4 c2 3c 47 31 e7 3d ee 5d fd bd
       -0.08557077 0.023767546 0.11288696 -0.12371431
000210 fe 1a c2 3d 49 a1 a7 3d 62 ef f1 3c f1 f5 fd bd
       0.094778046 0.081850596 0.029533092 -0.12400425
000220 11 78 ee 3d 63 01 1f 3e d0 e4 2c be 55 a6 a5 3b
       0.116439946 0.15527873 -0.1688416 0.0050552287
000230 e0 5b a8 bd 1f 81 91 bd 6d 13 91 bc ad 71 82 3c
       -0.08220649 -0.07104706 -0.017709458 0.015923345
000240 0b 0d 08 3c 3f 7e aa bd 32 e5 12 3e e2 77 be 3d
       0.008303891 -0.08324861 0.14345244 0.093002096
000250 3e a0 bc 3d 70 da 2b 3c 9c b7 c2 bc 74 af 2e be
       0.09210251 0.010489091 -0.023769192 -0.17059118
000260 69 fc 3c be 8a a7 4e bd 28 5c a0 3d e7 34 1e 3e
       -0.18455662 -0.050452746 0.078300774 0.15449868
000270 f9 ad ac 3d 3f 5e f5 3b 5d 8e ba 3d 72 ce 5a bd
       0.0843162 0.0074880417 0.09109185 -0.053419538
000280 a0 41 36 3e 06 98 19 be 3e ca 2f bd 25 a5 c7 3d
       0.17798471 -0.14999399 -0.042917483 0.09748296
000290 83 1d 55 3e 33 4b 42 3d b6 cd 96 bd 25 a9 26 3e
       0.20812039 0.047434997 -0.07363455 0.16275461
0002a0 8c 09 56 3c a5 ad ab 3d 87 07 22 be 18 c8 8e 3e
       0.0130638 0.083827294 -0.15823184 0.27887034
0002b0 a2 d6 53 3e bf bb e7 3d ce 35 7d 3d 2e dc f0 bd
       0.20687345 0.113151066 0.06181889 -0.11760746
0002c0 c4 d6 b4 3d 6a 41 8e bd ec f9 0a be e5 45 bf bc
       0.08830026 -0.069460705 -0.135719 -0.023348758
0002d0 3c 78 2c bd 3d 0a e6 bd b4 7b 1e be 8b eb f4 3d
       -0.042106852 -0.112324215 -0.15476876 0.11958989
0002e0 5d f8 dd bd ab 1e 58 3e a2 6f 26 be 67 92 f6 3d
       -0.10838387 0.21105449 -0.16253522 0.12039643
0002f0 17 0b 04 bd d3 51 0f 3e 8e d0 82 bd 71 28 05 be
       -0.03223714 0.13996057 -0.06387435 -0.13003708
000300 94 09 4c 3d a1 92 25 bc a0 4b 19 3e 6e 8c 25 be
       0.049813822 -0.01010576 0.14970255 -0.16166851
000310 fd 47 bb 3d 50 f3 27 be 55 ae 0b 3d f0 1f 94 3d
       0.0914459 -0.1640141 0.034101803 0.07232654
000320 ff e2 b0 bd 07 bd 1c 3e dc 93 49 be 89 30 9b bd
       -0.08637046 0.15306483 -0.1968531 -0.07577617
000330 67 d9 9b 3d 2f 00 28 be a5 97 9e bd 0e f6 01 3e
       0.076098256 -0.1640632 -0.07743768 0.12691519
000340 1e d5 c1 3c 6f f1 35 bd 0e 45 97 3d e8 64 84 3d
       0.023661193 -0.044419702 0.07386218 0.06464559
000350 c0 52 b9 bc f9 57 31 be fc 86 39 3e 7c 21 dd 3d
       -0.022622466 -0.17318715 0.18117899 0.10797402
000360 d0 6d d6 bd 74 b8 0b be 8c 1d 1b be 0a 08 33 be
       -0.10470164 -0.13644582 -0.1514799 -0.17483535
000370 05 df cd bc 85 32 49 3d 5a ce d9 3d 53 95 81 bc
       -0.025130758 0.049120445 0.106350616 -0.015818274
000380 b8 d5 35 be e1 e4 ce 3d 08 6e 94 bd 25 be a9 bd
       -0.17757308 0.10102249 -0.07247549 -0.0828822
000390 53 ff eb bd f0 a1 75 3c 68 60 65 3d a3 d4 28 be
       -0.115233086 0.014992222 0.056000143 -0.16487364
0003a0 d2 6e 6f bd 7e 39 fa bd 85 99 76 be c0 69 0c 3e
       -0.058455296 -0.12217997 -0.24082 0.13712215
0003b0 83 92 05 be 5c fd 8f 3c 82 3c 45 be bc 3e c4 3a
       -0.13044171 0.017576866 -0.19261363 0.001497231
0003c0 fb 65 1f bd a8 01 8e 3c 5f 36 0e 3e e3 db 17 be
       -0.038915616 0.017334774 0.13887928 -0.14829974
0003d0 02 6a 4a 3d 67 5a a3 bc 90 31 8e bd 92 83 03 bd
       0.049417503 -0.019940568 -0.06943047 -0.032107897
0003e0 61 af e2 3d 72 2a de bd c5 07 88 bd f8 d5 1d 3e
       0.11068607 -0.108479396 -0.06642107 0.15413654
0003f0 e4 2b 54 3c 9a 3e 72 be 10 e4 62 be f9 50 3f 3e
       0.012949917 -0.23656693 -0.22157311 0.18683232

fc2.bias f4 [30]
000000 ca d1 0f be 5c a3 af bd d3 01 61 bb 9f c8 fb 3d
       -0.14044872 -0.0857608 -0.0034333363 0.12294125
000010 2b c3 2b 3e 9c cb 1f be 84 41 2b be 20 a8 b0 3c
       0.1677367 -0.15605015 -0.16724211 0.021564543
000020 e6 24 b7 3d d9 2a a5 3d ca 81 0b 3e 2a b9 1e be
       0.08942585 0.08064813 0.1362373 -0.15500322
000030 66 8c 2d be 99 d5 38 bd 38 6c 82 bd 13 46 21 be
       -0.16948089 -0.045125578 -0.06368297 -0.15749387
000040 ee 07 a6 3d b3 a3 3b 3e a7 0c 8c 3d 93 ba a2 bd
       0.08106981 0.18324165 0.06838351 -0.079457425
000050 08 a2 02 be 79 74 06 be 0c 8d 06 be b2 3e 51 ba
       -0.12757123 -0.13130368 -0.13139743 -0.00079820596
000060 ee 31 30 3d 35 4f 3f 3e 39 83 f4 3d cd ad 0d bd
       0.043016367 0.18682559 0.11939091 -0.034589577
000070 86 f1 10 3e 9f 1f a8 3d
       0.14154634 0.08209156

fc3.weight f4 [2, 30]
000000 51 08 d4 be 8c d3 54 3d 1e 6f 0f be 22 94 c8 be
       -0.41412595 0.05195956 -0.14007232 -0.39175516
000010 38 b7 22 bd f8 06 e0 be 64 bc 8e be ec 2a 96 3e
       -0.039725512 -0.43755317 -0.27878106 0.29329622
000020 24 bf f3 3e 40 01 01 be 94 7c dd 3e 60 08 97 be
       0.47606766 -0.12598133 0.43259108 -0.29498577
000030 72 cc 27 be b6 55 8c bd 5e 35 0b 3f c8 1f 94 3e
       -0.16386583 -0.068522856 0.54378307 0.28930497
000040 18 ec 07 3f 49 f2 3b 3f b0 20 29 be c6 d5 a4 3d
       0.53094625 0.7341657 -0.16516376 0.080485865
000050 a5 7b a9 3e 59 29 b9 be a2 e3 a4 be 66 7a 94 be
       0.33102146 -0.36164358 -0.3220492 -0.28999633
000060 c5 3e e5 3e 5e a5 16 3f d5 0b f0 be ae 8b d0 be
       0.44774452 0.5884608 -0.46884027 -0.40731567
000070 53 c6 b9 be a5 4c f0 be 87 04 31 3e da ad 4b 3d
       -0.36284122 -0.46933475 0.17286883 0.049726345
000080 47 4d 8e 3e 8e 48 24 3e 64 74 b4 3e ba 2c 25 3e
       0.27793333 0.16043302 0.3524505 0.16130343
000090 ab c5 f5 bc 4d 05 29 3e a3 fc 14 3e 2c e8 0b bd
       -0.030001482 0.16505928 0.14549498 -0.034156963
0000a0 cf d8 8e 3d c9 a5 2d 3e 8a db 75 3e ee f9 41 3e
       0.06974947 0.16957773 0.24009529 0.18942997
0000b0 33 bc b7 bc 39 11 f8 3c 08 4d 37 3e 6b d5 a3 3d
       -0.022428608 0.03028165 0.17900479 0.079996906
0000c0 2c 7e 29 3e 76 54 9e 3e cc 5b 83 3e e7 ac fa 3d
       0.16552037 0.30923814 0.25655973 0.1224001
0000d0 0e 10 8d 3e a9 24 0f 3d 8f 9e ec 3d ef 83 b5 3e
       0.2755131 0.03494707 0.1155368 0.3545222
0000e0 24 ad b2 3d 81 46 26 3e 69 14 09 3e 95 ed 3c bd
       0.0872443 0.16237833 0.13386692 -0.046125013

fc3.bias f4 [2]
000000 13 bf 52 3e ed e0 9b 3e
       0.20580702 0.30445042
