PyTorch/lightning_logs/version_13/checkpoints/epoch=99-step=11900.ckpt (torch, 19995 bytes, 4 tensors)

fcIn.weight f4 [30, 126]
000000 44 3f c5 bc 71 38 29 bd 63 e0 ae 3c 22 b5 99 bc
       -0.024078019 -0.041313592 0.02134723 -0.018763129
000010 28 13 87 bc 7b b5 c9 3d b3 25 6a 3d 76 31 13 bd
       -0.016488627 0.09849068 0.05716486 -0.03593584
000020 2f da bb 3c 4f d8 a0 3d 1a 0e be 3d 3c 08 72 bd
       0.022931186 0.078537576 0.092800334 -0.059089884
000030 6e 65 71 bd 0f ce 5b 3d c8 5a c9 3d 3a fb d0 3b
       -0.05893462 0.05366331 0.09831768 0.006377605
000040 b3 04 0b bd ac b0 d5 3d 4d 4f 76 3d 7e 80 21 bd
       -0.03394003 0.10434088 0.06013422 -0.03942918
000050 7d 41 1f 3b 17 3d 30 3d 3b 2d 4f 3d bc 98 99 bd
       0.0024300509 0.04302701 0.050580245 -0.07499835
000060 de 80 35 3d c1 ed ad bd 92 0c 9c 3d 4d 7f 99 3d
       0.04431235 -0.084926136 0.07619585 0.07494984
000070 81 20 83 3d 96 02 d2 3b 2b d4 1f 3d 2d 1e ab 3c
       0.06402684 0.0064089997 0.0390207 0.020888412
000080 8e 33 5c bd c5 15 08 bd 04 27 6c 3d 3b cc 0b 3d
       -0.053760104 -0.033223886 0.057654396 0.034130316
000090 60 cf 47 3c 3b e1 0b 3d a7 4e 13 bc 7f 6e a9 3d
       0.012195438 0.034150343 -0.00899092 0.082730286
0000a0 d3 fb 38 bc bb ed 85 bd 16 d1 88 bd dd dd ae 3d
       -0.011290508 -0.06539484 -0.06680505 0.08538411
0000b0 d4 61 75 3d b8 69 88 3d da e8 9f bd 0d e5 70 bd
       0.05990775 0.06660789 -0.07808085 -0.05881219
0000c0 73 d6 35 bd 29 80 6a 3c 01 80 a7 3d 5c ad 8d 3d
       -0.044393968 0.014312782 0.08178712 0.06917831
0000d0 e8 c5 70 bd 95 85 92 bd df 54 a6 bd 3c 9e a1 3c
       -0.058782488 -0.07154385 -0.081216566 0.019728772
0000e0 cf b2 2e 3d 11 53 9d 3b 18 16 b4 3d 05 1c 05 bd
       0.042650994 0.004801162 0.087932765 -0.032497425
0000f0 f5 a2 18 bd 11 54 20 3c 45 1a 9a 3c a4 35 12 3c
       -0.037264783 0.009785668 0.018811354 0.008923922
000100 26 d8 8d bb c4 dc 22 bc 31 9f ae bd 43 33 88 3d
       -0.0043287454 -0.00994033 -0.08526457 0.066504024
000110 1a ec 75 3c 6b 35 32 bd 96 b4 90 bd 96 d3 e4 3c
       0.015009904 -0.043507975 -0.07065694 0.027932923
000120 50 9b 81 bb 66 23 8c 3d 82 10 12 bd 88 0f b4 bc
       -0.0039552823 0.06842689 -0.035660274 -0.021980062
000130 7f f8 a4 3c c1 d3 7b 3d 3c 99 7c 3d 29 2a 57 3d
       0.020138023 0.06148124 0.061669573 0.05253044
000140 76 3c 19 3d bc 8f 2b bc f9 9b 49 bc 13 8c f5 bc
       0.037411176 -0.010471281 -0.012305253 -0.02997402
000150 ac b3 42 3c 18 ad 5e bd d3 1f 46 bd 6f b9 a4 bd
       0.011883657 -0.054364294 -0.048370194 -0.08043181
000160 a8 46 9b bd 01 9d 93 bc b9 83 55 3d cd 04 eb 3c
       -0.07581836 -0.018019201 0.052127574 0.028688813
000170 e1 fb db 3a 2d 51 7d bd 08 1f 69 bd ce f9 8d 3d
       0.001678344 -0.061844993 -0.05691436 0.06932412
000180 3e c9 a2 bd 8d 2a 30 3c e2 1c 15 3c 2a e1 1e bd
       -0.0794854 0.010752332 0.0091011245 -0.038788952
000190 18 7c a6 bd 24 28 e7 bc 8e 00 2a bd 29 ac 86 3d
       -0.08129138 -0.028217383 -0.041504435 0.06575806
0001a0 32 47 35 3d 62 3d 7a 3c 02 2e 1b bc 98 79 70 3d
       0.04425735 0.015273424 -0.009471418 0.05870971
0001b0 de 4b 9c bd be 84 69 bd 52 b1 1f bc 81 c5 49 bd
       -0.07631658 -0.05701136 -0.009746866 -0.04926062
0001c0 64 5d 4a 3b ed e8 ef bc 23 18 d9 bc d9 86 a8 3c
       0.003087842 -0.029285872 -0.026500767 0.020572113
0001d0 db f7 93 bd b0 40 7e 3c db 98 48 bd d8 d5 52 bc
       -0.07225009 0.015518352 -0.0489739 -0.012868367
0001e0 ab cf 66 3c 66 74 db 3c 80 5f 3e 3d 70 b7 bd 3c
       0.014087598 0.026788902 0.046477795 0.023158759
0001f0 61 b5 74 bd ea e8 18 3c 12 e6 89 bd 92 52 73 3c
       -0.05974329 0.009332875 -0.067333356 0.014851229
000200 5e 9c 12 3d b4 ee 12 bb 9e 5e 3e 3d 89 25 63 bd
       0.035793655 -0.002242011 0.046476953 -0.05545572
000210 f2 eb 83 bd c3 7b 95 bd 1a 82 89 b9 90 72 8c bd
       -0.06441487 -0.07298996 -0.0002622761 -0.068577886
000220 0a 0d 95 3d a7 1f b1 3b e2 48 3b 3d c8 11 3b 3d
       0.07277878 0.0054053846 0.045723803 0.045671254
000230 38 fb 9b 3d 78 cf 26 3c 67 f2 9c bc 82 63 82 3d
       0.076162755 0.0101813 -0.019158555 0.06366636
000240 04 9d 42 bd 4a b9 8b 3d 49 a1 9e bd 32 91 48 3d
       -0.047513023 0.068224505 -0.077456065 0.048966594
000250 ea 46 34 3c 98 9b cc 3c 1c 70 99 3c e2 82 71 bd
       0.011003235 0.024976537 0.018730216 -0.05896271
000260 11 ff 5c 3d 1b 99 b8 bc c2 18 7e bd da f0 30 bc
       0.053954188 -0.022533944 -0.06203533 -0.010799611
000270 00 5e 97 bd f8 9b c4 bd 69 b3 fb 3c 0a e6 1a 3d
       -0.07390976 -0.09600061 0.030725198 0.03781704
000280 f8 94 c7 bd af 70 92 bd b6 fb f3 3a b1 d1 55 3c
       -0.097452104 -0.07150399 0.0018614444 0.013050483
000290 02 65 7e bd 4f b0 5c bc e5 aa af 3d 09 85 86 bd
       -0.062108047 -0.01346977 0.085775174 -0.06568343
0002a0 92 40 e6 bc 25 78 04 bd 0c 7f 1f bc 63 63 89 bd
       -0.028106961 -0.03234114 -0.00973488 -0.0670841
0002b0 65 12 56 3d 97 ad 81 3a 63 ec 31 bd 00 56 8c bd
       0.052263636 0.0009893653 -0.043438327 -0.06852341
0002c0 0f 4a 99 3d 43 ea 0a 3d 3a 61 50 bc 09 6d 84 3d
       0.07484829 0.033914816 -0.012718493 0.06466109
0002d0 3c 9f 84 3c a0 e2 7c 3d e4 1b 7d 3c d0 f4 8c 3c
       0.01618921 0.061739564 0.015448544 0.01720658
0002e0 16 8f 1f 3c 6c 48 86 bd 12 82 67 3d 4f 60 cd bc
       0.009738704 -0.06556782 0.05652053 -0.025070338
0002f0 b2 fd 55 3d 75 fc 4e 3d 83 69 55 bd 17 f9 eb bb
       0.052243896 0.05053373 -0.052102577 -0.0072013247
000300 e1 b8 bb bd 4f 02 51 3d a8 d4 00 3d 19 eb 1e 3d
       -0.09166122 0.051027592 0.031452805 0.038798425
000310 d7 05 38 bd 66 fe 23 bd 89 e2 7f 3d f8 d3 9e 3d
       -0.044927444 -0.040037535 0.0624719 0.077552736
000320 12 94 93 3d 88 17 16 bd 56 95 04 bd 1e 96 b0 3c
       0.072059765 -0.036643535 -0.03236898 0.021555956
000330 48 41 2c bd 76 a5 7c bd 81 ab 04 3d 93 3f 02 bd
       -0.042054445 -0.061681233 0.03239012 -0.03179891
000340 46 92 93 bc 18 42 42 bd 73 df 12 3d 16 64 c4 bc
       -0.018014085 -0.047426313 0.03585763 -0.023973506
000350 34 e6 a1 bd 24 07 ce bc 98 5b 94 bd eb d6 89 bd
       -0.07905236 -0.02514989 -0.072440326 -0.067304455
000360 97 85 75 3d 98 4e 57 bd 99 50 19 bb 1e 98 00 3d
       0.059941854 -0.052565187 -0.0023393987 0.03139507
000370 d9 c2 f9 bc 07 7d bf bb 9c 17 82 3c ea 25 bb bc
       -0.030488418 -0.005843762 0.015880398 -0.022845227
000380 2c d8 99 bd 68 f2 9a bd 04 5e 17 3d b0 03 cb bc
       -0.07511935 -0.075657666 0.036954895 -0.024782032
000390 82 d6 45 bd 03 93 5e bd 91 86 ca 3b 13 55 ad 3d
       -0.048300274 -0.05433942 0.0061805923 0.08463492
0003a0 6b db 33 3d 40 55 7f 3d cc 98 99 bd e0 ab 77 bc
       0.043910425 0.06233716 -0.07499847 -0.015116662
0003b0 98 f4 72 3a aa c4 e4 3c 13 3a b3 bd db 3a a0 bd
       0.00092680147 0.027925808 -0.08751311 -0.07823726
0003c0 1d ee bf 3c 20 06 56 bd fd 42 b3 3d 70 43 0d bd
       0.023428971 -0.052251935 0.087530114 -0.03448814
0003d0 54 09 8a bd 85 68 22 bd 38 7e 0a bd 11 76 b8 bc
       -0.067400604 -0.03965046 -0.033811778 -0.022517236
0003e0 77 23 85 3c 0a 10 43 bd 16 8c af 3d 47 e5 9f 3d
       0.016252263 -0.047622718 0.08571641 0.07807403
0003f0 e3 bd 3d bd b8 f9 c6 3b 36 92 86 3d 63 c2 57 3d
       -0.04632367 0.0060722493 0.06570856 0.052675616

fcIn.bias f4 [30]
000000 f2 9c 79 3d 3f a1 d1 bd 1d d8 df bc a9 83 e7 3d
       0.06094069 -0.102358334 -0.02732473 0.11304409
000010 df dd 69 bc d8 9f 81 bd 27 f0 5f 3e fb 93 72 bc
       -0.01427409 -0.06329316 0.21868955 -0.014805789
000020 77 d1 b8 3c e9 ee a4 be a3 cb d0 3c 52 98 54 3d
       0.022560818 -0.32213524 0.025487727 0.051903076
000030 95 9a 7f bd 46 65 44 3e 17 75 98 3e ed 40 87 3d
       -0.06240328 0.19179258 0.29776832 0.066041805
000040 93 f1 0f be 09 5f 1c bd 4c 55 a3 bd de 0b 40 3e
       -0.14056997 -0.03817657 -0.079752535 0.18754527
000050 07 7e c1 bd 6f bf 94 3c c3 9a 35 be ca 2b b2 3d
       -0.09447866 0.018157689 -0.17734818 0.08699758
000060 b6 56 75 bd af 9b f0 3d 80 94 e0 3d bd 47 90 3d
       -0.059897147 0.11748444 0.10965824 0.07044933
000070 69 fa a7 bd 00 20 0e bd
       -0.08202059 -0.034698486

fcOut.weight f4 [2, 30]
000000 c7 fe 0e be 13 1e a8 3d 02 3e 53 be dd 3a f6 bd
       -0.13964377 0.08208861 -0.20629123 -0.12022946
000010 a7 9b 9f be cf 7b 39 be 0c 3e 72 be b8 54 48 be
       -0.3117344 -0.18113635 -0.23656482 -0.19563568
000020 ec 10 99 be e9 2f ac 3d 95 c7 c3 3e d2 03 54 bf
       -0.29895723 0.08407576 0.38238207 -0.8281833
000030 a1 c0 aa be c2 cd 55 bf c8 47 8c be 06 81 5c be
       -0.3335009 -0.83517087 -0.27398515 -0.21533594
000040 59 94 6d 3a cc ab 37 be f8 72 95 3d 5b 11 23 3e
       0.0009062938 -0.17936629 0.07297319 0.1592459
000050 4c be 64 3f 4f 9c ce bd cc c8 ed ba 32 22 d8 3d
       0.8935287 -0.10088407 -0.0018141507 0.10553397
000060 a5 d4 16 bd 90 7e 59 be cc be 47 be ff 42 9c be
       -0.036823887 -0.21239686 -0.19506377 -0.30519864
000070 82 18 88 3d 74 a9 fb be 6a 0c 3b 3e a4 c3 62 bd
       0.066452995 -0.4915272 0.18266454 -0.05536236
000080 4e 1c 27 3e 7e a7 1f 3e 8f 5e 5a 3e 02 1c b6 be
       0.16319391 0.15591237 0.21325134 -0.35568243
000090 cb a9 67 3d 81 46 d5 bd c8 a0 1f 3f 30 b6 85 3c
       0.05655841 -0.10413838 0.6235471 0.016322225
0000a0 e6 23 23 bd d5 28 dc 3d 06 2c 45 b9 03 83 0c bd
       -0.039829157 0.107499756 -0.00018803784 -0.03430463
0000b0 ec 9f 0b be 62 cc 8e be fa 08 04 3e c8 79 23 3e
       -0.13635224 -0.27890307 0.1289405 0.15964425
0000c0 fd b6 4b be 14 50 22 be 0c 5c fc 3e bf 48 81 3e
       -0.19894023 -0.1585086 0.49288976 0.25250813
0000d0 61 71 2a be 6d 9a 4f be fb 31 02 be fc ed 39 3d
       -0.16644813 -0.20273753 -0.12714379 0.045392975
0000e0 be f3 5b 3e 7d 7b 0a 3e 94 b0 e9 3d d4 f9 44 bd
       0.21479699 0.1352367 0.11410633 -0.048089817

fcOut.bias f4 [2]
000000 9e e1 62 3e b5 aa a4 3f
       0.22156379 1.2864596
