PyTorch/lightning_logs/version_5/checkpoints/epoch=99-step=11900.ckpt (torch, 19995 bytes, 4 tensors)

fcIn.weight f4 [30, 126]
00000000: 222a 723d d4ca bfbd 06d3 d03c 5015 38bd
00000010: fc09 5fbc 7dc5 443d ce2f a4bd a38c b9bd
00000020: c167 ebbc 7e4d dbbd e8de 99bc 1c4d 0dbc
00000030: 206c 93bd a125 013b 558d 733d f369 4fbd
00000040: 9085 23bd 4a3f 173d a070 1c3d ed5c ce3b
00000050: d3bd 6fbb aff5 093c 1ce0 b43c 7d5d fbbc
00000060: 8f2c 62bc f706 f7bc 3a9a 243c 14b4 343d
00000070: 6d1b 973d bba6 193d bf36 0cbd 4570 843b
00000080: c907 c33d cea0 173e cbb1 b13c 0c51 cc3d
00000090: f303 0abc e775 e7bc f443 853d c760 7b3d
000000a0: 445f f7bc 0586 83bd 4ffd c1bc 812e 1bbd
000000b0: 2fab b43c b763 6a3b eebd 3d3d 16c1 a03d
000000c0: bfa4 c63d eb4b 5f3d a041 803d 0ad2 9c3d
000000d0: 1bf2 c43c 126f 24bd 0626 e23c 7142 90bb
000000e0: bab5 743d 1803 993d 4e10 e4bc 77ef 8a3c
000000f0: 96d1 27bd 35c7 853d 1de3 313d b02e 733d
00000100: 1d41 783d 7303 d13d b8e6 e43d c661 67bd
00000110: 019c 333d 115d 243d 5777 363d 74ad 45bd
00000120: 9ddb d33d 6601 9f3d c437 c43c e935 6cbd
00000130: 5fa5 45bd 25ed f9bc d111 a5bc f1a1 38bd
00000140: d109 db3d 153d 1cbd 76e1 853d 302c e93b
00000150: 0cb8 013c 88e9 4abd ef88 c3bc b17f 363c
00000160: 53d0 c43b 492a 5b3d 4808 acbd 8d1d cdbc
00000170: defd 4d3d 7d70 96bc ca31 77bc b95a 9fbd
00000180: 4e5c 5ebc 608f a7bd 0213 4fbd 197b 993d
00000190: f659 99bd 5f2e ffbc 7b66 593d e3d4 483d
000001a0: be1e f5bc 69b0 9dbc c395 1bbc bc09 a3bd
000001b0: ae28 a6bd fc5a a7bb 4f31 31bd 49d3 9a3b
000001c0: 497a 7c3d 994f 623d d3ec f53c a83d 1abd
000001d0: cf67 9bbc a793 65bd a17e 483d fd8d 9fbd
000001e0: 5f6c b23d 90f0 73bc 05c4 113c 775c 91bc
000001f0: fcab db3c 7325 a2bd cc96 b63d 398b b53c
00000200: 486a 993c 3d3e b93c f942 d83d 38ef 6ebd
00000210: 2d8b 06bc c12c 833d af75 aebc 5e7a 6cbd
00000220: 2391 52bd 6b10 d9bc 190d b33d 9500 ef3d
00000230: a84c 663d 81d6 e03d 4393 033d 1eef 513d
00000240: 9ff4 ea3d f888 823d a546 2e3d 5212 cf3a
00000250: f2fb 17bd 0e4a b2bd 9735 603d 26ab 643d
00000260: ca38 93bc dece 893d 8b48 a13c c354 113c
00000270: 5479 013d c15e 88bd f58c b03d cacf 42bd
00000280: 6f0b 2abd fec3 e4bc b1b5 cebd 47f5 a6bd
00000290: a6c1 a33d 1005 67bd f5dc c93b 91a1 013d
000002a0: 4865 b63d 7eb0 c13d 8c4d 443d fd13 d63d
000002b0: dd92 12bd 70d4 153c 9b38 a53d a5e7 0c3c
000002c0: df56 893d fcc1 ab3d 29ff debc 9cce 4d3c
000002d0: 3c13 853d f420 f5bc 3e96 193d c509 343d
000002e0: 8f44 263c 25b8 af3d 19ad 0d3e 91ad 063e
000002f0: bc0c 1fbd 008e e6bc 6d54 9f3c 13fd 443d
00000300: 5bc6 de3d 670b 47bd 49bf fb3c eaed 71bd
00000310: 16b5 e93d 69b0 e33b 2953 323d 6325 0ebd
00000320: a486 9b3d a9a6 8f3c 6bd1 d53d e636 e53d
00000330: d8ed c2bb ec65 363d e0fb d5bc 958e c33d
00000340: 2b52 003d 5587 0b3e ccf8 afbd 2390 95bd
00000350: 2678 8bbd c831 c3bb 4fc5 a0bd 3c76 a4bd
00000360: 724d 13be 309d 12be 9cc6 33be 41db b4bc
00000370: 2438 8dbd 4120 40be b963 0cbd 29c7 0cbe
00000380: 7ae1 55bd 7579 06be 102e b3bd f8fb 32be
00000390: 0402 15be f340 99bd 0faa eebd 5e81 9dbd
000003a0: 3ff6 69bd e8ef 903c 9c8a b03c 1500 6e3c
000003b0: 2d3f a03d dee6 3a3d 2292 943c 52f4 313d
000003c0: c9ab 123d 21ba 353d ae71 80bc 5b4f a93d
000003d0: 4483 e4bc cf82 3c3c f566 7bba f598 93bd
000003e0: 03a5 aa3d fbdf 36bc 5b35 aa3d da58 923d
000003f0: 55ff 2fbd c973 fabc b579 8ebd 6608 08bd
0.059122212 -0.09364858 0.025491249 -0.0449422 -0.01361322 0.048039902 -0.080169305 -0.090600275
-0.028735997 -0.1070814 -0.018783048 -0.008624341 -0.071983576 0.0019706266 0.059460957 -0.05063815
-0.039922297 0.03692559 0.038193345 0.0062976987 -0.003658165 0.008420392 0.02207952 -0.030684227
-0.013804569 -0.030154688 0.010046536 0.04411705 0.07378278 0.037512522 -0.034231897 0.004041704
0.09522969 0.14807436 0.021691224 0.09976396 -0.008423793 -0.028254462 0.06507102 0.06137159
-0.030196793 -0.064220466 -0.023680357 -0.037886146 0.022054283 0.0035765 0.04632371 0.07849328
0.096993916 0.05451576 0.06262517 0.07657249 0.024041226 -0.040144987 0.027606022 -0.0044024517
0.05974362 0.07471293 -0.027839806 0.016959889 -0.04097136 0.06532136 0.043429483 0.059370697
0.060608972 0.10205736 0.111768186 -0.05648973 0.04384995 0.040127818 0.044547405 -0.04826112
0.10344622 0.077639386 0.023952372 -0.0576686 -0.048253413 -0.030508587 -0.020150097 -0.045076314
0.10695232 -0.03814419 0.06537144 0.0071158633 0.007917415 -0.04953912 -0.023869006 0.011138842
0.0060062795 0.053507123 -0.08400017 -0.025038505 0.050290935 -0.018364185 -0.015087554 -0.07780976
-0.013571812 -0.081816435 -0.050555237 0.07494182 -0.07487862 -0.031150041 0.05307625 0.04903115
-0.029921886 -0.019249158 -0.009496155 -0.07960841 -0.08113228 -0.0051072817 -0.043259915 0.004724894
0.061640058 0.05525169 0.030020153 -0.037656456 -0.018970398 -0.056049015 0.048948888 -0.07790754
0.087120764 -0.014888898 0.008896832 -0.017744286 0.026815407 -0.07917299 0.08915481 0.022161113
0.018727437 0.022612685 0.10559649 -0.058333606 -0.008211893 0.064050205 -0.02129635 -0.057733886
-0.051407944 -0.026497087 0.087427326 0.11670033 0.05622545 0.109784134 0.03212286 0.05125343
0.11472439 0.06373781 0.04254784 0.0015798307 -0.03710551 -0.08705531 0.054738607 0.055827282
-0.017971415 0.0672891 0.019687911 0.008870306 0.03160985 -0.06658698 0.086206354 -0.047561444
-0.04151481 -0.027925488 -0.10093249 -0.08152252 0.0799592 -0.056401312 0.0061603733 0.031648222
0.089060366 0.09457491 0.047925517 0.10453031 -0.03578459 0.009144887 0.08067437 0.00860015
0.067060225 0.08386609 -0.02722128 0.012561467 0.06497809 -0.02992294 0.037496798 0.04395463
0.010148182 0.08580045 0.13835563 0.13152148 -0.038830504 -0.028143883 0.019449437 0.048092913
0.10877677 -0.04859486 0.03073086 -0.059064783 0.114114925 0.00694852 0.04353634 -0.034703624
0.0759404 0.017535524 0.10440334 0.11192112 -0.0059487633 0.044530794 -0.02612108 0.0954868
0.03132836 0.13625844 -0.08592376 -0.073028825 -0.06810026 -0.005956862 -0.07850134 -0.08030364
-0.14385012 -0.14317775 -0.17556232 -0.022077205 -0.068954736 -0.18762304 -0.03427479 -0.13747849
-0.052216984 -0.1313227 -0.0874902 -0.17478931 -0.1455155 -0.07483091 -0.1165353 -0.076906905
-0.057119604 0.017692521 0.02155047 0.014526387 0.0782455 0.04563033 0.018136088 0.043445893
0.03580836 0.04436696 -0.015679207 0.08267089 -0.027894624 0.011505797 -0.0009590232 -0.072069086
0.08332255 -0.0111618 0.08310958 0.07145853 -0.042968113 -0.030572789 -0.069568075 -0.033211134

fcIn.bias f4 [30]
00000000: 4a90 fabc c1c1 18be 9b0c 223b 0c36 933c
00000010: 0558 d13b 8464 643d e7d0 363d 5744 5abd
00000020: 8e72 3e3e 8724 91be 917e 323e ff05 85be
00000030: 9acd 4abd 4653 9c3d c9b5 903d 5dac cbbc
00000040: dc8a 29bc 0506 9f3e c06b a63d 0ade e1bd
00000050: 29cc 0f3e 0798 20bd cff8 d3bb 3c2c e03c
00000060: a6f7 073d 43d7 95bd f8c6 80bc 7404 a2bd
00000070: 2e62 803d 374e 9bbd
-0.03058638 -0.14917661 0.0024726752 0.017970107 0.0063886666 0.05575992 0.04463282 -0.05328783
0.18598387 -0.2834818 0.17431094 -0.25981137 -0.049512483 0.07633071 0.07065923 -0.024862463
-0.010348048 0.3105928 0.081260204 -0.11028679 0.14042725 -0.039207485 -0.0064688693 0.027364843
0.03319516 -0.073164485 -0.015719876 -0.079110056 0.06268726 -0.07583278

fcOut.weight f4 [2, 30]
00000000: 5ca8 a53e 6bd0 f5bd 2558 1c3f 062a f7bd
00000010: 6ba3 8a3d bbfa a9bc de25 b9be 6dd2 29bf
00000020: 78a9 5ebe fe79 0dbe 6f55 a0bd 0638 16bf
00000030: b3be 14be aba8 673f 3608 29bf 4ed3 94be
00000040: 8a88 44be f047 df3d d24f d93e 348d c2bc
00000050: db3a dbbe 0e1a 953d 36c9 763e fa10 62bd
00000060: 7cfc 02be 319b d6be 72d5 d0bd 4e2b a93e
00000070: 9987 61be b076 22be bc90 7a3c ce4c 0c3f
00000080: 66ac 203d e8a0 dcbd 2540 5cbe fb20 3a3e
00000090: 99dd 813e 5304 943d 3df1 4b3e 30fa da3e
000000a0: 0f42 5cbe 5dd9 9c3e d0be 2ebe 3ed8 003f
000000b0: d308 81be 50c4 803e 0cca 40be f080 d63b
000000c0: 9c51 5b3e ba67 073d 4767 11be e256 833d
000000d0: 1671 cbbd 9f1e 473e e282 533d c5b9 ef3d
000000e0: a592 bd3d 1c9a ecbd b31d ed3c 1973 55bd
0.3235501 -0.12002643 0.61072 -0.12068562 0.06769451 -0.02074944 -0.36161703 -0.6633671
-0.21744335 -0.13816068 -0.07828795 -0.58679235 -0.14525871 0.9049174 -0.66028154 -0.29067463
-0.1919271 0.10902393 0.4244371 -0.023748972 -0.4281834 0.0728036 0.24100193 -0.05519197
-0.12791628 -0.41915277 -0.101969615 0.3304085 -0.22024383 -0.15865588 0.015293296 0.54804695
0.039226912 -0.10772878 -0.21508844 0.18176644 0.25364378 0.07227387 0.19916244 0.42769003
-0.21509574 0.30634585 -0.17064977 0.5032996 -0.25202045 0.25149775 -0.18827075 0.0065461323
0.2141785 0.033057906 -0.14199553 0.06413056 -0.09933679 0.19445275 0.05163849 0.117053546
0.09256486 -0.115528315 0.028944826 -0.05211172

fcOut.bias f4 [2]
00000000: 77eb c43e 800b 6d3f
0.38460895 0.9259567
