PyTorch/lightning_logs/version_5/checkpoints/epoch=99-step=11900.ckpt (torch, 19995 bytes, 4 tensors)

fcIn.weight f4 [30, 126]
000000 46 70 da 3b 64 c0 19 bb e0 8c 0b 3c 66 d7 7f bd
       0.006666216 -0.002346062 0.008517474 -0.06246128
000010 38 d8 a5 3d 93 4d ae bd 5c ab 8b 3d 37 7a 08 3d
       0.08097881 -0.0851089 0.068197936 0.03331968
000020 d9 8b 51 3d 76 3f b2 3c b6 a6 b1 bd 86 ed c5 bc
       0.05115876 0.021758776 -0.08674376 -0.024161112
000030 c5 0b 65 bd 03 db ba bd 49 bf 3e 3d c9 69 8f bd
       -0.055919427 -0.091238044 0.046569142 -0.07002599
000040 05 29 3d 3a 72 f6 9b bd 1b 99 e4 bb 15 98 d9 3c
       0.000721589 -0.07615365 -0.0069762594 0.026561776
000050 67 f5 c2 bd 58 8e 1b bd c6 08 83 bd 71 bb 87 bd
       -0.09519463 -0.037977546 -0.06398158 -0.066275485
000060 35 df 80 bd f2 59 0b bc 88 72 bb bd 37 e2 70 bd
       -0.06292573 -0.008505331 -0.091527045 -0.058809485
000070 3e 28 30 3d 6d de 79 3d 11 a1 3a bc 91 11 aa 3b
       0.043007128 0.061003137 -0.01139094 0.0051900824
000080 51 67 a5 bd 01 88 13 3c 7e ba 96 bc 63 e1 d9 bd
       -0.08076347 0.009004594 -0.018399473 -0.10638692
000090 47 9a 90 bd 7b a3 9a bc e4 e5 cc bc f8 57 ed 3c
       -0.07060676 -0.018876782 -0.025011964 0.02897261
0000a0 6d 09 44 bc 3c df 5e bd 57 bb 12 be 46 37 85 bc
       -0.011965138 -0.05441211 -0.14329277 -0.016261708
0000b0 21 43 cf bd 2b e1 de bd 1f 63 75 bc 26 76 90 bd
       -0.10120226 -0.10882791 -0.014977246 -0.07053785
0000c0 59 c3 86 bc 49 fe bb bd 3a 7f 2c be 9b b3 ee bd
       -0.01645057 -0.091793604 -0.16845408 -0.11655351
0000d0 ca d7 21 be e4 64 fb bd e8 c2 5c 3c 4b 78 0b be
       -0.15804973 -0.12275103 0.013474204 -0.13620107
0000e0 3e 4a d6 bd f5 ac 80 bd af 2d a8 bd e1 ca af bd
       -0.10463379 -0.06282989 -0.082118385 -0.08583618
0000f0 c4 5f bd bd b0 b5 9e bd a7 7c 8c 3b 1e 35 f9 bd
       -0.092467815 -0.07749498 0.0042873207 -0.121683344
000100 49 88 16 be 02 cd 02 be 16 d9 a3 bd 7c 1d 3b bd
       -0.14700426 -0.12773517 -0.0800039 -0.045682415
000110 59 d5 04 be 49 dc 1e be b7 d4 48 bd d4 56 17 be
       -0.1297201 -0.1551372 -0.049030986 -0.14779216
000120 5e c1 0c bd 1a 8e 74 3c 37 eb 0c be 44 63 bd bc
       -0.034364097 0.014926458 -0.13761602 -0.023118623
000130 fb 94 33 bd c8 0d 04 be 7e db 9c bd 39 7c 67 3c
       -0.04384325 -0.12895882 -0.07659052 0.014128738
000140 68 7b 7f bd 15 ae 34 bc 10 0e 73 bd af 0f d1 bd
       -0.06237355 -0.0110278325 -0.059339583 -0.102080695
000150 91 33 b1 3d 27 3d 60 3e 0d 65 71 3e 3f d9 b4 3d
       0.08652414 0.21898328 0.23573704 0.08830499
000160 9e 44 c6 3d ea f0 61 3e 76 89 5b 3e 97 06 73 3d
       0.096810564 0.22064558 0.21439156 0.059332456
000170 7b d3 5b 3d 0c ae 37 3e ec b8 0e 3e f2 5e b4 3d
       0.05366848 0.17937487 0.1393773 0.08807172
000180 f1 ad 14 3d f2 fa 22 3e bb 79 4a 3e bd af 01 3e
       0.036298696 0.1591604 0.19772999 0.12664695
000190 1a 04 12 3e 44 ad 00 3e 94 6e 37 3e da 42 61 3e
       0.14259377 0.12566096 0.17913276 0.21998158
0001a0 8e 2e 8b 3e 85 2f a0 bd ec 0d 92 bd 7d e0 ca bc
       0.27183956 -0.07821564 -0.07131562 -0.024765247
0001b0 da 27 e5 3c c7 d4 56 3c a1 11 2b bd 2a 8b 92 3b
       0.027973104 0.0131122535 -0.04176486 0.004472156
0001c0 35 70 ae 3c 32 63 0d 3c bb b3 a0 3c 38 19 7b 3d
       0.021293739 0.008629607 0.019616952 0.061303347
0001d0 a2 3e 45 bd 2f 3f e4 3c 82 a6 bc bc 7e 3c 4d bd
       -0.048155434 0.02786216 -0.023028616 -0.050106518
0001e0 13 82 91 3c c6 41 29 bd 61 96 b1 3c 65 7e 57 3d
       0.01776222 -0.041322492 0.021678152 0.052610774
0001f0 e9 cc 3d 3c 6f 28 6a bd bf 2d 81 bd 33 4c 9a bd
       0.011584499 -0.057167467 -0.063075535 -0.07534065
000200 7d 79 a0 bb 93 1b ba 3a 3e d8 86 bd f1 92 47 bd
       -0.004897295 0.0014198892 -0.06584214 -0.04872412
000210 ed 6e 9e 3d cb c0 ab bc 0b c1 71 3d af 9b d1 3c
       0.07736001 -0.020965954 0.05902199 0.025586931
000220 03 f2 30 bd 6c ab 29 bb 2a 91 83 3d ce 28 d2 bc
       -0.04319955 -0.002588953 0.06424172 -0.025654223
000230 a7 91 49 bd 59 1d 84 3d 59 93 ae 3d fa a2 92 bd
       -0.04921117 0.0645091 0.08524198 -0.071599916
000240 2a b8 00 3d 71 b5 b4 bc 05 d1 3a 3d 2b c8 22 bc
       0.031425633 -0.022059174 0.045609493 -0.009935419
000250 c5 dc 88 3d f5 3b 1c bd 06 ae d2 3a d2 a9 2c 3d
       0.066827334 -0.038143117 0.0016073592 0.04215414
000260 49 83 f4 3c 7c f0 88 bc 7e 05 1a 3d 93 f2 a2 3d
       0.029847758 -0.016716234 0.037602894 0.079564236
000270 5b 82 25 bd 9e 17 4c 3d 77 1b b9 3d 2f 44 69 3c
       -0.04040752 0.04982721 0.09038442 0.014237448
000280 32 2f d3 3c e8 e2 b0 3d 89 69 c6 3d 3f b5 97 bd
       0.02577934 0.08637029 0.09688098 -0.07407617
000290 dc 02 eb bc 8c c1 fd bb 09 f1 0e 3c 28 97 4c 3d
       -0.028687887 -0.00774402 0.008724459 0.04994884
0002a0 45 87 8f 3d 66 8e a9 3d 2b 93 bb 3d 02 60 f0 3c
       0.070082225 0.082791135 0.091589294 0.029342655
0002b0 26 99 24 bc 66 de a9 3d cc 89 b7 bc 12 d4 a6 3d
       -0.010046279 0.08294372 -0.022404574 0.08145918
0002c0 79 05 0f 3d 8c 77 5a bb bf cd 7e 3c bd eb a3 3d
       0.03491733 -0.0033335416 0.015551983 0.08003948
0002d0 cc bc 8a 3d be 4b b8 bc 43 12 b3 3d 26 b0 39 3d
       0.067742914 -0.022497054 0.087437175 0.045334004
0002e0 44 bb 28 3d e6 03 ee bc 36 3d a7 3d 5b 39 a8 3d
       0.041194215 -0.029054593 0.08165972 0.08214065
0002f0 d2 82 44 bd 15 4e 8c bd f3 65 2d 3d f4 59 21 3d
       -0.047976322 -0.068508305 0.042333554 0.039392427
000300 c8 81 67 bd 42 14 91 bc fe 59 b7 bb 76 56 c0 3d
       -0.056520253 -0.017709855 -0.0055954447 0.09391491
000310 64 08 27 bc 0c 75 44 3d bd 5a a4 3c e0 a8 58 3d
       -0.010194872 0.047963187 0.020062799 0.052895427
000320 68 a9 71 3d c6 5b 79 bd 32 87 f5 bc f4 c0 1b 3c
       0.05899945 -0.060878538 -0.029971693 0.009506453
000330 a0 25 c7 3b 7b 02 7a bd 6a ac dd bc 9e 96 10 bd
       0.0060774833 -0.06103752 -0.027059752 -0.03529989
000340 d1 d5 46 3d 82 ee a8 bc 04 fc 82 3d 87 a0 10 bb
       0.048543755 -0.020621542 0.063957244 -0.0022068338
000350 67 4c ce 3c c7 e8 f0 bc e9 50 ac bd 95 34 9a bd
       0.025182916 -0.029407872 -0.0841387 -0.075295605
000360 7a 75 86 3d 83 70 80 3d f2 a5 5d bd f4 49 30 bd
       0.065653756 0.0627146 -0.054113336 -0.043039277
000370 8a 39 09 bc 7a 1f 0b bd a1 2a a1 bd 70 d0 64 3d
       -0.008375535 -0.033965565 -0.07869459 0.055862844
000380 10 0d 93 bd 3a ff 58 3c 6d 48 3a bd ef 6c 40 bd
       -0.07180226 0.0132444445 -0.045479227 -0.046978887
000390 fd d9 66 bd 57 b2 2f bc 26 41 a8 3d 09 95 52 3d
       -0.056360234 -0.010723672 0.08215551 0.051411662
0003a0 ca d7 97 bd ae 4b 55 3d fe 69 8c 3c d3 84 58 3d
       -0.07414205 0.052074127 0.017140385 0.052861046
0003b0 01 5f bb bc 03 0f 87 3a b5 61 75 3d 88 58 9c bd
       -0.02287245 0.0010304156 0.059907634 -0.076340735
0003c0 fd 38 67 ba b0 ce b0 bd 91 96 e4 3b 0e 39 d7 bc
       -0.00088204426 -0.086331725 0.0069759567 -0.026272323
0003d0 8c 39 37 3d 28 32 78 bd e3 11 9d 3d ab 83 95 bd
       0.044732615 -0.060594708 0.07669427 -0.07300504
0003e0 5c ed 25 3d 35 9a 16 bd 2d 8a 51 3d 69 e7 a8 3c
       0.040509567 -0.036768157 0.051157165 0.020618157
0003f0 96 8f b9 3d f7 fd f2 3b ed 02 92 3c 96 c5 2e 3d
       0.0906059 0.007415529 0.01782366 0.0426689

fcIn.bias f4 [30]
000000 c5 08 24 3e b7 3a a3 bd ad 67 47 3c e6 d6 4e bc
       0.1601897 -0.07970183 0.012170714 -0.012624478
000010 4c 30 eb bd 60 41 61 3c d8 0a 38 bd 10 b5 1c 3d
       -0.11483821 0.013748497 -0.044932216 0.038258612
000020 ed 40 72 bd a9 fc fd 3d 28 20 a5 bc aa 1d 43 3d
       -0.05914395 0.12401707 -0.020156935 0.04763571
000030 e1 25 e8 3d d8 30 02 3e 4b cd be 3d fc 68 42 3d
       0.1133535 0.12713945 0.093165 0.047463402
000040 00 c2 a9 3d 19 92 9b 3d c2 64 f9 bc 56 3e 90 3d
       0.08288956 0.07596225 -0.030443553 0.0704314
000050 c4 94 25 bd 18 df ae bd d1 8c 38 bd 6c a3 ba bd
       -0.040425077 -0.085386455 -0.045056168 -0.091132015
000060 35 b5 fd 3a c1 50 81 be a4 ec 57 3e ad 2b 67 3e
       0.0019356372 -0.25256923 0.21086365 0.22575255
000070 fb da 1b 3d ab 0a ab 3d
       0.038050633 0.08351644

fcOut.weight f4 [2, 30]
000000 72 b7 16 3c 2b 90 c2 be 54 bf b3 bd e4 7f 08 3f
       0.00919901 -0.38000616 -0.08776727 0.53320146
000010 0b 46 d4 be 1b 88 a0 bd 32 03 87 be 45 24 34 3e
       -0.4145969 -0.0783846 -0.26369625 0.1759196
000020 cb 86 64 3e 6c 20 c0 3e cd 0b 18 3e d4 13 ce 3e
       0.22317044 0.37524736 0.14848252 0.40249503
000030 a5 85 23 be 3f c2 e7 be bd eb e0 be 71 a5 9a 3d
       -0.1596895 -0.45265386 -0.43929854 0.07551087
000040 62 c6 f9 be d9 82 02 bf d2 de 0b bb e6 9f 09 bf
       -0.48784167 -0.5098091 -0.0021342528 -0.5375961
000050 a6 81 50 be 38 29 e2 3d 8b c6 08 bf cf 3e 97 3d
       -0.20361957 0.11043018 -0.5342795 0.07385027
000060 f9 e3 d4 3e 49 4b 6e bc 65 ec e9 bd a7 02 c7 be
       0.4158018 -0.014544317 -0.11422042 -0.3886921
000070 a1 06 1d be a6 d1 32 3e cd ac 55 3d 4a 58 99 bd
       -0.1533456 0.17462787 0.05216675 -0.07487543
000080 af 40 0a be 10 48 20 bc 17 db 9b 3e f2 27 8c be
       -0.13501237 -0.009782806 0.3044059 -0.27374226
000090 bf ac c9 3e 12 62 96 bd 3a 01 01 3f 41 14 3a 3e
       0.39389607 -0.07342924 0.50392497 0.18171789
0000a0 f2 b5 13 3e ff 6b ff 3e f9 a4 c5 3b 4a 82 2b 3e
       0.14424875 0.49887082 0.006031629 0.1674892
0000b0 0a c2 03 be 6c e0 a7 3d 98 a3 62 be 20 e9 97 bd
       -0.12866989 0.08197102 -0.22132719 -0.07417512
0000c0 86 04 e0 3e dd 56 0e 3e 3f 08 32 be 1c 2b a1 be
       0.4375345 0.13900323 -0.17385958 -0.31478202
0000d0 e1 33 d6 bc 79 59 cf 3c 99 3b cc 3d fa 54 4b 3d
       -0.026147785 0.025311219 0.09972305 0.049641587
0000e0 45 4a e6 bc 9f 87 6b bc 78 d9 97 3c a6 0b 4c be
       -0.028111586 -0.014375596 0.018536314 -0.19926319

fcOut.bias f4 [2]
000000 ca 69 e7 3d 21 78 85 3f
       0.112994745 1.0427285
