PyTorch/lightning_logs/version_16/checkpoints/epoch=99-step=11900.ckpt (torch, 19995 bytes, 4 tensors)

fcIn.weight f4 [30, 126]
-0.025871977 0.0903674 -0.067833856 -0.034650918 0.00309086 -0.024463888 -0.013595351 0.094545506
-0.010190304 -0.043621108 -0.077435985 -0.0117094405 0.058764204 -0.074501604 -0.057265352 -0.03818713
-0.03986749 -0.05041223 -0.02111265 0.04175651 0.0015071379 0.07075552 0.09777426 0.047084957
0.0719528 -0.047470905 0.034987908 0.05696941 0.081136845 0.033778116 -0.06673943 0.0100262035
-0.01812231 -0.04865835 0.003659698 0.041661035 -0.06047012 -0.06381471 0.09682145 0.05121384
-0.04860553 0.0022945346 0.038557906 -0.048989054 0.04624967 -0.08576118 -0.02539686 -0.07165453
0.037644356 0.027298288 -0.102640904 -0.0064371433 0.013462467 -0.02280526 0.04944883 -0.059213113
0.01869639 -0.082412235 -0.05555168 0.029771164 -0.016730038 -0.025990168 -0.009506793 -0.08387643
0.035344 0.012057592 -0.03279351 -0.043134116 -0.06747165 0.063828625 -0.031498715 0.07117069
0.059306696 -0.06901149 -0.0732253 0.0058987276 0.033916794 -0.025683442 -0.10145121 0.004125391
-0.046000034 -0.1047668 -0.0157244 -0.095791094 0.03511246 0.0619455 0.039080266 0.08431024
0.100739725 -0.021933677 -0.011815159 0.05314223 -0.089943156 0.039239902 0.050090596 -0.025376875
0.009984482 -0.008409174 -0.07123314 -0.03617147 -0.069201335 0.063948035 0.03827593 -0.02960149
0.0062582996 -0.066836365 -0.006080511 -0.07534316 -0.082158245 -0.046794422 -0.032932345 0.0064360886
-0.059819695 -0.063543566 -0.07053106 -0.02670779 0.0069509773 0.050166078 0.009204897 0.07222628
0.042144842 0.0028640826 -0.015312294 0.07951891 0.061244797 -0.039000828 0.013048346 0.11323346
0.027986364 0.060993195 0.09598458 0.023864038 0.003690373 0.0046837353 0.046598762 0.019892892
0.095588215 0.077443145 0.1071811 0.09574831 0.0655091 0.066783 0.0678937 0.11514603
0.044017334 0.096383385 0.12418416 0.044129774 0.0946856 0.025701728 0.011944166 0.068171434
0.07885863 -0.050248254 -0.009361869 0.06957573 0.088346176 -0.017836215 0.0750898 -0.014574925
-0.02492944 -0.011405546 0.09689939 0.09973449 0.019228527 0.100226596 0.041496117 0.08277865
0.03622886 0.033388294 0.02933004 -0.028912919 0.0030749124 -0.10627752 0.02021516 -0.12994064
0.021189893 -0.09705388 -0.12611717 0.031322163 -0.058000628 -0.03829538 -0.011479869 0.023906272
0.002713172 -0.036179584 -0.026756128 0.013359429 -0.10543294 -0.12165352 -0.0008465758 -0.05385081
-0.03931175 -0.11360276 0.010785103 -0.0795684 0.008354007 -0.10455903 -0.06591481 -0.09029368
-0.047906604 0.033273324 0.005193567 0.016928807 -0.009647567 -0.11707262 -0.023687731 -0.1128584
-0.07260939 -0.06933125 0.042111 0.034595832 -0.017477786 -0.078768365 -0.006672956 -0.012522592
-0.06637048 -0.026820643 -0.07363012 0.06767848 -6.0367976e-05 0.024430541 0.004747805 -0.030907467
0.019852947 0.04622553 -0.028563585 0.034805756 0.06570376 0.0436066 -0.065305024 -0.0030038725
-0.030327287 0.0011635752 0.067415155 -0.026860535 0.042316735 0.037709784 -0.06142731 -0.036961403
0.054800857 -0.057545736 0.0054672863 -0.038808126 -0.0026819315 -0.06093269 0.038200676 0.047867943
-0.052384093 0.05133743 -0.05934377 -0.039761208 0.051502552 -0.10286358 -0.11028217 0.031720128
00000000: 78f1 d3bc 8b12 b93d 7aec 8abd 1fee 0dbd
00000010: 0790 4a3b 7e68 c8bc 09bf 5ebc 13a1 c13d
00000020: 3cf5 26bc 0cac 32bd c296 9ebd f4d8 3fbc
00000030: bcb2 703d 4c94 98bd 138f 6abd 1c6a 1cbd
00000040: 184c 23bd 0e7d 4ebd 70f4 acbc e008 2b3d
00000050: 288b c53a 45e8 903d df3d c83d 28dc 403d
00000060: fd5b 933d da70 42bd 7b4f 0f3d c258 693d
00000070: 132b a63d ec5a 0a3d afae 88bd f244 243c
00000080: 3d75 94bc fa4d 47bd 8bd7 6f3b c3a4 2a3d
00000090: 84af 77bd 49b1 82bd 534a c63d 9ac5 513d
000000a0: 9816 47bd e75f 163b e5ee 1d3d bfa8 48bd
000000b0: 4b70 3d3d 8fa3 afbd 130d d0bc 9cbf 92bd
000000c0: f830 1a3d a9a0 df3c 6535 d2bd acee d2bb
000000d0: ae91 5c3c 19d2 babc db8a 4a3d 7389 72bd
000000e0: 2c29 993c bfc7 a8bd 298a 63bd a8e2 f33c
000000f0: 6f0d 89bc 55e9 d4bc 61c2 1bbc 68c7 abbd
00000100: dfc4 103d 358d 453c 7d52 06bd 66ad 30bd
00000110: 942e 8abd 95b8 823d cc04 01bd f0c1 913d
00000120: 94eb 723d e555 8dbd 25f7 95bd 1d4a c13b
00000130: 56ec 0a3d 1566 d2bc a7c5 cfbd 4a2e 873b
00000140: 886a 3cbd fa8f d6bd 75d0 80bc 1f2e c4bd
00000150: 15d2 0f3d 91ba 7d3d a112 203d d9aa ac3d
00000160: a150 ce3d 41ae b3bc 5e94 41bc abab 593d
00000170: 1e34 b8bd 05ba 203d cc2b 4d3d 2ae3 cfbc
00000180: f495 233c a2c6 09bc aee2 91bd 8928 14bd
00000190: 6eb9 8dbd 30f7 823d 39c7 1c3d d37e f2bc
000001a0: 6c12 cd3b 81e1 88bd 063f c7bb 844d 9abd
000001b0: 9542 a8bd 82ab 3fbd 11e4 06bd d3e5 d23b
000001c0: 7f05 75bd 2123 82bd 9772 90bd 4cca dabc
000001d0: 06c5 e33b f27a 4d3d 23d0 163c 5feb 933d
000001e0: 12a0 2c3d 55b3 3b3b 6ae0 7abc cfda a23d
000001f0: d3db 7a3d 55bf 1fbd bbc8 553c f2e6 e73d
00000200: a943 e53c 00d4 793d 9093 c43d 847e c33c
00000210: 2fda 713b 057a 993b 58de 3e3d 6bf6 a23c
00000220: c1c3 c33d 839a 9e3d c481 db3d b117 c43d
00000230: a329 863d 87c5 883d da0b 8b3d afd1 eb3d
00000240: 854b 343d a764 c53d 4454 fe3d 6cc1 343d
00000250: 86ea c13d 6e8c d23c 77b1 433c 779d 8b3d
00000260: a280 a13d 1dd1 4dbd 8662 19bc b87d 8e3d
00000270: d7ee b43d 411d 92bc aec8 993d abcb 6ebc
00000280: d338 ccbc 54de 3abc 3073 c63d 9941 cc3d
00000290: 2585 9d3c 9a43 cd3d d5f7 293d da87 a93d
000002a0: b764 143d 2ac2 083d 8d45 f03c c9da ecbc
000002b0: 7884 493b 07a8 d9bd 439a a53c 290f 05be
000002c0: 6d96 ad3c 2fc4 c6bd dc24 01be ab4b 003d
000002d0: 1192 6dbd 9edb 1cbd 0f16 3cbc 16d7 c33c
000002e0: 79cf 313b 0b31 14bd ab2f dbbc 82e1 5a3c
000002f0: 3aed d7bd 7b25 f9bd bdec 5dba ab92 5cbd
00000300: 5c05 21bd 90a8 e8bd 00b4 303c c2f4 a2bd
00000310: 3fdf 083c 0b23 d6bd 58fe 86bd e5eb b8bd
00000320: b739 44bd 9c49 083d cc2e aa3b 48ae 8a3c
00000330: d410 1ebc c5c3 efbd c60c c2bc 4e22 e7bd
00000340: 3bb4 94bd 8bfd 8dbd 957c 2c3d 5cb4 0d3d
00000350: 932d 8fbc 4f51 a1bd d0a8 dabb 8f2b 4dbc
00000360: 3fed 87bd f7b6 dbbc 63cb 96bd 049b 8a3d
00000370: 9f33 7db8 8f22 c83c 7a93 9b3b a831 fdbc
00000380: a6a2 a23c fb56 3d3d 2efe e9bc 7b90 0e3d
00000390: b18f 863d d69c 323d a4be 85bd 9edc 44bb
000003a0: ee70 f8bc 1b83 983a f510 8a3d a00a dcbc
000003b0: 5054 2d3d 9375 1a3d 349b 7bbd d764 17bd
000003c0: dd76 603d 14b5 6bbd ec26 b33b 45f5 1ebd
000003d0: 58c3 2fbb 8e94 79bd 5078 1c3d 2d11 443d
000003e0: b490 56bd 3247 523d 7412 73bd a6dc 22bd
000003f0: 57f4 523d 24aa d2bd 9edb e1bd f7ec 013d

fcIn.bias f4 [30]
0.029813088 0.026810637 0.25653687 -0.30065882 0.06811971 -0.15863343 0.037198305 -0.062110763
-0.08215242 0.005129377 -0.07920148 -0.028007759 -0.21080267 0.0050456077 -0.030637579 0.052405726
0.12366112 0.053271644 0.060246434 -0.06298848 -0.0036922672 0.1986723 0.08931515 0.07396267
-0.023644276 0.05259503 0.116033085 0.12484324 0.19867575 0.16160303
00000000: 943a f43c fba1 db3c cd58 833e f4ef 99be
00000010: 5982 8b3d cd70 22be 405d 183d db67 7ebd
00000020: 873f a8bd 5514 a83b 6334 a2bd 8770 e5bc
00000030: a8dc 57be a055 a53b a9fb fabc 63a7 563d
00000040: 0b42 fd3d 5e33 5a3d f7c4 763d 1b00 81bd
00000050: f7f9 71bb c070 4b3e ddea b63d be79 973d
00000060: a4b1 c1bc e36d 573d c1a2 ed3d d0ad ff3d
00000070: a871 4b3e 447b 253e

fcOut.weight f4 [2, 30]
0.99908316 -0.14553496 -0.12556192 0.09070627 -0.1269038 0.51703787 -0.64062095 -0.14436296
0.059965122 -0.03548515 -0.33316332 0.702242 -0.3237876 0.5673977 0.25855294 0.017140552
-0.28869945 -0.10381374 0.026835276 -0.018919649 -0.07283082 0.13610207 0.5389401 -0.060145743
0.59682083 0.19840924 0.03234584 -0.31575495 -0.40286243 -0.2555124 0.23324537 -0.16995719
0.10624218 0.11923599 -0.026677813 -0.067314744 0.28674635 -0.17740741 -0.16423193 -0.25838116
-0.26696935 0.021198126 -0.028945431 0.15480109 0.33715025 -0.02978843 0.029290676 0.09087772
0.14529891 0.093425564 -0.21177596 0.00035566668 0.23055898 -0.17987745 0.055254634 -0.14533947
0.08161844 0.026571196 0.49862897 0.29452568
00000000: eac3 7f3f 1e07 15be 4e93 00be 35c4 b93d
00000010: 12f3 01be 985c 043f bcff 23bf e2d3 13be
00000020: fd9d 753d e058 11bd 6294 aabe 22c6 333f
00000030: 7dc7 a5be fa40 113f 0d61 843e 586a 8c3c
00000040: 6ad0 93be 4c9c d4bd a7d5 db3c 61fd 9abc
00000050: 5328 95bd 575e 0b3e faf7 093f 625b 76bd
00000060: 40c9 183f cb2b 4b3e 127d 043d a2aa a1be
00000070: fc43 cebe 85d2 82be e0d7 6e3e 4209 2ebe
00000080: 8095 d93d 0032 f43d 6e8b dabc 50dc 89bd
00000090: 6bd0 923e 4aaa 35be 6a2c 28be 894a 84be
000000a0: 35b0 88be b1a7 ad3c f81e edbc 2d84 1e3e
000000b0: f59e ac3e de06 f4bc 00f3 ef3c 191e ba3d
000000c0: 3dc9 143e e755 bf3d ccdb 58be c678 ba39
000000d0: a717 6c3e cb31 38be af52 623d dfd3 14be
000000e0: 9227 a73d d6ab d93c 4c4c ff3e 12cc 963e

fcOut.bias f4 [2]
0.28877687 1.1324574
00000000: 90da 933e 5df4 903f
