PyTorch/lightning_logs/version_22/checkpoints/epoch=99-step=11900.ckpt (torch, 19995 bytes, 4 tensors)

fcIn.weight f4 [30, 126]
000000 00 68 1e bd 5c 8f 45 bc 2c e0 31 bd a1 71 98 bd
       -0.0386734 -0.012058105 -0.043426678 -0.07443548
000010 61 31 42 bc 29 76 42 bd 0d f6 68 bd cb 2e 15 bd
       -0.011852593 -0.047475968 -0.056875277 -0.03642158
000020 ec 23 08 bc 85 51 fd bc 57 2a 99 3d 1c d8 0a 3c
       -0.008309346 -0.03092266 0.07478779 0.008474376
000030 54 36 99 3d 3b 6e 4d bd 77 99 7f bd 88 6e a7 3d
       0.074810654 -0.050153952 -0.062402215 0.08175379
000040 19 0e b8 bd 37 7c 52 bd 50 71 33 ba 34 d9 7f bd
       -0.08987064 -0.05138799 -0.0006845193 -0.062463
000050 e7 74 ad bd 64 14 fb bc 74 ee 77 bd 3b 70 91 bd
       -0.08469563 -0.030649371 -0.06053014 -0.071014844
000060 02 f6 17 bd a8 ee c7 3c 21 89 6f 3c cf 13 65 3d
       -0.037099846 0.024405792 0.014620096 0.055927094
000070 e3 80 80 bd ba b2 3f bd a5 6c ac 3c fe ba b3 3d
       -0.06274583 -0.046801306 0.0210479 0.087759
000080 7f f0 73 3d d9 cc be 3d 2a bd 4e 3d 8a ad cf bc
       0.059555527 0.09316415 0.05047337 -0.025351305
000090 6a 5c 0e 3c 99 8e 60 3d 23 d9 23 bc b1 d8 8e 3c
       0.008689025 0.05482349 -0.0100005 0.01743731
0000a0 42 2a 90 bd f0 2e 56 3c e4 18 e8 3c 46 86 83 3d
       -0.0703931 0.013072714 0.028332181 0.06422095
0000b0 dd 50 9a bc c3 f5 1a 3d 56 3b 9b 3d 9e 29 a1 3d
       -0.018837387 0.037832033 0.07579677 0.07869266
0000c0 d3 49 96 3d 6b ae 20 3d ba 20 80 bd 95 69 e4 bb
       0.073382996 0.039228838 -0.06256242 -0.006970594
0000d0 54 8b e4 3c 36 a9 a2 3d 24 6c 6a bc 29 86 94 3d
       0.027898468 0.07942431 -0.014308009 0.072521515
0000e0 b0 5d 40 3d 03 c5 43 bc 04 a0 88 bc 64 bf 88 bb
       0.046964347 -0.011948827 -0.016677864 -0.004173206
0000f0 5e eb 47 bd ce 6f eb b9 b7 6f 07 bd b3 48 f3 3c
       -0.048808448 -0.00044905994 -0.033065524 0.029697752
000100 70 aa b5 bd 7e a3 64 3d eb e8 9b 3d 9d ad e8 bc
       -0.08870399 0.05581998 0.07612785 -0.028403098
000110 3e a8 63 3d 4e 33 84 3d b3 8c 4c 3c 8b a8 9d 3c
       0.05558037 0.06455098 0.012484717 0.019245407
000120 de c1 5e 3d 73 48 9e bd ac b2 60 3c 62 57 ad 3c
       0.054384105 -0.07728662 0.013714474 0.021159831
000130 34 3a 1b 3b c6 01 85 bd e4 5d 56 bd e2 a2 a9 bc
       0.0023685815 -0.06494479 -0.052335635 -0.020707551
000140 89 63 0b bd ae 0d 5b bc c2 97 ae 3d bd 0b a0 bc
       -0.03403047 -0.013369961 0.08525039 -0.019536847
000150 88 0d 96 3d 98 fb 11 bd c4 ad 82 3d a8 ec 9f bc
       0.073268 -0.03564033 0.063807994 -0.019522026
000160 86 e3 b8 bd 0a 33 41 3c f9 1c 38 bc 84 00 a1 3b
       -0.09027772 0.011791954 -0.011237376 0.0049133915
000170 18 87 09 3d 9d e2 91 3d a7 78 6b bd be dd da 3c
       0.0335761 0.07123301 -0.05748811 0.026717063
000180 06 e0 5a bd c7 48 a5 bc b3 37 98 3d 88 da d9 bb
       -0.0534363 -0.020176305 0.07432499 -0.0066483654
000190 d3 48 d4 bc 68 3e 48 3d e4 e1 3e bd 78 ed 20 3d
       -0.025913632 0.04888764 -0.046602145 0.039288968
0001a0 15 4b 73 bd 2f 7e f1 3c f9 68 37 bd 7c fd f7 3b
       -0.059397776 0.029479114 -0.044777844 0.0075680595
0001b0 13 74 9a bd 74 81 93 bd 0a 07 33 bd ed 67 9d 3b
       -0.07541671 -0.072024256 -0.043707885 0.0048036487
0001c0 f5 b6 8a bd 78 68 40 3c 9c ba 72 bd ae a8 b0 3d
       -0.067731775 0.011743657 -0.059259996 0.08625923
0001d0 72 8f 03 bd 85 34 65 bd 6f a2 08 3b 68 da 07 3a
       -0.032119222 -0.05595829 0.002084877 0.00051823864
0001e0 f5 20 28 3d bc 9b 11 bd 0e 39 9c 3d c6 bf da 3c
       0.041047055 -0.03554891 0.0762807 0.026702773
0001f0 ed 0f 6c 3d 9d 65 61 bd 65 bf b9 3c 65 cf 4e 3d
       0.057632376 -0.055028547 0.022674272 0.050490756
000200 c9 c3 61 bd 6d 53 26 3d e4 b7 d4 bd fd 1c 81 bd
       -0.055118356 0.040606905 -0.10386637 -0.06304357
000210 8b 33 c9 bd 0e 15 54 bd f5 a0 be bb ad dd 99 bd
       -0.09824284 -0.05177789 -0.0058175274 -0.075129844
000220 ac 70 07 3d ff c9 c7 bd 16 35 12 bc be 7f e3 bd
       0.033066437 -0.097553246 -0.0089237895 -0.11108349
000230 13 82 50 bd ce f7 e7 bd 79 00 32 3d 7d 30 58 bd
       -0.0509053 -0.11326562 0.043457482 -0.052780617
000240 b0 ab 3e 3d ac fc 84 3b 3d cf 40 3d 02 3d 83 bd
       0.046550453 0.004058441 0.047072638 -0.06408121
000250 e7 1b a7 bb 0b 70 7f bd 36 23 97 bd 66 7e b6 bb
       -0.0050997618 -0.062362712 -0.07379763 -0.005569267
000260 4e 82 66 3d 10 f3 f2 3c 8f aa c9 bd 2b 06 5b 3d
       0.056276612 0.029656917 -0.098469846 0.05347268
000270 f8 6a 6f 3d 5a d1 d5 bc 2e 37 0e 3c 3e ed 8b 3d
       0.058451623 -0.026100803 0.008680148 0.0683236
000280 56 9d 25 3d 22 68 96 3c 84 ea 09 bd 52 68 5f 3d
       0.04043325 0.018360201 -0.033670917 0.054542847
000290 a6 ab f2 bc 28 1b b1 bc 05 73 65 3d 55 17 21 3d
       -0.029622864 -0.021619394 0.056017894 0.03932889
0002a0 49 c7 ab bc e0 4f 09 bb ee 12 94 3c 60 b4 94 3d
       -0.02096905 -0.002095215 0.018075433 0.07260966
0002b0 19 e5 72 bd 9f 1d 37 bc a5 9d cb 3d 9d 7e d1 3b
       -0.059300516 -0.011176496 0.09942178 0.0063932673
0002c0 63 e8 cc 3d d0 04 58 bd b3 93 49 3d 40 06 8f 3d
       0.10005262 -0.052738965 0.049213123 0.06983614
0002d0 90 fc e1 3c 05 b5 ed bc 11 1d b8 3d 06 e9 0b 3d
       0.027586251 -0.02901698 0.08989919 0.034157775
0002e0 cd 3d ab ba 06 89 f8 3c c9 a6 c7 bc 8a 12 d5 bc
       -0.0013064683 0.030338775 -0.024371522 -0.026009817
0002f0 aa 38 87 bd d8 80 55 3d 64 41 39 3d e5 35 ab 3d
       -0.06602605 0.052124828 0.045228377 0.08359889
000300 a0 b9 cf 3d 63 5e 24 bd fd ea 99 3c d1 b5 97 3c
       0.10142827 -0.040129077 0.018788809 0.018519314
000310 11 d2 c3 3d f0 f8 c2 bc f9 12 c4 3d c5 af 89 3d
       0.09561551 -0.023800343 0.09573931 0.067229785
000320 24 36 45 3c db 6a 95 3d d8 cf 39 bd 73 a8 30 3d
       0.012036834 0.07295772 -0.04536423 0.043129396
000330 86 c4 2b bc 18 60 c3 3d 61 ac 87 3d b9 54 6b 3d
       -0.010483867 0.09539813 0.066246755 0.057453845
000340 b0 4c 9a 3d 47 25 fb bb ec ff 64 3d 25 4f c2 3c
       0.07534158 -0.007664356 0.05590813 0.02371938
000350 2d 70 c0 3c 40 52 6d bd 99 ed 33 3d ee 05 13 bd
       0.02349099 -0.057939768 0.043927763 -0.035894327
000360 f9 ec ae 39 5f aa c0 bd cc 03 d4 bc 4f 68 a5 bd
       0.00033364425 -0.09407496 -0.025880717 -0.08076536
000370 76 b9 c5 bb 61 de 4d 3d fa 2b 48 3d a3 08 89 bd
       -0.0060340716 0.050260905 0.048870064 -0.066911004
000380 3e 5d 91 bc 17 36 4f bd 99 e7 b1 bd 55 4e ad 3c
       -0.017744657 -0.050588693 -0.08686752 0.021155516
000390 72 88 42 bd 5a c9 80 bb 3d 90 c8 3c 32 b1 96 3d
       -0.047493406 -0.003930253 0.02448284 0.07358016
0003a0 45 f8 03 bc 8a 88 7e bc eb 96 34 3d 83 eb 13 bd
       -0.008054798 -0.015535483 0.04408924 -0.036113273
0003b0 10 85 59 bd 58 04 c0 3c 82 fe a5 bd 08 02 25 3d
       -0.053105414 0.023439571 -0.08105184 0.04028514
0003c0 e1 4d a5 bd e5 3a ec bb 48 7c 34 bc 8e d9 45 3c
       -0.08071495 -0.007209169 -0.011015959 0.012075795
0003d0 31 82 2c 3d cc 0b 96 3d 05 6f 90 bd c3 12 6d 3d
       0.042116348 0.07326469 -0.07052425 0.05787922
0003e0 d5 27 a5 3c 4e 7f 13 3d 1f 11 43 bd 69 c5 84 3d
       0.020160595 0.03601008 -0.04762375 0.064829655
0003f0 f2 da a5 3d bf b8 f7 bc 71 d4 0a bd 4b 29 49 3d
       0.08098401 -0.030239461 -0.033894006 0.049111646

fcIn.bias f4 [30]
000000 07 a5 60 3d 66 e1 ad 3b 7c 85 0d bd a7 fc 8e 3b
       0.054844882 0.0053064106 -0.03455113 0.0043636146
000010 fb 0e d0 bc 5f 86 07 3e 96 12 23 3e 07 1c 3f 3e
       -0.025397768 0.13234852 0.15925059 0.18663035
000020 62 7a 74 3d 76 8e 89 3d ce e3 12 3e 17 90 16 bc
       0.059687026 0.067166254 0.14344713 -0.009189627
000030 09 2f 00 be 9a fb 48 3e 70 4d 3d 3c 0a a4 26 3d
       -0.12517942 0.19627228 0.011554107 0.040683784
000040 04 0f 47 3e 7f f5 05 ba 0b 09 0d 3b 8a 1a 29 3e
       0.19439322 -0.0005110129 0.0021520283 0.1651403
000050 54 40 60 bd 2f 39 ff 3c bc 68 2a bd 54 b6 79 be
       -0.054748848 0.031155197 -0.04160379 -0.24385959
000060 4d 77 62 3d bc c6 35 3e ee 77 5a 3c bb 7b 5e 3c
       0.055289555 0.17751592 0.0133342575 0.013579304
000070 72 72 e4 3c f3 a5 28 3e
       0.027886603 0.16469555

fcOut.weight f4 [2, 30]
000000 db d3 88 be 1c 55 e0 3d 11 95 78 3e 9f 9d 0a 3e
       -0.26724133 0.10953733 0.24275614 0.1353669
000010 35 a5 40 be f8 2d 93 3b dd ac 23 be 19 14 0f be
       -0.18813021 0.004491564 -0.15983911 -0.1397251
000020 56 0f fd 3e 3e ac 0a be 3e c0 25 be 7e 4b 45 be
       0.49425763 -0.13542268 -0.16186616 -0.19267079
000030 5f 1d 8a 3d 7d 1d 1a 3e 7c 7b bd 3c 29 d9 6a bf
       0.06743883 0.15050311 0.023130171 -0.9173761
000040 f6 d8 8b bc b1 68 52 3f 1a 6f 7e be 0c e2 9e be
       -0.017071228 0.82190996 -0.2484707 -0.31031835
000050 54 e5 4c be 91 9c e6 3a 56 30 19 3e c7 79 36 be
       -0.20009357 0.0017594268 0.14959845 -0.17819892
000060 39 50 1f 3f b6 5a e6 3e e0 c7 fc 3e 6a 23 73 3e
       0.62231785 0.44991082 0.49371243 0.23743978
000070 33 48 08 be de bd 27 bf b3 2d 21 3e dc 87 8a bd
       -0.13308792 -0.6552409 0.15740089 -0.06764194
000080 31 18 7a bc 00 e9 76 3c f6 1f 39 bd 7f 48 9c bd
       -0.015264557 0.0150702 -0.045196496 -0.07631015
000090 68 36 c0 bd d3 14 75 3d 47 6c 13 be fd 7c b3 bd
       -0.09385377 0.059834313 -0.14396773 -0.08764074
0000a0 d3 9b 3c be ed 8c b5 3d 43 35 ec bd fe b8 fd bd
       -0.18418817 0.0886477 -0.11533596 -0.123888
0000b0 39 7d 31 3d 67 c5 a4 bd 99 14 b1 3e 76 77 2e 3e
       0.043332312 -0.08045464 0.34586027 0.17037758
0000c0 52 9f 35 3f 25 85 87 be c6 a6 15 be 5e 57 eb bd
       0.7094623 -0.2646877 -0.146144 -0.11491273
0000d0 75 ac d6 3e ed 9b 17 3d 4c fd a4 3e 64 01 94 3c
       0.4192845 0.037013937 0.322245 0.01806707
0000e0 21 bc 03 be 22 ba 89 3d e3 37 04 3f 64 8e 54 3d
       -0.12864734 0.06724955 0.51647776 0.051893607

fcOut.bias f4 [2]
000000 94 63 2d bd 61 bb 89 3f
       -0.042331293 1.0760309
