PyTorch/NN/Model.pt (torch, 16979 bytes, 4 tensors)

fcIn.weight f4 [30, 126]
0	0xbda67f80	-0.081297874
1	0x3d9e4bf8	0.07729334
2	0xbd903912	-0.07042135
3	0x3daf9dda	0.0857503
4	0xbd832bae	-0.064048156
5	0xbd842bbe	-0.06453656
6	0x3d9904e0	0.07471633
7	0x3d88b6e4	0.066755086
8	0x3cabb0a8	0.02095826
9	0x3d0615a5	0.032735486
10	0x3d0967bc	0.033546194
11	0x3d943116	0.07235925
12	0x3d861821	0.06547571
13	0xbacfa14a	-0.0015840915
14	0xbd9fbe36	-0.07799952
15	0xbd216497	-0.03940257
16	0xbd611e55	-0.054960568
17	0xbd51d45f	-0.051227923
18	0xbd85fa08	-0.0654183
19	0xbd909651	-0.070599206
20	0xbd819081	-0.0632639
21	0xbd9848a0	-0.07435727
22	0x3dbc49b0	0.09193742
23	0xbcc14f8e	-0.023597505
24	0x3bfa7cb7	0.0076442617
25	0x3d4e7c13	0.050411295
26	0xbc69c6df	-0.014268606
27	0xbd40b3ce	-0.047046475
28	0xbc687518	-0.014188074
29	0x3d491c79	0.04909942
30	0xbdbe7df2	-0.09301366
31	0x3d08c246	0.0333884
32	0xbb2ddd9f	-0.0026529802
33	0x3d95724e	0.072971925
34	0xbd00f562	-0.031484015
35	0x3da1afca	0.07894857
36	0x3d228375	0.03967615
37	0x3cb69832	0.02228937
38	0xbd1736d2	-0.036917515
39	0x3c99ce75	0.018775204
40	0x3daf2203	0.08551409
41	0xbc794923	-0.015215191
42	0x3c87530e	0.016519096
43	0xba7c879c	-0.00096332445
44	0xbd07d830	-0.033165157
45	0xbbde79ff	-0.0067894454
46	0xbbba08b2	-0.005677306
47	0x3d0b530c	0.034014747
48	0xbdb2f2b2	-0.08737697
49	0xbd875a05	-0.06608967
50	0xbdc30022	-0.0952151
51	0xbd9d04e7	-0.07666951
52	0x3cfc3272	0.030785773
53	0xbd746a4f	-0.059671696
54	0xbc5d84de	-0.013520448
55	0x3d12f65f	0.03587949
56	0xbc119def	-0.008887752
57	0x3da8fd68	0.082514584
58	0x3c9a5862	0.018840972
59	0xbd543462	-0.05180777
60	0x3cc6033f	0.02417147
61	0x3d560882	0.052254207
62	0xbdb6a0ef	-0.089174144
63	0xbcc4c403	-0.024019247
64	0x3d8f14a9	0.069863625
65	0xbc804e29	-0.01566227
66	0x3d8d2cae	0.068932876
67	0xbc583025	-0.013195072
68	0xbd3c556e	-0.04597991
69	0x3bbef57d	0.0058276043
70	0xbd63d8ce	-0.055626683
71	0xbdafc820	-0.08583093
72	0x3d80f380	0.06296444
73	0x3d9d9a83	0.076954864
74	0x3d88ecc7	0.06685787
75	0xbd4242a5	-0.04742684
76	0xbcc776a7	-0.02434857
77	0x3d52b3f3	0.051441144
78	0x3cf694a8	0.030100182
79	0xbd5f7a67	-0.05456009
80	0xbd6de541	-0.05807996
81	0xbd3b38a1	-0.045708302
82	0x3d85abee	0.065269336
83	0xbd89cf3f	-0.06728982
84	0x3d67f803	0.056633007
85	0xbce60fb3	-0.028083658
86	0x3d9e082f	0.07716405
87	0x3d5ace33	0.053419303
88	0xbd26d559	-0.040730808
89	0x3c78ee7b	0.015193577
90	0x3da34e41	0.0797391
91	0x3d2db5cd	0.042409707
92	0xbd5d093b	-0.05396388
93	0x3d20215d	0.039094318
94	0x3d207c4d	0.039181042
95	0x3c18fda2	0.0093378145
96	0xbda48c85	-0.080346145
97	0x3d1c1668	0.038107306
98	0xbda021c1	-0.07818938
99	0xbdadc7f5	-0.084854044
100	0x3d86dc7b	0.06585022
101	0xbdbd878d	-0.0925437
102	0xbdafd087	-0.08584695
103	0xbb9d541b	-0.004801286
104	0xbdc76eb1	-0.097379096
105	0xbd06b568	-0.032887846
106	0x3d8416b5	0.064496435
107	0x3c88b5c8	0.016688243
108	0xbc5f4e85	-0.01362956
109	0x3d67ed52	0.05662281
110	0x3d67c107	0.05658057
111	0x3d2c71ec	0.042100832
112	0x3ca44cea	0.020056207
113	0xbd3bc39b	-0.04584084
114	0xbdb1b975	-0.08677951
115	0xbd106cb4	-0.035259917
116	0x3d2b44fb	0.04181383
117	0x3d0819f4	0.033227876
118	0xbd9a3227	-0.07529097
119	0xbcf8e9fd	-0.030385012
120	0xbd2345dc	-0.039861545
121	0xbcdb089e	-0.026737507
122	0x3da178e7	0.078843884
123	0x3d002421	0.031284455
124	0xbc499d99	-0.012305641
125	0xbd7a1445	-0.061054487
126	0x3d326b95	0.04355963
127	0xbc8f859c	-0.017519765
128	0x3d1cd1cf	0.038286027
129	0x3c8cd62a	0.017191965
130	0xbd9be767	-0.07612496
131	0xbcbb4984	-0.022862203
132	0x3d974800	0.0738678
133	0x3dbbca7e	0.09169482
134	0x3d983115	0.07431237
135	0xbd58d750	-0.052939713
136	0xbd3670b9	-0.044541094
137	0x3cf72305	0.030168066
138	0x3c0a886d	0.008455378
139	0xbd5af4b8	-0.05345604
140	0x3d558288	0.052126437
141	0x3cc9a0cb	0.024612805
142	0xbd4e5702	-0.050375946
143	0x3d8b933a	0.068151906
144	0x3d1ba159	0.03799567
145	0x3d40902f	0.047012504
146	0xbc7d1a58	-0.015448175
147	0x3d1f7b67	0.038936045
148	0x3dc3a3e0	0.09552741
149	0xbd4104ab	-0.047123592
150	0x3ce667fc	0.028125755
151	0xbda56b90	-0.080771565
152	0xbd07ca30	-0.033151805
153	0xbd594fdb	-0.05305467
154	0xbd4d028f	-0.05005127
155	0xbcf1b3a3	-0.029504603
156	0xbd79c423	-0.060978066
157	0x3d8455ea	0.06461699
158	0xbc842f51	-0.016135843
159	0xbb8fb220	-0.004385248
160	0x3d2f60eb	0.042817038
161	0xbd66f9f8	-0.056390733
162	0xbcef4edb	-0.029212406
163	0xbda6e7b9	-0.08149666
164	0xbcaa18ac	-0.020763718
165	0xbcbd890b	-0.023136636
166	0x3d714b7d	0.05890988
167	0x3da33f8b	0.07971104
168	0xbdf81c1f	-0.12114739
169	0xbdc43108	-0.095796645
170	0xbd2df45d	-0.04246937
171	0xbcb59348	-0.022164956
172	0xba9233c0	-0.0011154339
173	0xbd0b09e5	-0.033944983
174	0xbdc12039	-0.09429974
175	0xbdb87f3b	-0.09008642
176	0xbddfe9ab	-0.109332405
177	0xbda88e1c	-0.0823023
178	0xbd1d1594	-0.038350657
179	0xbd535b89	-0.051600967
180	0xbd587e7f	-0.05285501
181	0xbdacfe3c	-0.08446929
182	0xbd7d722f	-0.061876472
183	0xbdfe3cc7	-0.12413936
184	0xbdb7c0ef	-0.08972346
185	0xbdb99e5a	-0.09063406
186	0xbd0cef4c	-0.0344079
187	0xbcee6c70	-0.029104441
188	0xbd368dfc	-0.044569
189	0xbe05579f	-0.13021706
190	0xbd969943	-0.07353451
191	0x3bdeef9d	0.0068034665
192	0xbd04380c	-0.032280013
193	0x3d033f8f	0.032043036
194	0xbe0019eb	-0.12509887
195	0x3ca6b5a9	0.020350294
196	0xbdb7512a	-0.08951028
197	0x3d44e593	0.0480705
198	0x3c06ed3e	0.008235274
199	0xbc9214cf	-0.017832188
200	0xbda6ba5d	-0.08141015
201	0xbdd5cc63	-0.10439374
202	0xbd95c99e	-0.07313846
203	0xbdb01e43	-0.08599522
204	0xbcfc6c32	-0.03081331
205	0xbda2f39e	-0.079566225
206	0x3c9e35a8	0.019312695
207	0x3d12cf8c	0.035842463
208	0xbdd67177	-0.104708605
209	0xbb732922	-0.0037103374
210	0x3d5b122a	0.05348412
211	0x3deae501	0.1146946
212	0x3da68a6b	0.0813187
213	0xbb095dcc	-0.0020960448
214	0x3d3429ee	0.0439853
215	0x3d24a5e4	0.040197268
216	0x3d873338	0.06601566
217	0x3d86177f	0.0654745
218	0x3b981e76	0.004642303
219	0x3ca29719	0.01984744
220	0xbd0ae3f6	-0.033908807
221	0x3c673fe1	0.014114351
222	0x3db9fb3d	0.09081123
223	0x3d8ab8e5	0.06773547
224	0x3cc75454	0.024332203
225	0xbc8639a7	-0.016384913
226	0x3cbf392f	0.023342697
227	0xbd47a99d	-0.04874574
228	0x3d8cb9e1	0.06871391
229	0x3d995438	0.074867666
230	0x3badaa2f	0.0052998285
231	0xbcf676f5	-0.03008602
232	0x3da50b2b	0.08058771
233	0x3c76fb72	0.015074598
234	0x3cee8e50	0.029120594
235	0xbd3e16e3	-0.046408545
236	0xbd02d594	-0.031941965
237	0xbd7d97f2	-0.061912484
238	0x3bd0e192	0.0063745463
239	0xbcb6b909	-0.022305029
240	0x3d05e9fb	0.032693844
241	0xbd67e80f	-0.056617793
242	0xbd95648e	-0.0729457
243	0x3c70fa5a	0.014708126
244	0x3daecee6	0.085355565
245	0x3bd7bd65	0.006583857
246	0xbd66ab1f	-0.056315538
247	0xbd77d247	-0.06050327
248	0xbc3c9df2	-0.0115122665
249	0xbd1b82f5	-0.037966687
250	0xbcba485d	-0.022739584
251	0x3d7d1bc3	0.061794054
252	0xbdc68114	-0.096925884
253	0xbdb74638	-0.0894894
254	0xbaa9e5ea	-0.0012962196
255	0xbd112221	-0.03543294

fcIn.bias f4 [30]
0	0x3c95322e	0.018212404
1	0x3d7d6965	0.06186809
2	0x3eaaa83d	0.3333148
3	0xbd0cf318	-0.03441152
4	0x3de94697	0.11390417
5	0x3e3f1562	0.186605
6	0xbd527e38	-0.051389903
7	0x3de006c0	0.109387875
8	0x3e6d83d6	0.23194823
9	0x3be40a60	0.0069592446
10	0x3dccd507	0.10001569
11	0x3e89c65a	0.26909143
12	0x3d2b588c	0.04183249
13	0x3d9398b2	0.07206859
14	0x3df51b99	0.119681545
15	0xbda67556	-0.08127849
16	0x3a48fb20	0.0007666815
17	0xbc145c65	-0.009055232
18	0xbade9c37	-0.0016983812
19	0xbdaa107e	-0.08303927
20	0x3db2cde7	0.08730679
21	0xbe1b7435	-0.15181048
22	0xbd3b3737	-0.045706954
23	0xbdc84ca8	-0.09780246
24	0x3e3dfcd8	0.18553483
25	0xbc87642f	-0.016527263
26	0xbd3ba50a	-0.04581169
27	0xbd12288e	-0.035683207
28	0xbb935c69	-0.0044971
29	0x3d997e08	0.07494742

fcOut.weight f4 [2, 30]
0	0x3e99b4b7	0.30020687
1	0x3ef8085a	0.48443872
2	0x3d9e313c	0.077242345
3	0x3e9eee20	0.3104105
4	0xbe1a1cf1	-0.15050103
5	0xbc8c3483	-0.017114883
6	0x3e6a26fa	0.22866431
7	0x3d22f197	0.03978118
8	0x3e6a7a6e	0.22898266
9	0xbe8ac206	-0.27101153
10	0x3f2328ea	0.63734305
11	0x3ea00105	0.31250778
12	0x3e1b63a3	0.15174727
13	0xbe56ee3b	-0.20989315
14	0xbf0e3e4b	-0.555638
15	0xbe8cf121	-0.27527717
16	0xbd9ac32a	-0.07556756
17	0xbf427d70	-0.7597265
18	0x3d5b22e0	0.053500056
19	0xbf596d7c	-0.84932685
20	0xbe881944	-0.26581776
21	0x3e3620b0	0.17785907
22	0xbef42f4d	-0.47692338
23	0x3e03f401	0.12886049
24	0xbeaab3f5	-0.3334042
25	0x3eb06667	0.34453127
26	0x3be594b0	0.0070062503
27	0x3df5a0d8	0.11993569
28	0xbe4071e1	-0.18793441
29	0x3d484bce	0.048900418
30	0xbe9b6464	-0.3035003
31	0x3c53fe35	0.012939026
32	0x3e9bbe84	0.3041879
33	0x3efd8e2f	0.4952254
34	0x3dd8d792	0.10587992
35	0x3df5cca4	0.12001923
36	0xbd813d8a	-0.06310566
37	0x3db1aa3b	0.08675047
38	0x3cd5c430	0.026094526
39	0x3dede0b4	0.11615124
40	0x3dbd2d30	0.092371345
41	0x3e15dcd7	0.14635025
42	0x3ec32a9c	0.38118446
43	0xbe21887d	-0.15774722
44	0x3ec1c43a	0.3784502
45	0xbdb8006c	-0.089844555
46	0x3dfeecdf	0.12447523
47	0xbdc8f2c9	-0.098119326
48	0xbe481aeb	-0.19541518
49	0xbe1966e3	-0.14980654
50	0x3e47fe20	0.19530535
51	0xbddd9dac	-0.10821089
52	0x3d149e72	0.036283918
53	0x3e144427	0.14479123
54	0x3cd473b0	0.02593407
55	0x3e9e932a	0.30971652
56	0xbe2ec857	-0.17068611
57	0xbd7281d7	-0.059205856
58	0x3e9c371a	0.3051079
59	0x3d912abb	0.07088228

fcOut.bias f4 [2]
0	0x3e2b0081	0.16699411
1	0x3f271ff2	0.6528312
