PyTorch/NN/Model.pt (torch, 12895 bytes, 4 tensors)

fcIn.weight f4 [30, 92]
00000000: b677 8ebd 1ebb b9bd 8670 acbd e272 77bd
00000010: 4747 27be a4b6 c5bd 2c4b 91bd ad77 40be
00000020: f105 dfbc 64b0 15bd 38ae 54bd 3b9f 33be
00000030: 7c40 d1bd 3cf8 4cbe 5545 73be 232d 18be
00000040: b5e1 6fbe b7b5 43be a0dc 39be bc7e 26be
00000050: b228 36be 8713 8abd 0daa 71be f0e3 42bd
00000060: 607d efbd eefd abbc e543 87bd e056 1ebe
00000070: a138 17be f373 853c 0359 5b3d c817 953c
00000080: 27aa 73bd 6246 3fbd 08c6 8abd f02a a1bd
00000090: b652 0a3d 9d9d 31bd 8843 a83d 976e aabd
000000a0: 1f07 17bd 7585 bfbd 32e9 92bd 4994 453c
000000b0: f45b 1b3d c23f 2fbd 30c3 05be 9360 3fbe
000000c0: 6c9e 52be 455b 35be 2618 c6bd 6b54 d8bd
000000d0: ab0c 12bd 7d2f 76bd b534 04be 0366 50bd
000000e0: ecbd 21bc d31b d0bd d0c1 68bb e013 843c
000000f0: 3a7d 28be e1f0 0a3c bf19 d1bd a6a4 35be
00000100: 31a2 a4bd fe04 a6bd d6c8 5dbe 686d a9bd
00000110: 3bfb 7abe 1255 efbc 7724 9dbd e673 c2bc
00000120: 66bb 1dbe 2172 1cbd d39f 18be a1ba 843b
00000130: 66fa c5bd f695 b6bd ef9d 96bd 3682 11be
00000140: 9f97 99bd 9464 f6bd 63bc 4abd a174 2abd
00000150: a541 b5bc 29b6 e7bd d29c 303d c7b0 08be
00000160: cb8a 81bd 640c 41bc 1c88 eb39 0998 b2bd
00000170: 1c36 ebb9 9d9f 05be 9580 2dbe 03d3 c0bd
00000180: 8938 82bd f3c3 463c 8cb9 cabd 81ee 7abc
00000190: c918 efbd d622 b53c 1eb3 03be 1693 8cbd
000001a0: c3bd c0bd d159 37be 98e4 c9bd 2adf 23be
000001b0: 010b 213b faf4 f9bd a469 73bc 2874 4ebd
000001c0: 3f6a 98bd 3e76 0abe 7756 a4bd 6c1a 92bd
000001d0: ea57 f4bc d07d bcbd d42b 8cbd e053 953c
000001e0: a52a 98bd ed21 0ebd e0f8 4fbd 511b b6bd
000001f0: c292 0bbe 3976 793d 2e03 fbbc f235 a33c
00000200: 8e63 39bd 984d b0bd 6227 23bd afb5 80bc
00000210: dcfa df3b 0157 273d 1e1d 523d 3011 bf3d
00000220: 0c7e 8c3c 618a cc3d eb1e 83bd f2e2 a4bc
00000230: 92af c1bd f415 1fbe 2c9b a8bc d594 e1bd
00000240: b329 2ebe dd0f 92bd 814d 19be eef1 e5bd
00000250: 1d17 953c 5dfe d2bd 06e6 16be 926f c7bd
00000260: 69e9 b9bd ee6b 90bd 749a 18be e4be 12be
00000270: 89ab e3bd 9f59 96bd 458d 9ebd caa7 853c
00000280: 094c c8bb 12e2 503d e189 eabd 8de2 833b
00000290: 53c9 723c 97c3 f2bc 0edc 723d e6bc 9abd
000002a0: ba04 05be 2570 c0bd 1a8d 89bd e3a7 acbd
000002b0: a5ab 3bbd b4d2 01bd 040b bbbd afee d33b
000002c0: 9859 d93b 1e30 fcbd c69b 18bc e86d 9f3d
000002d0: a904 caba de38 b0bd 57a2 cb3c 43c3 193c
000002e0: cbaf 373d 18a9 813d 1247 8c3d 4a22 4b3d
000002f0: d481 9e3d 8376 e93d a61c b13d b69e 89bd
00000300: 69c8 6d3d d25d bd3d fb12 9f3d f691 853d
00000310: f8f4 973d f2b9 623d fe62 babb 6c1b 92bc
00000320: baca 0bbd df2d cd3d abc6 603c a1f9 33bd
00000330: b438 f53d 1344 c83d eb2b ffbb f6cd 76bd
00000340: 4ff6 8e3d 8a8d a03c 0a15 8f3d c67a 91bc
00000350: a2ae c63d 2406 343d 6995 d03d 1729 9d3d
00000360: 7514 b83d 5329 8d3c acc2 2d3d 8c90 f33d
00000370: 04ae 2d3c 4699 1e3d 2c0d 343c 22cb 073e
00000380: ce93 eb3d 8db4 093d de93 8bbc 66fe 5e3d
00000390: b1d0 0e3e 0199 11bd 9833 b9bd 1bde 153d
000003a0: e565 d03c 7b06 923d e123 eebd 31fc 9ebd
000003b0: 5d58 76bd 3fea 7c3d 5181 ad3d 3005 44bd
000003c0: 4c6c cebd 605b 823d d1d4 9cbd 8dd3 d3bd
000003d0: 36cd ea3c 6e45 693c ee4f b1bd 095a 8c3d
000003e0: 5dea 5cbd f26f a73d 222a 86bd 0ac8 8cbd
000003f0: 829f 3bbd efce d8bd f719 31bd 956b a13d
-0.06956427 -0.09068893 -0.084199 -0.060412295 -0.16335784 -0.096539766 -0.07094416 -0.18795653
-0.027224513 -0.036545172 -0.05192396 -0.1754121 -0.102173775 -0.20016569 -0.23756917 -0.14860968
-0.23425944 -0.19112287 -0.18150568 -0.16259283 -0.17788962 -0.06742006 -0.23600025 -0.04758066
-0.11693835 -0.020995107 -0.06604747 -0.15462828 -0.14767696 0.01629064 0.053551685 0.018199816
-0.05948844 -0.04669798 -0.06776053 -0.07869518 0.033770286 -0.043363202 0.082160056 -0.083218746
-0.036872026 -0.09351627 -0.07173385 0.01205928 0.03792949 -0.042785414 -0.1306274 -0.18689184
-0.20568246 -0.17710598 -0.09672575 -0.105629764 -0.035656612 -0.060103882 -0.12910731 -0.050878536
-0.009871941 -0.10161557 -0.0035515912 0.016122758 -0.1645402 0.008480282 -0.10209989 -0.1773859
-0.08038748 -0.08106421 -0.21658644 -0.08272821 -0.245099 -0.02921537 -0.07672971 -0.023736905
-0.15403518 -0.03819478 -0.14904718 0.004050568 -0.096669 -0.089153215 -0.07354342 -0.14209828
-0.074996226 -0.120309025 -0.049496066 -0.041615132 -0.022126028 -0.11314041 0.043118306 -0.13348685
-0.06325301 -0.011782739 0.00044924102 -0.08720405 -0.00044863007 -0.13049169 -0.16943581 -0.09415247
-0.063584395 0.012131679 -0.098986715 -0.015315653 -0.11674649 0.022111338 -0.12861297 -0.06863992
-0.09411194 -0.17905356 -0.09858054 -0.16003099 0.002457321 -0.12204929 -0.01485673 -0.050403744
-0.0744214 -0.13521668 -0.08024304 -0.07133946 -0.029827077 -0.09203684 -0.06844297 0.018228471
-0.07430009 -0.034700323 -0.050774455 -0.08891929 -0.13630202 0.06090376 -0.030641165 0.019923184
-0.04526096 -0.0860855 -0.03983248 -0.015711633 0.0068353247 0.040854458 0.0512973 0.0932945
0.017149948 0.09987331 -0.064023815 -0.020127747 -0.094573155 -0.15535718 -0.020581804 -0.110147156
-0.17008094 -0.07131932 -0.14970972 -0.11227785 0.018199498 -0.10302422 -0.14736184 -0.09738077
-0.090777226 -0.07051836 -0.14902669 -0.14330631 -0.11116702 -0.073413126 -0.07741789 0.01631536
-0.0061125797 0.050996847 -0.114520796 0.0040248097 0.014818507 -0.02963428 0.05929189 -0.07555561
-0.12990084 -0.0939639 -0.06716366 -0.08430459 -0.04581799 -0.031695083 -0.091329604 0.0064676623
0.006632995 -0.12313865 -0.009314483 0.07784635 -0.0015412766 -0.086045966 0.024857683 0.009384933
0.044845384 0.0633108 0.06849493 0.049593247 0.077396065 0.113995574 0.086480424 -0.06719725
0.058052454 0.092464104 0.07767292 0.065219805 0.07419771 0.055353113 -0.0056880703 -0.017835341
-0.034128882 0.10018515 0.013719241 -0.043939237 0.11973706 0.09778609 -0.007787218 -0.060255013
0.069805734 0.019598741 0.06986435 -0.017758738 0.09701277 0.04395117 0.10184748 0.07673853
0.08988277 0.017231619 0.04242198 0.118928045 0.010600571 0.03872039 0.010989469 0.13261083
0.11502801 0.033619452 -0.017038282 0.054441832 0.13946797 -0.035546307 -0.09043044 0.03658877
0.025439212 0.07130142 -0.11627937 -0.077629454 -0.060142864 0.061746832 0.08471931 -0.04785651
-0.1007925 0.06365085 -0.07657779 -0.103430845 0.028662305 0.014237745 -0.086578235 0.0685311
-0.053934444 0.08175649 -0.06551005 -0.06874092 -0.045806415 -0.105863445 -0.043237653 0.07881848

fcIn.bias f4 [30]
00000000: 1e1e 8c3e 2395 773e f611 ffbc 08f0 43be
00000010: 63c8 3fbd 761a 58bd e14b ce3d 62c7 3ebd
00000020: ae31 2a3e bb38 543e f20c f8bc d26d 87bc
00000030: b734 f33d 0d31 b0bd 0b80 87be 3b42 3c3e
00000040: 196b 853e f948 923d 5ca6 a6bd 8a43 9b3d
00000050: d867 563c ff66 a43e cdf7 a4bd 84f9 89be
00000060: f330 dabc 3e59 b2bd 87f6 9e3d f832 133e
00000070: 79cf 253c 7e14 23be
0.27366728 0.24177985 -0.031136494 -0.19134533 -0.046821963 -0.05275961 0.100730665 -0.046576865
0.16620514 0.20724766 -0.03027961 -0.016531859 0.11875289 -0.08603106 -0.26464877 0.1838464
0.26058272 0.07142825 -0.08137199 0.075812414 0.013086282 0.3210983 -0.08055077 -0.26948178
-0.026634669 -0.08708428 0.07761865 0.14374912 0.010120266 -0.15925786

fcOut.weight f4 [2, 30]
00000000: a809 59be 7e4c e63d a221 333f bd3a 56bf
00000010: f18f 14bf 3737 d23e 2df1 a53f ffa2 ad3e
00000020: 0062 2abe 660a b3bc 27d5 18be 2180 babe
00000030: 1d0d 423e 3bc6 d13c a1f9 a5be c52e d8bd
00000040: 0cf0 16bf 11d7 02bf dbe7 123e 5603 26bd
00000050: c1ea 6c3e 76ce 15be cc64 7fbf d9f0 6a3e
00000060: 795c 8c3d ccd9 aa3d b5aa 1dbe b5b5 f3bc
00000070: 74bc a83d 819c 3c3f b8b9 723d 38dc 36be
00000080: 3e52 9a3d 4ec6 e13c 4be4 9fbe b8ad 433c
00000090: 3d2d 9c3e 9b53 0b3f fe05 1dbe ca91 66bb
000000a0: 8ef1 fc3d aab1 963e 26d2 02be aca7 0d3d
000000b0: b4f4 9bbd e0e4 dfbd baef 4c3f 4b2d 873c
000000c0: c399 20be 9732 973b a75c 46be 8e17 7bbd
000000d0: 3b19 483e 78f4 293e c998 913c a788 54be
000000e0: 2b29 543d d990 623d 0df9 413e df15 a73d
-0.2119509 0.112450585 0.69973195 -0.8368338 -0.5803214 0.4105775 1.2964226 0.3391342
-0.16638947 -0.021855544 -0.14925061 -0.3642588 0.18950315 0.025607219 -0.32417014 -0.105557956
-0.5896003 -0.51109415 0.14346258 -0.040530525 0.23136427 -0.1462954 -0.9976318 0.22943439
0.06853575 0.08342323 -0.15397151 -0.02974973 0.082390696 0.73676306 0.059259146 -0.17857444
0.07535218 0.02756038 -0.3122886 0.011943273 0.30503264 0.54424447 -0.15334317 -0.0035182112
0.123507604 0.29432422 -0.12775478 0.034583732 -0.07615033 -0.10932326 0.80053294 0.01650109
-0.15683655 0.004614185 -0.19371282 -0.06130176 0.19540875 0.16597164 0.017773049 -0.20755254
0.051797073 0.05531392 0.18942662 0.081584685

fcOut.bias f4 [2]
00000000: d11d 613e 8cd7 833f
0.2198403 1.0300155
