PyTorch/NN/Model.pt (torch, 12895 bytes, 4 tensors)

fcIn.weight f4 [30, 92]
0	0x3bcb050c	0.00619567
1	0xbd152cec	-0.036419794
2	0xbd879064	-0.06619337
3	0xbccd112b	-0.0250326
4	0x3b53f18c	0.0032340018
5	0xbdc2397d	-0.09483621
6	0xbd8068d1	-0.06269992
7	0xbdc4e444	-0.09613851
8	0x3bd259bf	0.00641939
9	0xbbff2316	-0.007786165
10	0xbd0e7ba0	-0.034785867
11	0xbdf4db48	-0.11955887
12	0x3c5444a1	0.0129558155
13	0xbc206309	-0.009789237
14	0xbd4fc2ac	-0.050722763
15	0x3c427002	0.011867525
16	0x3c553884	0.013013963
17	0x3c1fd6df	0.009755819
18	0xbdc512b0	-0.09622705
19	0x3d8ba5d6	0.0681874
20	0xbd830c03	-0.063987754
21	0xbc240c28	-0.010012664
22	0x3d57ac47	0.05265453
23	0x3c3316cf	0.010930731
24	0x3dcf8dba	0.10134454
25	0xbd83da63	-0.06438138
26	0xbc9c3056	-0.019066017
27	0xbbb48d78	-0.0055100285
28	0x3d967fd3	0.07348599
29	0xbc93fbf9	-0.018064486
30	0xbcff047b	-0.031130066
31	0x3d247f3d	0.040160406
32	0x3d92dd9c	0.07171175
33	0x3c6b7f8c	0.014373671
34	0x3d78d900	0.060753822
35	0xbdc6684c	-0.09687862
36	0x3c6adbe4	0.014334653
37	0x3d99d717	0.07511728
38	0xbcc82e04	-0.024436004
39	0x3d61f18e	0.055162005
40	0x3d46b815	0.048515398
41	0x3d9efbd5	0.07762877
42	0x3dc655bc	0.09684321
43	0x3dc97085	0.098359145
44	0xbd283000	-0.0410614
45	0x3d788e60	0.060682654
46	0xbdad5ecd	-0.084653474
47	0x3d404ade	0.0469464
48	0xbd9c0148	-0.07617432
49	0xbe1c7d28	-0.15282118
50	0xbe12aae7	-0.14323007
51	0xbe18fec4	-0.14940935
52	0x3d149238	0.036272258
53	0x3c27cb1b	0.010241295
54	0xbd120fab	-0.035659473
55	0xbdb215b9	-0.086955495
56	0xbdf089b1	-0.117450126
57	0x3c4bbb38	0.012434773
58	0xbdf5ca6f	-0.12001502
59	0xbc6fe679	-0.014642351
60	0xbcf0d992	-0.02940062
61	0xbd20e9de	-0.039285533
62	0xbdc8386b	-0.09776386
63	0xbdf45bed	-0.11931596
64	0xbdafd229	-0.08585007
65	0x3ba89739	0.0051449803
66	0xbc9421e6	-0.01808257
67	0x3c4a4ad0	0.012346938
68	0xbdb16382	-0.08661558
69	0xbdd860f2	-0.10565366
70	0x3d65dead	0.056120563
71	0xbd49c8aa	-0.049263634
72	0xbd1c1f5e	-0.03811585
73	0xbe144ac1	-0.14481641
74	0xbe02557b	-0.1272792
75	0xbe15949f	-0.14607476
76	0xbdf3e263	-0.11908414
77	0xbd8c4eed	-0.068509914
78	0x3c4e110f	0.012577309
79	0xbd9a7938	-0.07542652
80	0x3c55f149	0.013058015
81	0x3ce811b3	0.028328752
82	0xbe16bdad	-0.14720793
83	0xbc178f30	-0.009250447
84	0xbc340400	-0.010987282
85	0xbda58170	-0.08081329
86	0x3cc09303	0.0235076
87	0xbdde7098	-0.10861319
88	0xbe020476	-0.12697014
89	0xbc47ada3	-0.012187394
90	0xbe1dfcf8	-0.15428531
91	0x3b26a77e	0.0025429423
92	0xbd73e88d	-0.05954795
93	0x3c8f98a5	0.017528841
94	0xbd20cd8b	-0.03925852
95	0x3a8a9ea9	0.0010575849
96	0x3d866f7d	0.065642335
97	0xbc81b20b	-0.015831968
98	0xbc8dc015	-0.017303506
99	0xbd281525	-0.04103579
100	0xbd7a08be	-0.061043493
101	0xbd3ff661	-0.046865825
102	0x3da9c7d7	0.082900696
103	0xbb2b847d	-0.0026171498
104	0x3d10ee94	0.035383776
105	0xbd1f8e72	-0.038954206
106	0x3d46810f	0.048462924
107	0xbd0b5241	-0.03401399
108	0x3dc4de96	0.096127674
109	0xbd1eb560	-0.03874719
110	0x3dcb85c9	0.09937627
111	0xbd82750c	-0.06369981
112	0xbcb62a2c	-0.022236906
113	0x3c716214	0.014732856
114	0xbdb024df	-0.086007826
115	0xbd09772f	-0.033560928
116	0x3d9733de	0.0738294
117	0x3dc17cc7	0.094476275
118	0x3cf7f705	0.030269155
119	0xbd68786a	-0.05675546
120	0x3c63db92	0.01390733
121	0xbdad4b30	-0.084616065
122	0x3d98047a	0.07422729
123	0x3dbc4d5c	0.09194443
124	0xbdb1623e	-0.08661316
125	0xbc368e72	-0.01114236
126	0xbd319f00	-0.043364525
127	0xbd0ea155	-0.034821827
128	0xbda21ede	-0.07916044
129	0xbda674c3	-0.08127739
130	0x3ce386ea	0.027774293
131	0xbd43dd1a	-0.04781828
132	0xbd73f7fa	-0.05956266
133	0xbd04a5a6	-0.032384537
134	0x3dac4667	0.08411866
135	0x3d1e6438	0.038669795
136	0x3db5e30f	0.088811986
137	0xbd12f44e	-0.03587752
138	0xbc5dd564	-0.013539646
139	0x3cc52c5f	0.02406901
140	0xbdc769da	-0.097369865
141	0xbdcd8980	-0.10035992
142	0x3db0da75	0.08635417
143	0xbcb7eade	-0.02245086
144	0xbd5c7b4a	-0.053828515
145	0x3d9ae2c8	0.07562786
146	0x3da27f5b	0.079344474
147	0x3d79e75d	0.06101166
148	0x3da13d8f	0.078730695
149	0x3d189dfb	0.037260037
150	0x3dcbe574	0.09955874
151	0x3d821b37	0.06352847
152	0xbdcef7a6	-0.10105829
153	0x3d98be78	0.07458204
154	0x3dbf42d4	0.09338918
155	0x3c6f9bd0	0.014624551
156	0x3d5f1601	0.054464344
157	0x3da12a43	0.07869389
158	0x3b8b933f	0.0042594965
159	0x3d0151e9	0.031572256
160	0x3daa9f52	0.08331169
161	0xbd59960b	-0.053121608
162	0x3d54a74e	0.051917367
163	0xbd031eb1	-0.03201169
164	0x3c0e8097	0.00869765
165	0x3d445a58	0.04793772
166	0x3db7d427	0.08976012
167	0x3d42abb7	0.04752704
168	0xbde37bc5	-0.111075915
169	0xbd5535e8	-0.052053362
170	0xbd18934a	-0.03724984
171	0xbd023d6c	-0.031796858
172	0x3d6e949f	0.058247205
173	0xbccdccec	-0.025122128
174	0xbd95a67b	-0.07307144
175	0xbd6765da	-0.056493618
176	0xbd78ee0c	-0.060773894
177	0xbd4fc464	-0.050724402
178	0x3d6d6d61	0.05796564
179	0xbc7b2100	-0.015327692
180	0x3d838242	0.06421329
181	0xbdc35920	-0.095384836
182	0x3dabded7	0.08392113
183	0x3cd38c12	0.025823627
184	0x3b5276c3	0.0032114245
185	0x3c489018	0.012241386
186	0x3ceff83b	0.02929317
187	0xbc9ac0c0	-0.018890738
188	0xbdb583e1	-0.088630445
189	0xbdccca35	-0.099995054
190	0xbd1495d8	-0.036275715
191	0x3d4d859b	0.050176244
192	0x3d2e80cd	0.042603303
193	0x3ccfb4f7	0.025354845
194	0x3b81bfd7	0.0039596367
195	0xbe13257c	-0.14369768
196	0x3d232145	0.03982665
197	0xbd51c705	-0.05121519
198	0xbdeda093	-0.11602893
199	0xbd2cb429	-0.042164
200	0xbca6fe9e	-0.020385083
201	0x3d3a6b31	0.045512382
202	0xbe20296d	-0.15640803
203	0xbd5521e1	-0.052034263
204	0xbdcf5afa	-0.10124774
205	0xbce5de37	-0.028060062
206	0xbdb3abfa	-0.08773036
207	0x3da025d6	0.07819717
208	0x3d5683a1	0.052371625
209	0xbbdfc038	-0.006828334
210	0xbd9e6329	-0.07733757
211	0xbd157e21	-0.03649724
212	0xbd421336	-0.047381602
213	0xbcaebfc2	-0.021331672
214	0x3bff7069	0.0077953828
215	0xbdf76da6	-0.12081461
216	0xbd1cecb0	-0.03831166
217	0x3d39d62d	0.04537027
218	0xbc671840	-0.014104903
219	0x3d0c2120	0.034211278
220	0xbd3896e3	-0.04506577
221	0x3c23d64c	0.009999823
222	0xbd9e37f1	-0.07725514
223	0xbd37e80e	-0.04489904
224	0xbd876eb7	-0.06612914
225	0xbcd2d6a1	-0.025737109
226	0x3b5eb05a	0.0033979625
227	0xbd50ed07	-0.051007297
228	0x3dfd6fcd	0.1237484
229	0x3e056034	0.1302498
230	0x3c75377b	0.014966841
231	0xbe13d7c5	-0.14437778
232	0xbd64beca	-0.055846013
233	0xbd951ce2	-0.072808996
234	0xbe0c336a	-0.13691488
235	0xbe096692	-0.13418034
236	0xbe133d6f	-0.14378904
237	0xbd1c306c	-0.038132116
238	0xbc86d451	-0.016458662
239	0xbd7d04d4	-0.061772183
240	0xbd4d255e	-0.050084464
241	0xbd51dbec	-0.051235124
242	0xbd4795fc	-0.04872702
243	0xbd902e25	-0.07040051
244	0x3d5f4f52	0.054519005
245	0xbb44ccfd	-0.003002941
246	0xbe01fdb2	-0.12694433
247	0xbd99c761	-0.07508732
248	0xbd94ee1d	-0.07271979
249	0xbdd16b20	-0.102255106
250	0x3c944c73	0.01810286
251	0xbdd76fcb	-0.1051937
252	0x3cdbfe01	0.026854517
253	0xbba90132	-0.005157613
254	0xbc5fa34a	-0.013649771
255	0xbd658067	-0.056030657

fcIn.bias f4 [30]
0	0x3e611671	0.21981217
1	0xbdd7d35f	-0.10538363
2	0x3dd8f2c9	0.105931826
3	0x3e860871	0.26178315
4	0x3c552f68	0.013011791
5	0xbce2eec6	-0.027701747
6	0x3d71f9e4	0.059076205
7	0x3e5b4bd2	0.21415642
8	0x3d7d6a71	0.06186909
9	0xbd9fcafc	-0.07802388
10	0x3dee7885	0.11644081
11	0xbce00b2e	-0.02734908
12	0xbd3b2ecc	-0.045698926
13	0xbdbd15e3	-0.0923269
14	0xbd15d022	-0.036575444
15	0x3d3fc28b	0.04681639
16	0x3e6d344a	0.23164478
17	0x3d132ad1	0.035929505
18	0x3a9d17f6	0.001198529
19	0x3dd3b43f	0.103371136
20	0xbe2f6248	-0.17127335
21	0xbcee801a	-0.029113818
22	0xbd9880de	-0.074464545
23	0xba746275	-0.00093225326
24	0xbbfbeb66	-0.007687974
25	0xbe40f75b	-0.18844359
26	0xbe6f75fa	-0.23384848
27	0x3e818bb6	0.25301903
28	0xbcf625d4	-0.030047335
29	0x3dcbc635	0.09949914

fcOut.weight f4 [2, 30]
0	0x3e1eeb4f	0.1551945
1	0x3aabc4e3	0.0013104941
2	0xbf126d82	-0.57198346
3	0x3f54c178	0.8310771
4	0xbe1d853f	-0.1538286
5	0x3ef47c37	0.47751018
6	0x3e447309	0.19184507
7	0x3e6100b0	0.21972919
8	0xbd90df3f	-0.07073831
9	0xbb6e3ad1	-0.0036350975
10	0xbee8a5aa	-0.45438892
11	0x3f2e576a	0.68102133
12	0xbe95e703	-0.2927781
13	0xbd4ebfb3	-0.050475787
14	0xbea24742	-0.3169499
15	0xbd28baff	-0.04119396
16	0xbe38324f	-0.17987941
17	0x3d8bd3c2	0.06827499
18	0xbe4bd792	-0.19906452
19	0xbf978b9c	-1.183948
20	0xbf38608b	-0.7202231
21	0xbe858700	-0.2607956
22	0x3e6f2a71	0.23356034
23	0xbd339d61	-0.04385126
24	0x3d8bd981	0.06828595
25	0xbec8187c	-0.3908118
26	0x3ec79df7	0.38987705
27	0x3cfb291b	0.030659249
28	0x3e095e0b	0.13414781
29	0xbe96c1d3	-0.2944475
30	0xbdfcfa01	-0.12352372
31	0xbde9d6df	-0.114179365
32	0xbe6d4733	-0.23171692
33	0x3ee68137	0.45020458
34	0x3ce40606	0.027834903
35	0x3e3baef2	0.18328455
36	0x3d95e79e	0.07319568
37	0xbe02d135	-0.12775119
38	0x3dfbfc4c	0.12303981
39	0xbb0ee34b	-0.0021802958
40	0x3e9442a8	0.28957105
41	0x3eaed63a	0.34147817
42	0xbc71aaef	-0.014750226
43	0x3c02b25b	0.007977094
44	0x3d49a1e3	0.049226653
45	0xbe264b08	-0.1623956
46	0xbe68f863	-0.22751002
47	0x3ec860ac	0.39136255
48	0xbdebed1b	-0.11519834
49	0xbe33a054	-0.17541629
50	0x3dd36426	0.10321836
51	0x3ebf6684	0.373829
52	0x3ed5c023	0.4174815
53	0xbda7a415	-0.08185593
54	0x3e7039f4	0.23459607
55	0x3e35529b	0.17707293
56	0xbe898c6d	-0.2686495
57	0x3d285a7e	0.041101925
58	0xbd1e97c1	-0.038718943
59	0x3ed6d27a	0.41957456

fcOut.bias f4 [2]
0	0x3eac1af7	0.33614323
1	0x3f40e1b5	0.753444
