PyTorch/NN/Model.pt (torch, 12895 bytes, 4 tensors)

fcIn.weight f4 [30, 92]
000000 d4 c5 2d 3d a3 1c 59 bb 8c c2 80 bd 63 bf 8f 3d
       0.04242499 -0.003312864 -0.06287107 0.07018926
000010 b9 3f aa bd a6 b3 91 bd eb c5 b4 bd 8e db 1b bd
       -0.083129354 -0.07114343 -0.08826812 -0.03805118
000020 dc 98 04 bd 90 9c 25 bc d2 48 ff 3a b7 93 b6 bd
       -0.03237234 -0.010108128 0.0019476658 -0.08914893
000030 df 46 ad bd 4f a8 b8 3c c3 b2 39 3d 7e 0c 7c bd
       -0.08460783 0.022541193 0.045336496 -0.06153535
000040 5f 5e e0 bd 3b 1c 64 3d 6d 9b 1e 3c 75 a1 fb 3c
       -0.109555 0.055690985 0.009680611 0.030716637
000050 b9 09 aa bd 33 75 82 3d aa a1 45 bd b1 12 d2 3d
       -0.08302636 0.0637001 -0.048249878 0.10257471
000060 98 1f e8 bd 19 1e 37 3d 87 db 38 bd 5b e4 b4 3a
       -0.11334151 0.044706438 -0.045131233 0.0013800965
000070 1f e3 7c bc 48 49 60 3d 16 fe a4 bc fc c6 4d bd
       -0.015435009 0.054757386 -0.020140689 -0.050238594
000080 57 93 18 bc 34 42 61 3d 8f a1 77 3d c4 3d 0f 3d
       -0.009312472 0.054994777 0.06045681 0.034971014
000090 22 8d 91 bd 38 05 66 bd 11 7d 51 3d 5e 05 0b bd
       -0.07106997 -0.05615732 0.051144663 -0.033940665
0000a0 cb 0c 6b bd f0 d5 db 3d c0 8c 2a bd c5 3c 00 3a
       -0.057385247 0.10734165 -0.041638136 0.0004891868
0000b0 5b 71 29 3e 48 06 6b 3d 64 55 e2 3d 77 91 65 bd
       0.16547148 0.057379037 0.11051443 -0.05604693
0000c0 81 c3 55 bd e2 21 0f 3e ef 54 0e bd 06 f4 05 3e
       -0.0521884 0.13977769 -0.034748968 0.13081369
0000d0 36 39 f9 38 38 2f 04 3e 5e 3b 05 3e 69 3e c6 bc
       0.000118839016 0.12908638 0.13010928 -0.024199681
0000e0 90 aa 13 3e a3 04 ec bb 72 c3 92 3d a8 c1 fc bc
       0.14420533 -0.007202701 0.071661845 -0.030854061
0000f0 44 88 7b 3d 02 0b 6d 3d 90 8e 92 3c a1 11 83 bc
       0.06140925 0.057871826 0.017890245 -0.015999617
000100 b3 39 38 bd ce 10 30 3d cd 6c 19 3c 0f 0c 18 3d
       -0.0449769 0.042984776 0.009364319 0.037120875
000110 5f b0 94 3d 62 55 37 bc 8a d6 2f 3d e0 96 5a bd
       0.072602026 -0.01118979 0.04292921 -0.05336654
000120 65 15 a4 3d 49 b6 c5 bc 53 76 a8 3c d4 88 7a bd
       0.08011893 -0.024134772 0.020564234 -0.061165646
000130 eb 6e 01 3e 12 01 a5 3d 70 b9 07 3e 6e f3 2d 3d
       0.12639968 0.08056845 0.13254333 0.04246848
000140 83 63 7d ba b1 d5 0d 3d 33 0e 40 3d 14 1b af 3d
       -0.00096660125 0.03462762 0.04688854 0.085500866
000150 ab 35 35 3d c5 f7 1a 3d c6 a3 dd 3d 4c 60 05 3c
       0.044240635 0.037833948 0.10822253 0.008140635
000160 34 83 c5 3b d6 f7 da 3d 93 35 c1 3d f6 9b ec 3d
       0.0060276035 0.10691802 0.094340466 0.11553185
000170 3b a3 fd bb 9c a6 5c 3d ff f6 95 3d 09 43 ce bd
       -0.007740406 0.05386983 0.073225014 -0.1007138
000180 4e ea 1e 3d d3 a7 e2 bd 94 6e 07 bd 6f 95 a1 3d
       0.03879767 -0.11067166 -0.03306444 0.0788983
000190 cc 87 c7 bc 50 c5 2d bd 90 ac ac 3d a4 86 74 bd
       -0.024356745 -0.0424245 0.08431351 -0.059698716
0001a0 8e 33 7f bd 46 1f ca bd 93 ea b4 3c 9a c8 55 3c
       -0.062305026 -0.09869246 0.02208451 0.013048315
0001b0 eb 53 9b 3d e2 a0 51 3c 0c c3 c7 3c f3 4a 4f bd
       0.075843655 0.012794705 0.024384998 -0.050608587
0001c0 f5 79 98 3d 71 87 18 3d 23 c3 36 bd 61 88 8d 3a
       0.074451365 0.037238542 -0.04461969 0.001079809
0001d0 3c 44 33 3d a7 1d 19 3d 70 0f ea 3c 4c 1c b7 3d
       0.043766245 0.037381794 0.028571814 0.08940944
0001e0 da 45 af 3d 41 3d a3 bc cf 62 a0 bc b7 da be 3d
       0.08558245 -0.01992667 -0.019578366 0.0931906
0001f0 b2 d8 c3 bd a9 02 97 3d f9 0f 12 bd c6 b5 cb bd
       -0.09562816 0.07373554 -0.035659764 -0.0994678
000200 ba d9 a2 3d a2 2c 3e bd ac c2 2f 3d 80 a6 27 3d
       0.07951684 -0.046429284 0.042910263 0.04093027
000210 8f d0 00 bc 66 46 1d 3d 0b a2 0b 3c de 2d 2e 3c
       -0.007862224 0.038397215 0.008522521 0.010631053
000220 16 7e 68 3d 82 8c 34 3d 5a 97 78 bd b9 1d 1a bd
       0.05676087 0.04407931 -0.060691215 -0.037626002
000230 13 f6 8b 3d ec 75 a8 bd b2 b3 0f 3d 35 a4 79 3d
       0.06834044 -0.08225617 0.03508348 0.060947616
000240 20 5d e7 3d d4 dc c5 bc 84 f5 05 bd 91 03 83 3c
       0.11297059 -0.02415315 -0.032704845 0.015992912
000250 ad 4c e0 3d 7e 7a a3 3c f4 a4 30 bd 43 b8 cc bc
       0.10952125 0.01995587 -0.04312606 -0.024990207
000260 99 84 55 bc 38 80 17 bd a1 7f 29 bd 68 74 6f bd
       -0.013032102 -0.036987513 -0.041381482 -0.058460623
000270 d7 1c d6 3d a2 5b 55 3d 86 9e 11 bd 24 39 93 3b
       0.104547195 0.05208934 -0.03555157 0.0044928957
000280 88 31 55 3b 2d d4 83 3d c6 36 9f 3d aa 85 b4 bd
       0.0032530744 0.06436954 0.07774119 -0.08814557
000290 f1 ad 3a bc 3b d9 30 bc c7 1c 3f bc 94 f5 6a 3a
       -0.01139401 -0.010793979 -0.011664576 0.00089629856
0002a0 43 01 e3 3d 92 73 24 bd 64 be 9a bc e5 c3 4e bb
       0.11084225 -0.04014928 -0.018889613 -0.0031549868
0002b0 e6 4b 9f 3d 8e 82 80 3d 08 0e a0 3c 88 6f 82 bc
       0.07778148 0.06274901 0.01953794 -0.015922323
0002c0 33 86 93 bd ac 7c 83 bd 36 0d 99 3d 11 52 7c bd
       -0.07203331 -0.06420264 0.07473223 -0.061601702
0002d0 bf ca a3 3d ff 71 6b bd 7f a8 a8 bd 36 ba 7b 3d
       0.07997655 -0.057481762 -0.08235263 0.06145688
0002e0 f2 e2 98 bd 17 a0 19 3d 54 90 7b 3b 60 b4 99 bd
       -0.074651614 0.03750619 0.0038385587 -0.07505107
0002f0 ea e0 9e 3d 7d 1c ad bd 99 a4 0f bd c7 fd 39 bd
       0.07757743 -0.08452699 -0.035069082 -0.045408037
000300 f6 46 a9 3d 48 e7 fa bb 9b ce e3 bc 62 e6 f6 bc
       0.08265488 -0.0076569654 -0.027808478 -0.030139152
000310 92 cd 72 bc a8 df 38 3d 87 99 b7 39 2f 65 9c 3d
       -0.01481952 0.04513517 0.00035018867 0.07636487
000320 8e c5 91 3d dd 8d 8d 3d 4a 0f 8d bd 3f 3a 6c 3d
       0.07117759 0.06911824 -0.06887682 0.057672735
000330 3e 32 76 3c f5 89 05 3d 4a dc 85 3d 39 5d cd bc
       0.015026627 0.03260227 0.065361574 -0.025068866
000340 70 95 ae 3b ed bd 06 3d 4a 16 80 bc cc a0 aa bd
       0.005327873 0.03289597 -0.015635628 -0.08331451
000350 b5 65 f2 bd d0 15 35 3d b2 a7 bb bc fd 5b 3d bc
       -0.11835805 0.044210255 -0.022907112 -0.011557576
000360 09 8d cf bd 84 9b 0c bd fe 6d dc bd 25 9e cd bd
       -0.10134322 -0.034328 -0.10763167 -0.10039929
000370 26 70 45 3d b9 8f 77 bb f1 ca 51 bd 36 3b ec 3c
       0.048202656 -0.0037774874 -0.05121893 0.028836828
000380 ad 59 db bc 29 02 84 3d c5 2b 62 3d de c1 86 3d
       -0.02677616 0.064457245 0.055217523 0.06579946
000390 1c 09 85 bd fc b1 78 3d 88 95 64 bb 25 4c 19 bd
       -0.06495878 0.060716614 -0.0034879167 -0.037426133
0003a0 35 82 27 3c 12 6f 10 bd 81 bb 5f bd 23 e1 7a bd
       0.010223915 -0.035262175 -0.054622177 -0.061249863
0003b0 20 fd bc bc b1 08 d2 3d 64 9e 11 3c 0b 37 53 3d
       -0.023069918 0.10255564 0.008887861 0.051566165
0003c0 64 eb 28 bd 71 ae 48 3c 79 c7 db 3b 9d 30 c7 3d
       -0.04124011 0.012248621 0.0067071286 0.09726069
0003d0 d0 eb 4e bd d2 c4 8d 3d a4 42 b2 bd 60 70 46 3d
       -0.050517857 0.06922306 -0.08704117 0.048447013
0003e0 6a bb b0 bc 13 72 1e 3d 11 f3 cf 3c 88 3f 46 bc
       -0.021573741 0.03868301 0.025384458 -0.012100108
0003f0 ef 41 76 3d 77 bf 55 3d 64 9c ed 3c 9b 28 ec 3c
       0.060121473 0.05218455 0.029005237 0.028827956

fcIn.bias f4 [30]
000000 76 91 06 3d 6e c3 f8 bd 8d 29 2c 3d b9 51 39 3d
       0.032853566 -0.1214665 0.042031813 0.045243952
000010 38 b8 42 3e 20 30 0e 3d 54 3a 18 3e 2c fe 01 3e
       0.19015586 0.034713864 0.14866 0.12694615
000020 83 cf d4 3e 4b 3e 60 3e 8e 02 27 be 5b 44 90 3d
       0.4156457 0.21898763 -0.16309568 0.07044288
000030 95 65 53 3e 1e 41 e6 bc 4a 38 00 3c ed 71 8b bc
       0.20644219 -0.028107222 0.00782592 -0.017022097
000040 dc c5 3e 3e 9e fd 37 be da cf 50 bd 9c 6e 87 bd
       0.18630165 -0.17967841 -0.050979473 -0.06612894
000050 3b 7d 86 3e fd e4 61 be 40 25 40 3e bd ff 7c be
       0.26267418 -0.22060008 0.1876421 -0.24706931
000060 ed 2a 42 3e a6 42 f4 3d 0e 2d cb 3e fb 85 90 3d
       0.18961687 0.11926775 0.39682811 0.07056805
000070 38 ee 7d bd 60 18 9c 3e
       -0.06199476 0.30487347

fcOut.weight f4 [2, 30]
000000 7a a6 d0 3e 60 4a 39 be 9e e7 11 bf e2 e6 dd 3d
       0.40752012 -0.18094778 -0.56994045 0.10835053
000010 a6 32 0e bf c6 95 52 3e e7 aa 31 be 95 51 b7 3d
       -0.55546033 0.20564947 -0.1735035 0.089511074
000020 1c c7 ad be 86 0d a7 3f 7a 30 c7 3a e5 b5 67 3f
       -0.3394097 1.3051002 0.0015196942 0.90511924
000030 11 ac 1b 3e 8a 7c 8a 3e 9b da e0 3e 82 37 b0 3c
       0.15202357 0.2704814 0.43916783 0.021510843
000040 60 27 37 be c4 3a e0 be 58 c0 85 3e 78 d7 db be
       -0.17886114 -0.43794835 0.2612331 -0.42937827
000050 00 32 d6 3d 3e 99 38 3e 31 a1 f6 bd 62 1b 39 3f
       0.104587555 0.18027207 -0.120424636 0.7230741
000060 30 6a 62 3c 4a 51 13 be 6c 5d 29 3d 24 d5 53 3f
       0.013819262 -0.14386478 0.04134886 0.827471
000070 3a 68 80 bf 9f e8 c0 bd 1f d2 dd 3d 20 11 ca 3b
       -1.0031807 -0.09419369 0.10831093 0.0061665922
000080 67 53 66 3e ff c0 1e 3e 89 35 19 bd 7c 8d 8b 3e
       0.22492753 0.1550331 -0.03740457 0.27256382
000090 5e d5 b3 3e 9d a0 94 be 4a 68 85 be 9c 6e 8f 3d
       0.35123724 -0.29028788 -0.2605613 0.07003519
0000a0 d0 b7 8a 3d d2 fa 00 3e f5 da 8c bd 3b 96 00 3f
       0.06773341 0.1259568 -0.068777 0.50229234
0000b0 b1 a2 13 3d 38 b0 e0 3c bd a9 68 3b 7c 84 e5 3c
       0.036043826 0.027427778 0.0035501563 0.028017275
0000c0 20 88 0c 3d 00 f4 e1 3e 47 26 05 bd 01 e4 c9 3d
       0.034309506 0.4413147 -0.032507207 0.098579414
0000d0 f6 28 7b bd 6b 4e 8e bd ac 89 c5 bd 53 b7 3b bd
       -0.06131836 -0.06948551 -0.096453995 -0.04582913
0000e0 57 fa 81 be 1e 83 bf 3e 4c 72 bb 3e 7e 54 af 3e
       -0.25386307 0.37404722 0.3661064 0.3424415

fcOut.bias f4 [2]
000000 a5 47 56 3d 70 cd 34 3f
       0.05231442 0.7062597
