PyTorch/NN/Model.pt (torch, 16979 bytes, 4 tensors)

fcIn.weight f4 [30, 126]
000000 eb 82 3c bd 74 ca 4a 3c 8b b1 6f 3b b5 86 23 3c
       -0.04602329 0.01237737 0.003657433 0.009980847
000010 71 a7 92 3c 46 db 2c bd c7 8e 52 3c 27 2e 84 bd
       0.017902108 -0.042201303 0.012851424 -0.06454115
000020 6f 32 a6 3d 4b 3f 1d 3c fe f5 bf 3c 8c c7 a1 3c
       0.08115088 0.00959761 0.023432728 0.019748472
000030 4e 0e 00 bd ac 08 b2 bd 62 79 9a bc 9a 7f 68 3d
       -0.031263642 -0.0869306 -0.018856708 0.056762315
000040 d0 3b 24 bd 9f 96 7c bd a2 7e 36 3c 28 2b 9b 3d
       -0.040096104 -0.06166708 0.01113859 0.07576591
000050 ae 9f d7 3b 43 2f a2 bd 8e 67 60 3d dc 92 9c 3d
       0.0065803146 -0.07919171 0.054786257 0.07645199
000060 52 02 9c bd c3 c4 2b 3d 74 0a 7c bd 41 3e a3 3d
       -0.0761763 0.041935693 -0.061533406 0.07970858
000070 66 86 aa 3d af 78 9d bd e0 85 2c bc 79 74 03 3d
       0.08326416 -0.07689034 -0.010529965 0.0320935
000080 c0 25 97 bd 6f 5e a1 3d 27 34 3e bd 4b 16 f4 bc
       -0.07380247 0.0787934 -0.046436455 -0.029795786
000090 25 bc 68 bd 1c 1e c6 3d 9d 16 39 3d 19 cb 40 3d
       -0.056820054 0.09673712 0.04518758 0.04706869
0000a0 b8 a0 1d 3d 22 aa 4a 3d 96 7c 80 bd fb 25 30 bd
       0.03848335 0.049478658 -0.06273763 -0.04300497
0000b0 43 e9 d1 bb 09 4e 7d bd 03 d6 c7 3c 89 fd 30 bd
       -0.006405981 -0.061842 0.02439404 -0.04321054
0000c0 01 31 be bd 62 e6 28 3d b3 b6 76 bd dd ad 89 bc
       -0.092866905 0.041235335 -0.06023283 -0.016806537
0000d0 b5 dd 49 bc 24 ee 55 bc 5f b9 27 bd f9 f5 8e 3c
       -0.0123209255 -0.013057265 -0.040948268 0.017451273
0000e0 3f 30 88 3c d6 81 73 bb 0f 45 9e 3c 1d 0f 2e 3d
       0.016624568 -0.0037156246 0.01932004 0.042494882
0000f0 5a 99 28 bd 66 47 59 3d 63 64 c9 3c 35 1b 32 bd
       -0.041161872 0.053046606 0.024584 -0.043482978
000100 4c fb b2 bd f5 9b aa bd 0b 55 a9 bc 40 ab 9f bd
       -0.08739337 -0.08330528 -0.020670434 -0.07796335
000110 ac 7e 05 bd 86 03 d6 bc 3c b5 e1 bc e2 ad 46 bd
       -0.032591507 -0.026124727 -0.02755224 -0.04850567
000120 ae c0 7c 3c 15 77 68 bd ef a4 df 3c 8d 62 8c 3d
       0.015426798 -0.05675419 0.027300326 0.068547346
000130 bc cc a6 3d cc 62 20 bd 02 d5 8e bc cf 50 71 bd
       0.08144519 -0.03915672 -0.017435554 -0.058914956
000140 40 42 90 bd 1c a1 92 3d 86 28 b7 bd 30 a0 86 bd
       -0.07043886 0.071596354 -0.08943276 -0.06573522
000150 4d e7 93 bd 64 74 86 bd 9a a9 08 3d 77 5c 88 3c
       -0.072218515 -0.065651685 0.03336487 0.016645653
000160 9a 3d 8a 3d 56 17 3e 3d 25 96 ee bb af 05 a2 3d
       0.06750031 0.046408974 -0.007281082 0.0791124
000170 d7 74 c4 3d 80 5e 93 3d 92 0c d1 3d ac b1 b2 bc
       0.09592598 0.07195759 0.10207476 -0.021813236
000180 bb b4 9c 3c ae 08 a2 3d 40 58 0f 3c a7 59 b3 3d
       0.019129148 0.07911812 0.008749068 0.08757334
000190 e9 96 79 3d 88 ab e4 3c 2f f9 c9 3d dc a7 ef 3c
       0.060934935 0.027913824 0.09861981 0.029254846
0001a0 0a 73 ca 3d 12 85 7b 3d d3 c0 7f bd 4d e3 28 bd
       0.09885223 0.061406203 -0.06243975 -0.041232396
0001b0 31 85 8d 3d f7 f3 ae bd 24 e0 5f bd 90 3b 14 3d
       0.0691017 -0.08542626 -0.054657117 0.036189616
0001c0 c4 5b 6a bd 95 c6 6e bd 29 66 11 bd a7 0e 78 bd
       -0.05721642 -0.05829485 -0.03549782 -0.06056085
0001d0 9f 67 4d 3c 9e 1b 7b bd f7 1f 7f 3d ba cd 5b bd
       0.012536912 -0.061305635 0.062286343 -0.053662993
0001e0 9b c4 3f bd 87 11 0a bd b0 55 8c 3d 41 63 3a bd
       -0.046818357 -0.03370812 0.06852281 -0.045504812
0001f0 1e f0 fc bc b7 66 b4 bd bc b5 de 3c 4d 99 95 3d
       -0.030876216 -0.08808654 0.027186267 0.073046304
000200 0c 33 d1 bb 6c 7b 88 3d 2f 96 15 3d 52 3e 70 bd
       -0.006384259 0.06664166 0.03652018 -0.058653183
000210 0a 40 51 3d 22 a7 38 3c 23 03 05 bd 53 7c 16 bd
       0.051086463 0.011270316 -0.032473695 -0.03673966
000220 e1 ad af bd df f6 36 bd ff ad 52 bd 63 32 db bd
       -0.08578087 -0.04466903 -0.051435467 -0.1070297
000230 30 b7 8f bd 6a 88 ac bc c7 20 66 bd d5 e2 d3 bd
       -0.07017362 -0.021061141 -0.056183603 -0.10345999
000240 cd 95 9c 3c 35 43 ae bd 5a a8 a7 3c b6 3f 4a 3d
       0.0191144 -0.085089125 0.020466018 0.049377166
000250 3a d2 eb bc 95 f7 62 3c 26 22 17 bd 01 a2 7c 3d
       -0.028786767 0.0138529735 -0.0368978 0.061677936
000260 c7 ec dc bc 45 7d 22 bc 16 d8 f6 bc 54 2d 8b bd
       -0.026968373 -0.009917562 -0.030132335 -0.06795755
000270 e1 7f 50 bd c2 55 b5 bd b8 16 eb bd a2 21 bf bd
       -0.050903205 -0.08854248 -0.11478943 -0.09332587
000280 bf d7 93 3c ff 78 71 bc b4 d0 32 3c a7 bd 00 3d
       0.018047212 -0.01473832 0.0109140165 0.031430867
000290 62 46 bb bc 76 2d c0 bb 2c 8d 53 bd 93 1d 62 bd
       -0.02286071 -0.0058647944 -0.051648304 -0.055203985
0002a0 60 26 89 3b 22 d4 f4 bc 9a 53 11 3d 9d 19 90 bd
       0.004185483 -0.029886309 0.03548012 -0.07036135
0002b0 9f 24 27 bb e8 6e cd 3d ef 33 09 bd ef 8c 7b 3b
       -0.0025504006 0.10030919 -0.033496793 0.0038383564
0002c0 1d 27 20 3d 60 02 c1 3d a2 20 7a bb 47 b2 82 3d
       0.0390998 0.09424281 -0.0038166423 0.0638166
0002d0 9f 33 79 3b 24 f7 49 3d 1a 66 2e 3d b8 0f ad 3d
       0.0038025153 0.049307957 0.04257784 0.08450264
0002e0 a4 3a 42 bd fc 17 4e bd f3 8a 2e bb 40 54 35 bc
       -0.047419205 -0.050315842 -0.0026633113 -0.01106745
0002f0 91 6f 84 3d 82 23 49 bd 10 cf 92 bd 70 3c 55 3d
       0.06466592 -0.04910613 -0.071684 0.05205959
000300 2c 10 8d bb 1e 6f 73 bc 90 bd 19 bd ea 49 1f 3d
       -0.0043049064 -0.014858035 -0.037534297 0.03888885
000310 74 06 3d bd a3 d4 ae bd d7 cb b5 bb a1 db 08 3c
       -0.046148732 -0.08536651 -0.0055479812 0.008353145
000320 f2 83 70 bc cc 3a f7 bc c2 c5 71 3c 4d af 89 3d
       -0.014679896 -0.030179404 0.014756622 0.06722889
000330 e7 1a 44 3d 51 7c 95 bd c6 9e 07 bd 4d 8e 65 3c
       0.04787722 -0.07299102 -0.033110403 0.014010978
000340 bf f1 e0 3c 93 61 5f 3d a9 e9 35 3d bc 24 ae bb
       0.027459024 0.054536413 0.04441229 -0.0053144377
000350 46 76 bf 3d ca 95 93 3d ae e0 34 3d 5c 11 6f bd
       0.09348731 0.07206304 0.044159584 -0.058366165
000360 40 a1 40 bd 69 14 dc 3b 14 4d ae 3c 9a 03 90 3d
       -0.04702878 0.0067163003 0.021276988 0.07031937
000370 5f 06 fa bc e1 b7 a7 3c cc 2b 99 3c b4 af 9c 3c
       -0.030520616 0.020473422 0.018697642 0.01912675
000380 b1 e7 d1 3d a5 a3 be 3d 1c c3 9a bc fe de ac 3d
       0.1024927 0.093085565 -0.018891864 0.0844097
000390 3b 2d ca 3d 69 d4 9a 3d ef 67 04 3e de 97 a9 3c
       0.09871908 0.07560045 0.12930273 0.020702299
0003a0 08 41 64 bd 45 27 84 3d db fb 3d bd 3b c4 2a 3d
       -0.05572608 0.064528026 -0.046382766 0.041691046
0003b0 6d ba 6a 3d a1 3e b1 bd 74 ed 67 3d 95 05 75 3c
       0.057306696 -0.08654524 0.056622937 0.014954944
0003c0 42 f7 49 bd c3 8a 83 bc 51 71 a4 3d a4 e9 44 3d
       -0.04930807 -0.016057378 0.08029426 0.04807438
0003d0 90 40 8c 3d 78 d8 9f 3d b2 fc 87 3d 47 bd a5 3d
       0.06848252 0.0780496 0.06639995 0.080927424
0003e0 03 1d ac 3d 78 51 63 bd f7 9f 9e bd cd a9 36 bb
       0.08403971 -0.055497617 -0.077453546 -0.0027872205
0003f0 fc 2c b5 3b 3b 82 7a bd 06 a6 cc 3d 1c af 24 3d
       0.005529044 -0.061159354 0.09992604 0.04020606

fcIn.bias f4 [30]
000000 ae f8 37 bd e7 00 86 3d f0 0c a5 3d ba d1 a9 bd
       -0.044914894 0.06543141 0.08059108 -0.08291955
000010 72 18 f5 3c 30 46 63 3e 6d 1d 14 bd 9c 26 72 3b
       0.029918883 0.22194743 -0.036160875 0.0036949283
000020 a8 40 60 3a 98 a0 55 3c e6 ae 90 be ae cd 99 3d
       0.00085545564 0.013038777 -0.28258437 0.075099334
000030 65 55 ee bc f3 25 26 bb 15 cc 81 3c 79 0b 4f 3e
       -0.029093454 -0.002535221 0.015844384 0.2021922
000040 ab 81 80 3e d8 4a 56 3e 0b 00 96 3d 8b 5b 8c 3d
       0.2509893 0.20926988 0.07324227 0.06853398
000050 19 b0 02 bd 0c d1 8f 3d ac 24 e0 bc d1 f2 e9 bc
       -0.03190622 0.070222944 -0.027361237 -0.028558167
000060 42 e1 80 3c 8f 2b 89 bd 52 fc 7d be f3 ef 5d 3d
       0.015732411 -0.06697761 -0.24803284 0.05418391
000070 94 51 24 3d f4 e5 fe 3d
       0.04011686 0.12446204

fcOut.weight f4 [2, 30]
000000 8d b3 18 3f 1e 2c 89 be e2 cc 04 3e 95 43 1f 3d
       0.5964897 -0.2679147 0.12968782 0.03888281
000010 ee a1 94 3e b6 2f 9e 3e 38 d8 34 3f a0 40 bf be
       0.29029793 0.30895776 0.70642424 -0.37353992
000020 5a 41 d6 bc 72 b9 14 be 01 98 82 b9 99 9d 09 be
       -0.026154209 -0.14523867 -0.00024908784 -0.13439025
000030 99 3b 1d 3f dd 2a 0f bf ff 23 12 be aa 84 03 be
       0.61419064 -0.5592478 -0.14271544 -0.12843576
000040 8d 83 0e bf 96 1c f8 bb 5e 3c 92 be 1f 9f c2 be
       -0.5566948 -0.007571767 -0.28561682 -0.38012025
000050 2b 70 cd bd eb 64 5c be 78 e3 1e 3f b7 ae a6 bc
       -0.1003116 -0.21522872 0.6206584 -0.020346982
000060 e4 37 39 be d8 78 a7 be e9 94 a7 bd 47 36 bc bc
       -0.18087727 -0.32709384 -0.08182699 -0.0229751
000070 c2 92 3c 3c 8f 60 f0 be 78 e3 4d 3e 28 1e 82 3e
       0.011509599 -0.46948668 0.20106304 0.25413632
000080 ea d8 f8 bc 85 1b 1d 3e db 98 b5 bd de b7 50 bd
       -0.03037687 0.15342529 -0.088670455 -0.0509566
000090 39 2c 6d 3e 9d 6b 18 3e 58 db 58 3c 7e 8c 5c 3d
       0.23161401 0.14884801 0.013235889 0.05384492
0000a0 59 27 9a bd b9 1a 64 be 9f d0 d6 3e 62 cd 34 bd
       -0.07527036 -0.22275819 0.4195604 -0.04414118
0000b0 81 fe 62 be 75 a9 91 bc 7c 64 64 be 16 a3 f2 bd
       -0.22167398 -0.017780999 -0.22303957 -0.118475124
0000c0 37 87 c8 3e 7e c3 b1 3e bb 79 ae 3e d0 8a 55 bd
       0.3916566 0.3471946 0.34077248 -0.052134335
0000d0 b2 63 9a 3e 2b d8 cb 3d cc 1c 9f be dc 73 70 3e
       0.30154186 0.0995334 -0.31076658 0.23481697
0000e0 81 05 81 3e 14 a9 2c 3d c5 c8 df bd ed ae b5 bd
       0.25199512 0.042153433 -0.109269656 -0.08871255

fcOut.bias f4 [2]
000000 fe d4 ce 3e c9 fe 47 3f
       0.40396875 0.78123146
