PyTorch/NN/Model.pt (torch, 16979 bytes, 4 tensors)

fcIn.weight f4 [30, 126]
0	0xbc25264d	-0.010079932
1	0xbd315390	-0.043292582
2	0xbd8b927a	-0.068150476
3	0xbd2b0140	-0.04174924
4	0xbd866bca	-0.06563528
5	0x3da64b77	0.081198625
6	0xbd8a8478	-0.06763548
7	0xbc4a9240	-0.01236397
8	0xbc001f0b	-0.007819901
9	0xbb726a95	-0.0036989797
10	0x3d66918a	0.05629114
11	0xbdbe2d91	-0.09286035
12	0x3c96d772	0.01841328
13	0xbd38ab80	-0.04508543
14	0xbd8db4a0	-0.06919217
15	0xbb3795f0	-0.0028012954
16	0x3d3f8d11	0.04676539
17	0x3c9585c3	0.01825226
18	0x3d42d3b6	0.047565185
19	0xbdaa3133	-0.08310165
20	0x3d902c9f	0.07039761
21	0xbda262ea	-0.079290226
22	0x3d980950	0.07423651
23	0xbce82d90	-0.028342038
24	0x3d0b2a2e	0.033975773
25	0xbc67f82e	-0.014158292
26	0xbd3082bc	-0.043093428
27	0xbd351888	-0.044212848
28	0xbc29356f	-0.010327681
29	0xbb85c37e	-0.0040821424
30	0x3d8c9364	0.0686405
31	0xbd6e329b	-0.05815373
32	0x3d19e0c9	0.037567887
33	0xbcfdd9d7	-0.030987663
34	0x3d2fde91	0.042936865
35	0x3d5133ee	0.051074915
36	0x3dbed33a	0.09317632
37	0xbd773cd7	-0.060360756
38	0xbd75e1ee	-0.060029916
39	0x3d34ee11	0.04417235
40	0xbc3c9b72	-0.01151167
41	0xbcbcdc2e	-0.023054209
42	0x3da74f28	0.08169395
43	0xbc477937	-0.012174896
44	0x3be605ac	0.007019719
45	0x3db650a6	0.08902101
46	0x3d4fde5f	0.05074918
47	0xbb0b9f3b	-0.0021304626
48	0xbd977a56	-0.073963806
49	0x3cf1de75	0.029525021
50	0x3d3a44f8	0.04547593
51	0x3d214928	0.039376408
52	0x3d8b6fcb	0.06808432
53	0x3bb5959a	0.0055415155
54	0xbd35a3d9	-0.04434571
55	0xbda0e804	-0.078567535
56	0x3bb3bf10	0.005485423
57	0xbd435df1	-0.04769701
58	0xbd33fc53	-0.043941807
59	0xbd1f967c	-0.038961872
60	0xbc9a42b9	-0.018830644
61	0x3d35bc88	0.04436925
62	0xbc84e4d8	-0.016222402
63	0x3d53d256	0.051714264
64	0x3cfeb734	0.031093217
65	0x3ca91edd	0.0206446
66	0xbc98ee0a	-0.018668193
67	0xbccb460e	-0.024813678
68	0x3da122fb	0.07868
69	0xbd8e950f	-0.069620244
70	0x3c6c5151	0.014423684
71	0x3cb4dc19	0.022077607
72	0x3d543df8	0.05181691
73	0x3d912f9e	0.070891604
74	0x3d21e95e	0.039529197
75	0x3d4c12b3	0.04982252
76	0x3daae1f7	0.083438806
77	0xbd44856e	-0.04797881
78	0x3d1d2291	0.038363043
79	0xbd342461	-0.043980006
80	0x3d68df30	0.056853473
81	0xbca5e751	-0.020251902
82	0x3d928740	0.07154703
83	0xbd168a49	-0.036752973
84	0x3d416976	0.047219716
85	0x3d5bc046	0.053650163
86	0xbd8692a9	-0.06570942
87	0xbcb5bba9	-0.02218421
88	0xbc21f1e2	-0.0098843295
89	0x3c7bc273	0.0153661845
90	0xbd40312e	-0.0469219
91	0x3da2ffac	0.07958922
92	0xbd2aa9e8	-0.04166594
93	0xbd5b8288	-0.05359128
94	0xbcee8d44	-0.029120095
95	0xbdac3589	-0.084086485
96	0xbd579530	-0.05263251
97	0xbd17324b	-0.036913197
98	0x3c0fbb48	0.008772679
99	0xbd91f423	-0.071266435
100	0x3d9c566c	0.07633671
101	0x3bb06988	0.005383674
102	0xbd1acfe5	-0.03779592
103	0xbcec47fe	-0.028842922
104	0x3c623ad0	0.013807967
105	0xbca41e3c	-0.020033948
106	0x3c8012d1	0.015633972
107	0xbd7e5214	-0.062089995
108	0x3d1bde5e	0.038053863
109	0xbcba6c74	-0.022756793
110	0x3cc762ae	0.024339046
111	0xbd3446b4	-0.04401274
112	0x3d9232e6	0.07138614
113	0x3d669853	0.05629761
114	0x3cc7570e	0.024333503
115	0x3d346692	0.04404313
116	0x3d25742f	0.040394004
117	0x3d8446df	0.0645883
118	0x3cafa79a	0.021442223
119	0xbaeed978	-0.001822277
120	0x3c3ce98d	0.011530292
121	0x3d83af13	0.06429877
122	0x379c2e3e	1.8618182e-05
123	0x3d33445f	0.043766376
124	0x3b877046	0.004133257
125	0x3d22d8dc	0.039757594
126	0x3daf29a4	0.08552864
127	0xbd850ca6	-0.06496553
128	0xbce2f1ec	-0.027703248
129	0x3dc3f572	0.09568299
130	0xbb5024bc	-0.0031760177
131	0x3ccfbde8	0.025359109
132	0xbd106ce8	-0.03526011
133	0x3d1b0063	0.037842166
134	0x3d0c2e85	0.034224052
135	0xbd06e22e	-0.032930546
136	0xbd3af20c	-0.04564099
137	0x3c3b50b3	0.011432814
138	0x3c91406f	0.01773092
139	0x3cfdbe7d	0.030974621
140	0x3d0729bf	0.032998797
141	0xbc45308b	-0.012035499
142	0x3da3a29d	0.079900004
143	0xbcd10b01	-0.025517942
144	0xbd66ebe6	-0.056377314
145	0x3ce46769	0.027881341
146	0x3d831eec	0.06402382
147	0x3dcff050	0.10153258
148	0xbced545d	-0.028970892
149	0x3b3bfea4	0.0028685713
150	0xbd4e78b1	-0.05040807
151	0x3d6cc6cd	0.05780678
152	0xbc1c960a	-0.0095572565
153	0xbbe840f1	-0.0070878197
154	0xbd7f00c7	-0.0622566
155	0x3d234204	0.03985788
156	0xbb697cf5	-0.0035627459
157	0xbd82aa1e	-0.063801035
158	0x3cebc48d	0.028780246
159	0x3c94b4dc	0.018152647
160	0x3dd4aa5a	0.103840545
161	0x3b37d441	0.0028050097
162	0xbd5b796a	-0.053582586
163	0x3d9d30ff	0.07675361
164	0x3d8342e8	0.06409246
165	0x3dda5a55	0.10661761
166	0x3dcf0541	0.10108424
167	0x3dbe303a	0.09286542
168	0xbced5d0e	-0.028975036
169	0xbdc5ec4c	-0.09664211
170	0xbd5ad0ad	-0.053421665
171	0xbdf9bb1f	-0.12193894
172	0xbd6c5d92	-0.057706423
173	0x3d0eaeba	0.0348346
174	0xbc3ba14a	-0.0114520285
175	0xbda66209	-0.081241675
176	0xbce1a302	-0.027543548
177	0xbc7ed3aa	-0.015553394
178	0xbdd740b7	-0.1051039
179	0xbda06072	-0.078308955
180	0xbdb4774f	-0.08811819
181	0xbc64496d	-0.013933522
182	0xbdde5000	-0.108551025
183	0x3b0d1027	0.002152452
184	0xbc2ec2d2	-0.010666566
185	0xbdb4a651	-0.08820785
186	0xbe037192	-0.12836292
187	0xbccf7ce9	-0.025328116
188	0xbbf958d8	-0.007609468
189	0xbd913f70	-0.07092178
190	0x3c6afca5	0.014342462
191	0xbdd8a592	-0.10578455
192	0xbd681cd4	-0.056668118
193	0x3ca92360	0.02064675
194	0xbd877911	-0.066148885
195	0xbd1f10b9	-0.038834307
196	0xbd920f16	-0.07131784
197	0x3d225b44	0.03963782
198	0xbbe84d9e	-0.007089331
199	0x3c83df5a	0.016097713
200	0x3c731b66	0.014838075
201	0xbdc7f5c5	-0.09763674
202	0xbdaf2b6e	-0.085532054
203	0xbd4b3e21	-0.049619798
204	0xbdccc933	-0.09999313
205	0xbdd3a1b7	-0.10333579
206	0xbccb5f02	-0.024825577
207	0x3d2b7333	0.04185791
208	0xbd7c8ee7	-0.06165972
209	0xbcda9ad5	-0.026685158
210	0x3d1c23f0	0.03812021
211	0x3c0bdfc2	0.008537235
212	0x3ca644c6	0.020296466
213	0x3da6de3d	0.08147857
214	0x3c6694c4	0.014073554
215	0xbcda6327	-0.026658608
216	0xbd3e65c3	-0.046483766
217	0x3be7a2b2	0.0070689553
218	0x3c42eaf7	0.01189684
219	0x3bcee14e	0.0063134795
220	0x3c5468d8	0.01296445
221	0x3d9ce3eb	0.076606594
222	0x3dc5d546	0.09659819
223	0xbd194c8a	-0.03742651
224	0xbd285ac9	-0.041102204
225	0xbc049e38	-0.008094363
226	0x3d319ff6	0.04336544
227	0xbcfe8ea8	-0.031073883
228	0xbd0c07e1	-0.0341872
229	0xbd404a44	-0.046945825
230	0x3c8a9ed4	0.016921438
231	0xbdbaa8de	-0.0911424
232	0x3c5b7881	0.01339543
233	0xbdab1b3c	-0.08354804
234	0xbd9c9d30	-0.07647169
235	0xbc793cb1	-0.015212224
236	0x3da38f1d	0.07986281
237	0x3c389f21	0.011268408
238	0xbd472945	-0.048623342
239	0xbd644110	-0.05572611
240	0x3d094d10	0.03352076
241	0x3d430504	0.047612205
242	0xbda44be3	-0.08022287
243	0x3cf22b81	0.02956176
244	0x3c3aac1b	0.011393572
245	0x3db0e404	0.086372405
246	0x3d761bef	0.060085233
247	0xbd883553	-0.06650796
248	0xbbe53a17	-0.0069954502
249	0x3d9009f6	0.0703315
250	0xbda2b2f5	-0.079442896
251	0x3cc8c63c	0.024508588
252	0xbc4f8c0e	-0.012667669
253	0x3d927872	0.07151879
254	0xbdb0ed08	-0.0863896
255	0x3d3af5f7	0.045644727

fcIn.bias f4 [30]
0	0xbbf82ea9	-0.0075739217
1	0x3e160b0a	0.14652649
2	0xbd96acca	-0.07357176
3	0xbd84b3cd	-0.06479607
4	0x3e208e95	0.1567939
5	0x3c838f1f	0.016059456
6	0xbc9ede34	-0.019393064
7	0xbd966df7	-0.07345193
8	0x3e2b241f	0.16712998
9	0xbe5f02cd	-0.21778412
10	0x3d26e767	0.040748026
11	0xbd9177ad	-0.071029045
12	0xbd8f69a1	-0.07002569
13	0xbcd2a1b4	-0.025711872
14	0x3bd3d979	0.0064651337
15	0x3e19349c	0.14961475
16	0xbd21daf7	-0.03951546
17	0xbea0a7f1	-0.3137813
18	0x3d697312	0.056994505
19	0x3e1524a5	0.1456476
20	0x3e07a7b0	0.13247561
21	0xbd316eae	-0.043318443
22	0x3e641409	0.22273268
23	0x3d97b460	0.07407451
24	0x3e063785	0.13107117
25	0xbdcbe9c4	-0.09956697
26	0xbd9e562d	-0.077312805
27	0xbea49f19	-0.32152632
28	0x3db4761e	0.088115916
29	0x3d048040	0.03234887

fcOut.weight f4 [2, 30]
0	0xbdfae858	-0.12251347
1	0xbe301341	-0.17194845
2	0xbe71e897	-0.23623882
3	0x3de74c7a	0.112938836
4	0x3dfe148a	0.12406261
5	0x3e38307e	0.17987248
6	0x3f3ef27d	0.7458876
7	0x3e0ceddf	0.13762616
8	0xbf28a5d9	-0.65878063
9	0xbf0c5ab9	-0.5482593
10	0xba80b2c5	-0.0009818902
11	0x3e84fcf4	0.25974238
12	0x3c8c4a90	0.017125398
13	0x3d98087e	0.07423495
14	0xbdaa69a1	-0.08320928
15	0xbe8f290b	-0.27961
16	0x3d446bfc	0.047954544
17	0xbe776d25	-0.24162729
18	0xbef20924	-0.472726
19	0x3e387713	0.18014173
20	0xbe88f359	-0.2674816
21	0x3db4b64f	0.08823835
22	0xbf22f51d	-0.63655263
23	0xbe1f7a8d	-0.15574093
24	0x3f22518e	0.6340569
25	0xbeb7696b	-0.35822615
26	0xbedb5c46	-0.42843837
27	0x3e8dd15c	0.2769879
28	0xbc1668a8	-0.009180225
29	0xbf1b062b	-0.60556287
30	0xbda81b92	-0.082083836
31	0xbd42cb7f	-0.04755735
32	0xbdd66f75	-0.104704775
33	0xbdae3ca0	-0.08507657
34	0x3ec03c3f	0.37545964
35	0xba99b175	-0.001172586
36	0x3f03ca87	0.5148091
37	0x3de2572b	0.11051782
38	0x3d846117	0.06463831
39	0x3cd5d635	0.026103118
40	0xbc9aff73	-0.018920636
41	0x3db2d3fd	0.0873184
42	0xbe527b73	-0.20554905
43	0xbdaf5cff	-0.085626595
44	0xbe3dad5f	-0.18523167
45	0x3e74f5ed	0.23921938
46	0xbe110381	-0.14161493
47	0x3e7a439a	0.2443985
48	0x3ef50a98	0.47859645
49	0xbd2cb77e	-0.04216718
50	0xbe1b8ef7	-0.15191256
51	0x3d06fdb9	0.032956813
52	0xbdb38f95	-0.087676205
53	0xbe10b2bf	-0.14130686
54	0x3cc82b93	0.02443484
55	0x3d33d23d	0.04390167
56	0x3e3945cb	0.1809303
57	0xbd73c8de	-0.059517734
58	0x3e3d82f1	0.18506981
59	0xbe15de1c	-0.14635509

fcOut.bias f4 [2]
0	0x3dfdc574	0.12391177
1	0x3f4cff1f	0.80076784
