PyTorch/NN/Model.pt (torch, 12895 bytes, 4 tensors)

fcIn.weight f4 [30, 92]
000000 a3 b6 c2 3d 0b 92 22 3c a3 5a c8 bc ba 2e 3a 3d
       0.095074914 0.009922515 -0.024457281 0.04545472
000010 f1 69 97 bd d9 e9 8e 3c 06 40 d0 3d 07 d4 cc bc
       -0.073932536 0.017445492 0.101684615 -0.025003446
000020 2e 6f b2 3d bb b3 85 3d 4d d3 d5 bc 33 a8 cf bc
       0.08712612 0.065284215 -0.026101733 -0.025348758
000030 ab 8c 49 3d 33 47 d7 3c 5b 50 f3 3c 5a 69 ae 3d
       0.049206417 0.026279068 0.029701402 0.08516188
000040 ac 6a c4 bd aa af 82 3d 74 9e c6 bd 24 76 65 bd
       -0.095906585 0.063811615 -0.09698191 -0.05602087
000050 5a e6 67 bd e7 c8 9a 3d bb a0 bf 3d fe ed 01 3d
       -0.056616165 0.0755785 0.09356829 0.031721108
000060 0f 23 82 bd 87 5b 26 3d a5 4c 4f 3d 69 f8 81 bd
       -0.06354343 0.04061463 0.050610203 -0.063462086
000070 0d 2a 96 3d c0 4b b5 bd 74 68 62 3a 8b 9c 7f 3c
       0.07332239 -0.08852339 0.00086367805 0.015601288
000080 ac 8e a4 3d a8 62 b3 bc 16 0f 1f 3d dc 9b ef bd
       0.08035025 -0.021897629 0.038832746 -0.1169965
000090 31 b4 19 3d 2d c5 88 bd 21 00 f8 bc c5 3b 97 3d
       0.03752536 -0.06678233 -0.030273499 0.07384447
0000a0 05 7b 87 bd 85 71 b3 3d bc 38 13 bd 8e 42 2e bd
       -0.06615261 0.087618865 -0.035942778 -0.04254394
0000b0 fa 11 d8 bd 8e 51 1d bd 47 e6 40 bd fd df c4 bb
       -0.10550304 -0.038407855 -0.04709461 -0.006008147
0000c0 76 0c 58 3d fc 25 db bc db 30 28 bd 7a 16 a1 3d
       0.05274626 -0.02675151 -0.041062217 0.07865615
0000d0 fc 1e 84 bd 9f 60 10 bd df 6d 8d bd 4c 8f 5d bd
       -0.06451222 -0.035248395 -0.06905722 -0.054091737
0000e0 46 72 3b bd 27 28 a0 bd eb ff 51 bd d2 ab 80 3d
       -0.045763277 -0.078201585 -0.051269453 0.06282772
0000f0 56 04 c3 bb 01 26 fe bd 90 ee ba 3c b4 6c b8 bd
       -0.0059514446 -0.124095924 0.022818834 -0.090051085
000100 2b 4a 9f 3d a7 9d 46 bd c0 d3 b7 3d b1 95 ab ba
       0.07777818 -0.048490193 0.08975935 -0.0013090876
000110 00 b8 30 3c 5b b7 f5 bc 0c 28 da bd fd ce 7c 3d
       0.0107860565 -0.029994657 -0.106521696 0.061720837
000120 7b dc ef bd 80 64 81 3d 25 1b 62 bd 3b 5b e2 bc
       -0.11711975 0.06317997 -0.05520167 -0.027631393
000130 8c fd 43 3d 9d df a3 bd 99 a2 26 bd 41 54 0b bd
       0.047849223 -0.08001635 -0.04068241 -0.034015898
000140 2a a3 a4 bd d5 3a 89 bd 3a b0 55 bd af 49 f2 bd
       -0.080389336 -0.067006744 -0.052170016 -0.1183046
000150 ba 59 ec bb 89 48 9e bc ca 68 9c bc 26 10 c6 bd
       -0.0072128447 -0.019321697 -0.019092936 -0.09671049
000160 b7 dc aa bd ee 3a 90 bd 9c 4e 40 3c e6 dd 0f bd
       -0.08342879 -0.0704249 0.011737492 -0.03512373
000170 9e b2 87 3d e8 23 b5 bd 4c 26 74 bd 11 ea 6e 3a
       0.066258654 -0.08844739 -0.059606835 0.0009113858
000180 5e b0 da bd 01 08 c0 3d 7b 96 c3 3c 95 12 b1 bd
       -0.106781706 0.093765266 0.023875466 -0.08646122
000190 25 97 5e bd 3c 76 35 bd 5f eb 57 bd 16 15 aa 3d
       -0.05434336 -0.04430221 -0.0527147 0.08304803
0001a0 4a e4 a6 bd 9b 21 98 bd 51 c5 81 3d 69 ee d1 bb
       -0.081490114 -0.07428285 0.06336463 -0.0064065945
0001b0 bc 1f b3 3d 0d 37 cb bd 06 38 1c bc 5e 63 ad 3c
       0.08746287 -0.099226095 -0.009534841 0.021165546
0001c0 b3 2c 9d 39 3f 15 5a bc 97 8d 0d 3d e9 cb 63 3a
       0.00029978677 -0.0133107295 0.03455886 0.0008689748
0001d0 da 0c b7 3d 29 33 82 bd 6c cf cd bd 48 6d af 3b
       0.08937998 -0.06357414 -0.10049328 0.0053536035
0001e0 ab 5c 3a 3d ef bc 61 3d ac 14 ec 3c 23 bb b8 3d
       0.04549853 0.05511182 0.02881845 0.090200685
0001f0 bf 56 73 bd 1e 58 a4 bd 51 6d b4 bd ff b9 71 3c
       -0.0594089 -0.080246195 -0.08809913 0.014753818
000200 c2 f9 9d bd 21 f6 01 3d db c3 82 3c 4a 93 1b bd
       -0.07713653 0.031728867 0.015962532 -0.037982263
000210 f8 46 e6 bc 04 95 a6 3d 19 f8 a9 3c 84 c4 bd 3d
       -0.028110012 0.08133891 0.020748185 0.09265998
000220 3b 88 8d 3d 5b dc 95 3d ff 42 80 bc 94 b4 b8 bc
       0.069107495 0.0731742 -0.015656946 -0.022547044
000230 f4 f9 de bd 00 c9 1a 3d 02 1b 8e 3b c5 5a 8e bc
       -0.108875185 0.037789345 0.0043367157 -0.017377267
000240 05 51 eb bd 50 f5 99 3d 08 5d 92 bd 87 e4 a8 bd
       -0.114900626 0.07517493 -0.071466506 -0.08246713
000250 27 4e 13 bd 72 84 64 3d 1d ab b1 3d 4a 29 ed bd
       -0.035963204 0.055790372 0.086752154 -0.11580141
000260 15 33 c7 bd 8c 7a 8b bc 51 2a 40 bd 51 24 54 bb
       -0.0972654 -0.017026208 -0.046915356 -0.003237028
000270 20 01 ba bd d7 d8 1a 3c 78 1c b1 bd 36 da ae bc
       -0.09082246 0.009451113 -0.08648008 -0.021344285
000280 ad d0 0a 3d 88 ff 22 3c 99 6f 95 bd 22 5a 28 3d
       0.033890415 0.009948619 -0.07296676 0.041101582
000290 43 24 c9 3d e1 08 c2 3d 5b cd 9f 3d 36 3f ca 3d
       0.098213695 0.0947435 0.0780284 0.09875338
0002a0 3b 19 68 bd e9 b1 a8 3d 7d 55 0a 3d fd 21 ac 3d
       -0.056664687 0.08237059 0.033772934 0.0840492
0002b0 d6 ae 3d bd 84 48 a6 3d 06 f6 9e bd e7 df 7e 3c
       -0.046309315 0.081193 -0.07761769 0.015556312
0002c0 ce d8 44 3d bf bb d2 bc 7e ca cf bb b7 e4 8d 3d
       0.048058324 -0.02572429 -0.0063412776 0.069283895
0002d0 80 39 7b bd 18 e9 cb bd a2 aa 25 bd d4 82 81 3d
       -0.061334133 -0.099565685 -0.04044593 0.063237816
0002e0 a7 35 cb bb 07 09 4d 3c c2 49 d2 3d 94 34 c4 bd
       -0.006201464 0.012514359 0.102679744 -0.09580341
0002f0 99 41 98 bd 50 c0 12 bd 4c 52 98 bd f2 9a 4c bd
       -0.07434387 -0.035827935 -0.07437572 -0.049952455
000300 53 28 01 3c 1f 0d ad 3d 70 99 ce bc 53 a1 89 bd
       0.007883149 0.08449768 -0.02521965 -0.06720223
000310 56 5e 64 bd b3 5c aa ba b6 a7 8e bc 12 66 6c bd
       -0.05575403 -0.0012997597 -0.017413955 -0.05771453
000320 b3 7e 69 bd e2 49 c3 3d f0 28 ac bd 70 0b 01 bd
       -0.057005595 0.095355764 -0.08406246 -0.03150505
000330 ac b4 8d 3d fe f2 43 3d 33 f7 d2 3c 54 61 c4 bc
       0.06919226 0.047839157 0.02575264 -0.02397219
000340 1b 4a ce bd 1c 57 b6 bc b0 26 94 bd e4 54 a1 3c
       -0.10072728 -0.022258334 -0.072339416 0.0196938
000350 eb ae 41 bd b4 5d 0c bd b5 35 74 3d ca f2 9a bc
       -0.047285955 -0.03426905 0.05962153 -0.018914599
000360 4f d2 76 bc 39 45 53 3d f6 ad 13 bc 6f cb a5 bc
       -0.01506479 0.051579688 -0.0090136435 -0.020238606
000370 e1 81 9f 3d 3c 27 85 bc 2e 39 89 bc eb ff 93 3d
       0.07788444 -0.01625406 -0.016750898 0.07226547
000380 a7 d5 0d 3d 4b 63 82 3c bf 7a 7d 3d 16 e9 98 bd
       0.034627583 0.015916487 0.061884638 -0.074663326
000390 53 64 83 bd bc c0 30 3d 87 22 91 3d 10 b8 b8 bd
       -0.0641562 0.043152556 0.07086664 -0.09019482
0003a0 12 f0 2f bd d7 e9 c1 bd a2 f8 da 3c d6 09 06 3b
       -0.04295356 -0.094684295 0.026729885 0.002045264
0003b0 a3 31 a0 bd 8c 40 c9 3c ff 22 a8 3d 40 0c 82 bd
       -0.078219675 0.024566911 0.082098 -0.06349993
0003c0 05 f6 3b bd c3 ef ca 3d 8a cf fc ba 24 90 9a 3c
       -0.04588892 0.09909012 -0.0019287926 0.01886756
0003d0 12 b3 bb bd bc df 17 3d 60 b2 e1 bd 74 9d 81 3d
       -0.09165014 0.037078604 -0.110203505 0.0632886
0003e0 02 05 bb bd e8 c0 3f bc 73 75 ba bc ea b1 ce 3c
       -0.091318145 -0.011703707 -0.022761082 0.02523132
0003f0 3d 05 96 3d 47 48 e0 bc ba 6b df bc c4 0f ed 3c
       0.07325218 -0.027378215 -0.027273048 0.028938182

fcIn.bias f4 [30]
000000 84 6c 99 3d 22 06 35 3b 3f f4 03 3e 99 33 fb 3d
       0.07491401 0.0027622064 0.12886141 0.12265701
000010 74 9a b9 3c 7a 37 81 3e d7 86 d0 3d 85 ad 7a bd
       0.022656657 0.25237638 0.10181969 -0.061200637
000020 3c aa 75 bd e0 f9 78 bc c3 31 16 be 5e e1 51 be
       -0.0599768 -0.015196294 -0.1466742 -0.20496127
000030 3e cf 43 3e c5 de c2 bd 00 9e 87 3e 06 94 69 3c
       0.19122025 -0.09515146 0.26487732 0.014256483
000040 ee f5 e6 3a 3b ea 44 3c 7c ce e0 bb fb 74 da 3c
       0.00176209 0.0120187355 -0.0068605524 0.026667109
000050 ad 7b 87 3e c8 d0 be bc e0 26 b4 3d 6a 83 85 be
       0.26461545 -0.023292914 0.08796477 -0.26076823
000060 30 b7 80 3d 15 a9 61 3e 47 dc b8 3d 87 b5 9a 3d
       0.0628494 0.22037156 0.090263896 0.07554155
000070 63 01 13 be 0a ea 9d 3e
       -0.14355998 0.3084262

fcOut.weight f4 [2, 30]
000000 a7 e0 1f bd 2f 8f 61 3e 49 ef 47 be b1 d9 5b bd
       -0.039032605 0.22027276 -0.19524874 -0.053674404
000010 b3 fe dd 3d d5 d3 82 3e 80 9f 90 bf f3 95 2e 3e
       0.10839596 0.2555224 -1.1298676 0.17049389
000020 23 5a 80 3e 92 9d 77 3d a2 24 91 bf 7f 05 81 bf
       0.2506877 0.060453005 -1.1339304 -1.0079802
000030 e9 9d 22 bd 1c 14 02 3e ff 52 3d 3f b4 0a 78 be
       -0.039701376 0.12702984 0.73954767 -0.24222833
000040 94 91 11 3f 88 a0 af bd 27 78 f0 bd ac da 05 be
       0.5686276 -0.08575541 -0.11741667 -0.13071698
000050 8f 36 cf bd 6c 3b bb 3e d6 28 49 be 31 18 bd 3e
       -0.10117828 0.36568773 -0.19644484 0.3693252
000060 23 42 9b be 4d be 47 be 79 1d 22 3f 5f 16 ff bd
       -0.30323896 -0.19506188 0.6332622 -0.12455439
000070 bc b1 6e 3d 50 2e fc bd f3 8e 1a be ca 67 8b bd
       0.05827497 -0.12313521 -0.15093593 -0.068069056
000080 ae 0c 80 3e d1 2e 07 3f 50 ee 97 3d f6 9f 9d 3d
       0.25009674 0.5280581 0.074185014 0.07696526
000090 01 5b 35 3e 26 a3 6a bd 9b c5 11 3e a1 86 5c be
       0.17710496 -0.057284497 0.14235537 -0.21535732
0000a0 b6 81 0e 3d 05 9f 1a be c0 39 10 3e 87 5d 16 bd
       0.03479167 -0.15099724 0.1408453 -0.03671029
0000b0 5e bb ea bd 24 88 34 3e 0f e8 84 be 5c 5f d0 3e
       -0.11461519 0.17630059 -0.25958297 0.40697753
0000c0 24 b2 bd 3e 1a e1 54 be be de 35 be 7c 71 94 3e
       0.37049973 -0.20788994 -0.1776075 0.28992832
0000d0 a0 7a 17 be b6 aa aa 3e 9f e7 44 be a9 8a 6f be
       -0.14792871 0.33333367 -0.19228981 -0.23392738
0000e0 5e d3 e0 3e 8e 1c c4 bc 1a c6 37 be 39 05 84 bd
       0.4391126 -0.023939397 -0.17946663 -0.06446309

fcOut.bias f4 [2]
000000 ac 8f 3a 3e c2 58 79 3f
       0.18218869 0.9740106
