PyTorch/NN/Model.pt (torch, 12883 bytes, 4 tensors)

fcIn.weight f4 [30, 92]
0	0xbdced465	-0.10099105
1	0x3d88991d	0.06669829
2	0x3dc23b16	0.09483926
3	0xbd2390a3	-0.03993286
4	0x3da8e175	0.082461275
5	0xbcb4dbeb	-0.022077521
6	0x3d429866	0.04750862
7	0xbb9e9a87	-0.0048401984
8	0x3d3364ca	0.04379729
9	0xbd88e234	-0.0668377
10	0xbb1dc707	-0.0024074928
11	0xbca5e860	-0.020252407
12	0xbc14af07	-0.009074933
13	0xbdadf0df	-0.08493208
14	0x3d9f576f	0.077803485
15	0x3d69f0a1	0.057114247
16	0xbcc490cb	-0.023994824
17	0x3d963613	0.073345326
18	0xbce25e90	-0.027632982
19	0xbc2acc91	-0.010424749
20	0x3d9a6f92	0.075408116
21	0xbdadb41f	-0.08481621
22	0x3b38923a	0.002816333
23	0xbd9de70d	-0.07710085
24	0xbdcaffa9	-0.099120446
25	0xbd40a525	-0.047032494
26	0xbda45d7f	-0.080256455
27	0x3d47e50a	0.048802413
28	0xbdbb07fd	-0.09132383
29	0xbcbd47d3	-0.023105538
30	0xbd5cfced	-0.053952146
31	0xbc7db435	-0.015484859
32	0xbdd6e4a5	-0.10492829
33	0xbdadf368	-0.08493692
34	0xbd09491e	-0.033516996
35	0x3c8a5aff	0.016889093
36	0xbdb6533e	-0.08902596
37	0x3b228a19	0.002480155
38	0xbdf35468	-0.118813336
39	0x3d6c739d	0.057727445
40	0xbdda128a	-0.10648067
41	0xbd5a745a	-0.053333618
42	0xbdae359f	-0.08506321
43	0xbdd3288d	-0.10310469
44	0xbcb2944a	-0.021799225
45	0x3d7e8898	0.062141985
46	0xbda8b12c	-0.08236918
47	0x3c559e3e	0.013038216
48	0xbdcf8183	-0.10132124
49	0x3d6e25e2	0.058141597
50	0xbc3cd6bd	-0.011525807
51	0xbdb578b1	-0.08860911
52	0xbdb9de16	-0.09075563
53	0x3ddbeb88	0.107382834
54	0x3db19a42	0.086720005
55	0xbd0a036c	-0.03369467
56	0xbd4d6776	-0.050147496
57	0x3d1642f6	0.036684953
58	0x3d9c5315	0.07633034
59	0xbc9de697	-0.019274993
60	0x3ddbc2b5	0.10730497
61	0x3d1ad969	0.037804995
62	0xbd957f47	-0.07299667
63	0xbc8d8755	-0.017276445
64	0x3c8230cd	0.01589241
65	0x3c1df2f8	0.009640448
66	0xbcfc081b	-0.030765584
67	0xbcb51af7	-0.022107584
68	0xbdb03d2c	-0.086054176
69	0x3bcd838f	0.0062717865
70	0xbc7c0b05	-0.015383487
71	0x3d5f3eb0	0.054503143
72	0xbd175005	-0.036941547
73	0x3cde1789	0.027110832
74	0x3bc8e82a	0.0061311917
75	0x3cfb43a1	0.030671896
76	0x3c6d7938	0.014494233
77	0xbd746ab0	-0.059672058
78	0x3c4ab5c9	0.0123724425
79	0xbc4466e5	-0.011987423
80	0x3d038bda	0.032115795
81	0x3da67d8d	0.08129416
82	0x3d891024	0.06692532
83	0x3d5b6e7f	0.053572174
84	0xbdc2bbfc	-0.095085114
85	0x3ce60413	0.028078115
86	0x3db6fb68	0.08934671
87	0x3dc9d836	0.09855692
88	0xbd2dccd2	-0.04243166
89	0x3db18a14	0.086689144
90	0x3daa6504	0.083200485
91	0x3c186b44	0.009302918
92	0xbd1ce7ea	-0.038307108
93	0x3a9cf8e8	0.0011976035
94	0x3d9b7b84	0.07591918
95	0xbc6c5793	-0.014425176
96	0x3dbb803d	0.09155319
97	0x3d42d4c9	0.04756621
98	0xbd60745a	-0.05479846
99	0xbd5fb745	-0.05461814
100	0x3d5ab99c	0.053399667
101	0xbdbf33dc	-0.09336063
102	0xbdf102c8	-0.117681086
103	0x3b74f9b8	0.003738029
104	0x39f6365b	0.00046961274
105	0xbde62aa5	-0.112386025
106	0x3b87ee3b	0.0041482723
107	0x3d0c2eb0	0.034224212
108	0xbc0b7d5f	-0.0085137775
109	0xbd8cdb60	-0.0687778
110	0xbdf988d9	-0.12184305
111	0xbe08c871	-0.13357712
112	0xbd0c5e33	-0.034269523
113	0xbe07eb5e	-0.13273379
114	0xbd8934eb	-0.066995464
115	0x3b687d05	0.0035474908
116	0xbd104f9c	-0.03523217
117	0xbd3d7a4c	-0.04625921
118	0x3d6b4b75	0.05744501
119	0x3cf09a0c	0.02937033
120	0xbd8d401d	-0.06896994
121	0x3d95270f	0.072828405
122	0x3cf542ab	0.029939016
123	0xbd81f937	-0.06346362
124	0xbcaebd41	-0.021330478
125	0xbcb947fb	-0.02261733
126	0xbdc4783c	-0.095932454
127	0x3bbe25e5	0.005802857
128	0x3c230672	0.009950267
129	0xbdf8225e	-0.1211593
130	0xbddc35d5	-0.10752455
131	0x3d07d60c	0.033163115
132	0xbcb251a7	-0.02176745
133	0x3d36a6cf	0.044592675
134	0x3cb3a380	0.021928549
135	0xbde37dc4	-0.11107972
136	0x3c3dc0eb	0.01158164
137	0xbda0684e	-0.078323945
138	0xbdd5fd5d	-0.10448716
139	0xbe171ab9	-0.14756288
140	0xbc203234	-0.009777594
141	0xbd90c638	-0.07069057
142	0x3d2f6ea2	0.042830117
143	0xbe044659	-0.1291746
144	0xbc3aae6e	-0.011394126
145	0xbce2213d	-0.02760374
146	0xbdc01c53	-0.093804024
147	0xbc773542	-0.015088381
148	0x3d0255a4	0.031819955
149	0xbde64bb9	-0.11244912
150	0xbdf5d59d	-0.12003634
151	0x3c4d9a28	0.012548961
152	0xbdcb47cc	-0.099258035
153	0x3d3fc42d	0.046817947
154	0xbd017688	-0.03160718
155	0xbc861699	-0.016368197
156	0x3cb9aac1	0.02266443
157	0xbdc6259a	-0.09675141
158	0xbdce1305	-0.100622214
159	0x3d7efc12	0.06225211
160	0xbd8b8cd0	-0.06813967
161	0xbd27633c	-0.04086612
162	0xbd85d98f	-0.06535637
163	0x3d691cf2	0.05691237
164	0x3d739fdc	0.059478626
165	0xbd1c1e1c	-0.038114652
166	0xbda3380d	-0.07969675
167	0xbd915aef	-0.07097422
168	0x3c2cc7e6	0.010545706
169	0xbc00112d	-0.007816595
170	0x3c86c71d	0.016452366
171	0x3d7f642e	0.0623514
172	0xbb99ff9e	-0.0046996614
173	0xbddc07b5	-0.107436575
174	0xbdb52d2f	-0.08846509
175	0x3d0168fd	0.031594265
176	0xbcf5ef3c	-0.030021302
177	0xbd752925	-0.05985369
178	0xbba9c58f	-0.0051810215
179	0x3d8bd8be	0.0682845
180	0x3b596c4b	0.003317612
181	0x3c8374f1	0.016046973
182	0xbc882dff	-0.016623495
183	0xbd822e1f	-0.06356453
184	0x3dbecc8f	0.0931636
185	0xbd081859	-0.033226345
186	0xbc40226d	-0.011726958
187	0xbca9f5ac	-0.020747028
188	0xbd3e9577	-0.04652926
189	0xbdcba13f	-0.099428646
190	0xbc245d70	-0.010032043
191	0xbd76a93d	-0.060219992
192	0xbddab20b	-0.1067849
193	0xbd89caee	-0.06728159
194	0x3d72a791	0.059241835
195	0x3d8ec6e9	0.06971533
196	0x3d4942cc	0.049135968
197	0x3cfda7da	0.030963827
198	0x3d44d46f	0.048054155
199	0xbd9f74c3	-0.077859424
200	0xbda69fdd	-0.0813596
201	0xbcc957be	-0.024577972
202	0xbd3a2953	-0.045449566
203	0xbde7a8ae	-0.1131147
204	0xbcf89a90	-0.030347139
205	0xbd4514bc	-0.048115477
206	0xbd83d1ac	-0.06436476
207	0xbd656192	-0.056001253
208	0xbd8b117c	-0.06790444
209	0xbd2f988a	-0.042870082
210	0x3c8a859a	0.01690941
211	0x3d3e6b16	0.046488844
212	0xbd882c21	-0.06649042
213	0x3dbb8365	0.09155921
214	0x3db7bdab	0.08971723
215	0xbd5f24e7	-0.054478552
216	0xbd55f6a2	-0.05223716
217	0x3dc1d157	0.094637565
218	0xbdb3cd7b	-0.08779427
219	0x3d28011b	0.04101668
220	0xbd6a3395	-0.0571781
221	0xbdaf42c4	-0.085576564
222	0x3db380ec	0.08764824
223	0xbdc802be	-0.09766148
224	0x3dd6213d	0.104555584
225	0x3d37bbb5	0.044856746
226	0x3cb2b37a	0.021814097
227	0xbd5f20eb	-0.054474752
228	0xbd7fb468	-0.06242791
229	0x3d0282d7	0.03186306
230	0x3bbd054a	0.005768453
231	0x3d61b0db	0.055100303
232	0xbc8948b9	-0.01675831
233	0xbdb71fb6	-0.08941595
234	0xbd3c19d3	-0.045923065
235	0x3be0826d	0.0068514855
236	0x3cbba562	0.02290601
237	0x3bbf69d6	0.005841474
238	0x3c6c3520	0.014416963
239	0x3daeb709	0.08531005
240	0xbd931335	-0.07181398
241	0xbdcde1ff	-0.10052871
242	0xbd9a8081	-0.075440414
243	0xbd5ac766	-0.053412817
244	0xbd847ef3	-0.06469526
245	0xbdea2af6	-0.114339754
246	0xbde2134e	-0.11038838
247	0xbd1567f3	-0.036476087
248	0xbd10eb91	-0.035380904
249	0xbde7b0fd	-0.11313055
250	0x3d0c52c2	0.03425861
251	0xbde4bdf5	-0.11169044
252	0x3c2dff9b	0.010620023
253	0x3b1511d8	0.0022746231
254	0xbb846e90	-0.0040415004
255	0xbd86d9c7	-0.065845065

fcIn.bias f4 [30]
0	0x3b519222	0.003197797
1	0x3e6f488d	0.2336752
2	0xbc943499	-0.018091487
3	0xbda919fd	-0.0825691
4	0xbda32f53	-0.07968011
5	0x3b227945	0.002479152
6	0x3e40fe94	0.18847114
7	0x3de88fa9	0.11355526
8	0xbba35a3b	-0.0049851215
9	0xbd78f379	-0.06077907
10	0x3c293138	0.010326676
11	0xbd9e2ec0	-0.077237606
12	0x3e2b2cbd	0.16716285
13	0x3e59a776	0.21255288
14	0xbe4f2139	-0.20227517
15	0xbca712c1	-0.020394685
16	0x3d7b07f0	0.061286867
17	0x3c44f7db	0.012021984
18	0x3ed1a621	0.4094706
19	0x3e3a9fd4	0.18225032
20	0x3d98f11f	0.07467865
21	0x3c5cc15d	0.013473836
22	0xbdbba6ca	-0.09162672
23	0xbda4dd1c	-0.08049986
24	0xbb7884cf	-0.0037920957
25	0xbe813261	-0.2523375
26	0x3b2d0393	0.0026399835
27	0x3dcdc195	0.100466885
28	0x3e4bbce8	0.19896281
29	0xbe02e1c8	-0.12781441

fcOut.weight f4 [2, 30]
0	0x3e4b68fb	0.19864266
1	0xbee832de	-0.4535131
2	0xbb3c5631	-0.0028737898
3	0xbf41cb97	-0.7570128
4	0x3d663419	0.056202028
5	0x3e8cece4	0.27524483
6	0x3dbaada1	0.09115148
7	0xbe007aa0	-0.12546778
8	0xbf20af39	-0.6276737
9	0xbd0b49ac	-0.034005806
10	0x3e4781e4	0.19483143
11	0x3f0f2a3c	0.5592382
12	0xbf06bdb3	-0.5263321
13	0x3e0ac50a	0.13551727
14	0xbf8b34bc	-1.0875468
15	0x3d9a93bf	0.075477116
16	0xbe8b5dbe	-0.27219957
17	0x3f3c5d72	0.73580086
18	0xbeb24f49	-0.34826115
19	0xbd3d51e2	-0.046220668
20	0xbd407a29	-0.0469915
21	0xba918e0c	-0.0011104955
22	0xbe5682a1	-0.20948268
23	0xbe0ad922	-0.13559392
24	0xbd87f38c	-0.0663825
25	0x3f3bb199	0.7331787
26	0x3e088a89	0.13334097
27	0x3e3365fd	0.17519374
28	0x3d9dadb3	0.07699146
29	0x3e1d0a67	0.15336
30	0x3ead70df	0.33875176
31	0xbe426d62	-0.18987039
32	0xbc885e54	-0.016646542
33	0x3e4c74d1	0.19966437
34	0xbde45195	-0.11148373
35	0x3eceb39e	0.40371412
36	0xbc547cff	-0.0129692545
37	0x3e30cde0	0.17266035
38	0x3ec40821	0.38287452
39	0xbd534a74	-0.051584676
40	0x3d2ea3e3	0.042636763
41	0x3e2689ef	0.16263555
42	0x3ecf68ef	0.40509745
43	0x3d916d6c	0.07100949
44	0x3dcd4205	0.10022358
45	0x3efbf0a7	0.4920704
46	0xbe35f780	-0.17770195
47	0xbbcf645b	-0.006329102
48	0x3de0b78c	0.10972509
49	0x3d4f602b	0.050628822
50	0xbe1a8ad2	-0.15092018
51	0xbcb7a065	-0.02241535
52	0xbed8ef36	-0.42370003
53	0x3e5b5262	0.21418145
54	0x3d7e3c69	0.06206933
55	0x3e55bf84	0.20873839
56	0x3d930909	0.07179458
57	0x3eaeebdb	0.34164318
58	0xbe331eab	-0.17492168
59	0xbe4b673c	-0.198636

fcOut.bias f4 [2]
0	0x3e4abd96	0.19798884
1	0x3f814e92	1.0102103
