PyTorch/lightning_logs/version_17/checkpoints/epoch=99-step=11900.ckpt (torch, 19995 bytes, 4 tensors)

fcIn.weight f4 [30, 126]
0	0x3d44684c	0.047951028
1	0x3c3e519e	0.011616139
2	0x3d09a8ac	0.033608124
3	0x3c18d4fa	0.009328121
4	0x3c3fa2f2	0.011696564
5	0xbdb31774	-0.08744708
6	0xbdaa24c2	-0.08307792
7	0x3d560223	0.05224813
8	0xbd84ce62	-0.06484677
9	0x3d4cf8e3	0.050042044
10	0xbd8450f6	-0.064607546
11	0xbd1a8e55	-0.037733395
12	0x3d791fbf	0.06082129
13	0x3d19792e	0.03746908
14	0x3c35e4e4	0.011101935
15	0x3b830b61	0.003999159
16	0xbd46cc44	-0.048534647
17	0x3ad15e0b	0.0015973462
18	0x3d89c096	0.06726186
19	0xbcb31d82	-0.021864656
20	0xbcc925fa	-0.024554241
21	0x3d01e349	0.031710897
22	0x3c871017	0.016487164
23	0x3bd6a598	0.006550502
24	0x3d09106b	0.033462923
25	0xbdb80d9a	-0.08986969
26	0x3d92f090	0.0717479
27	0xbd483464	-0.04887809
28	0x3d4fc83a	0.05072806
29	0xbd34d71a	-0.04415045
30	0xbd13f019	-0.036117647
31	0x3cf05965	0.029339502
32	0x3d6a342c	0.05717866
33	0xbd821b8c	-0.063529104
34	0xbbd85def	-0.0066029946
35	0xbd225853	-0.039635014
36	0x3ba14f13	0.0049227565
37	0x3d39b437	0.045337882
38	0xbd6a0547	-0.05713394
39	0xbd1aa46d	-0.037754465
40	0xbc539db4	-0.012916017
41	0x3dae268d	0.08503447
42	0xbd8dea94	-0.06929508
43	0xbd422d61	-0.047406558
44	0x3b11a3f8	0.0022222977
45	0xbcce12ed	-0.025155509
46	0x3d52f81a	0.05150614
47	0x3da18910	0.07887471
48	0x3d9f9bc7	0.07793384
49	0x3cee53de	0.029092725
50	0xbd046da4	-0.032331124
51	0x3daec608	0.08533865
52	0x3da879df	0.0822637
53	0x3cc53de0	0.024077356
54	0x3caf05d2	0.02136508
55	0xbcffaf01	-0.031211378
56	0x3dac4193	0.08410945
57	0x3c4f397e	0.012647985
58	0x3d957427	0.07297545
59	0x3d93aa00	0.07210159
60	0xbb10d599	-0.002209997
61	0xbc565784	-0.013082389
62	0x3d721886	0.05910542
63	0xbd1f0dc5	-0.03883149
64	0x3d5d9214	0.05409439
65	0xbd9d7d67	-0.07689934
66	0x3daa80cc	0.08325347
67	0x3d89d7fd	0.067306496
68	0x3d7b50bd	0.061356295
69	0x3d80336e	0.062598094
70	0x3dc33ac5	0.09532694
71	0xbd956758	-0.07295102
72	0x3d165c06	0.036708854
73	0xbd5234a8	-0.05131975
74	0x3c8dc90b	0.017307779
75	0x3db24109	0.08703811
76	0x3d6cd3ae	0.05781906
77	0x3d67d3d1	0.05659849
78	0xbc3b45e4	-0.011430237
79	0x3d08dea8	0.033415467
80	0xbda97974	-0.082751185
81	0xbd8b6a72	-0.06807412
82	0x3ccb4ea3	0.02481777
83	0x3c6aca8e	0.014330519
84	0xbd11ea65	-0.035623927
85	0x3d582fc1	0.052779917
86	0xbb6dc1d3	-0.0036278858
87	0xbdcc0f5b	-0.09963866
88	0xbdac6a67	-0.08418732
89	0xbcb7cd4d	-0.022436762
90	0xbd39b7a2	-0.04534114
91	0xbc70ea77	-0.014704338
92	0x3d4b43fd	0.049625386
93	0x3d5d5b4e	0.054042153
94	0xbda6b652	-0.081402436
95	0xbda8b911	-0.082384236
96	0x3c9c3594	0.019068517
97	0xbd057537	-0.032582488
98	0xbc395595	-0.011311908
99	0xbd8a3ce8	-0.06749898
100	0x3d773902	0.0603571
101	0xbd89d710	-0.06730473
102	0xbd330c6f	-0.04371303
103	0x3d6d2610	0.057897627
104	0xbdb1d925	-0.08683995
105	0xbd942980	-0.07234478
106	0x3d963313	0.073339604
107	0x3d42024b	0.047365468
108	0x3d039839	0.032127593
109	0x3db35ba4	0.087577134
110	0xbd188a0e	-0.037241034
111	0xbd7f4431	-0.06232089
112	0x3d2d9f6e	0.042388372
113	0x3b53b0ea	0.0032301494
114	0xbc960a07	-0.018315328
115	0x3da7a3d7	0.08185547
116	0x3d322e8c	0.04350142
117	0x3d5d7124	0.054062977
118	0x3d8ed38f	0.06973945
119	0x3d55316c	0.052049085
120	0xbc79d469	-0.015248396
121	0xbdb35c5e	-0.08757852
122	0xbc5309c8	-0.01288075
123	0xbd0f1a93	-0.034937453
124	0xbd5b46a8	-0.05353418
125	0x3d0ed14e	0.034867577
126	0x3c8ec2d8	0.017426893
127	0x3dabd622	0.08390452
128	0xbcbd8325	-0.023133824
129	0x3db4a9db	0.0882146
130	0x3d372fc5	0.04472329
131	0xbd10d439	-0.03535864
132	0xbd6781f9	-0.056520436
133	0x3dec34e0	0.115335226
134	0x3de1a4b0	0.1101774
135	0x3de6a65d	0.112622
136	0x3d1aba0e	0.03777509
137	0x3dba7547	0.091044
138	0x3d866f96	0.06564252
139	0xbc7b1760	-0.015325397
140	0xbbef0bb5	-0.0072950968
141	0x3dd0dbe0	0.10198188
142	0x3ba0d507	0.0049082073
143	0x3d80624a	0.06268747
144	0x3db05995	0.086108364
145	0x3d9be6fe	0.07612418
146	0xba914d73	-0.0011085704
147	0xbaf7f58a	-0.0018917781
148	0x3b65ac85	0.0035045457
149	0xbb54e529	-0.0032485223
150	0xbd90b9b1	-0.07066668
151	0xbda9f0ae	-0.08297859
152	0x3db26220	0.08710122
153	0x3c3577ce	0.011075927
154	0x3c4fb8a8	0.012678303
155	0x3da9ba6c	0.0828751
156	0xbd90c7e9	-0.0706938
157	0x3cde583a	0.02714168
158	0xbd0bf877	-0.0341725
159	0xbd0be2bf	-0.03415179
160	0xbdc58ec5	-0.09646372
161	0xbdc9d1ca	-0.09854467
162	0xbd16c677	-0.036810365
163	0xbc761d1c	-0.015021589
164	0xbb8b9aff	-0.0042604203
165	0xbca120a8	-0.019668892
166	0x3d81eb50	0.063437104
167	0x39a38620	0.00031189714
168	0x3d9de822	0.077102914
169	0x3db13332	0.08652343
170	0xbc8add5a	-0.016951252
171	0xbc9e4f3c	-0.019324891
172	0x3d7ba07e	0.061432354
173	0x3ddcd90b	0.10783585
174	0xbc90d668	-0.017680362
175	0xbb2ecad3	-0.0026671186
176	0x3da4eae2	0.08052613
177	0x3b9e9ca1	0.004840449
178	0x3d839a08	0.064258635
179	0x3c7e5a08	0.015524395
180	0x3ccfcdfa	0.025366772
181	0x3df452d5	0.119298615
182	0xbcd604d8	-0.026125357
183	0x3d699123	0.05702318
184	0x3c82d575	0.015970925
185	0x3d8cb323	0.06870105
186	0x3df63221	0.1202128
187	0x3d5e46b1	0.054266635
188	0x3e02cf57	0.12774406
189	0x3d77e602	0.060522087
190	0x3d14c093	0.036316466
191	0x3d88d13c	0.06680533
192	0xbd42780e	-0.047477774
193	0x3d74da5e	0.059778564
194	0xbc52eed4	-0.012874324
195	0xbbba4eeb	-0.0056856773
196	0xbcb8d12a	-0.022560675
197	0xbd73f7ef	-0.05956262
198	0x3deb1bad	0.11479888
199	0x3cc7eb8c	0.02440431
200	0x3dd15a54	0.10222307
201	0x3bc95850	0.006144561
202	0xbc52ff80	-0.012878299
203	0x3cbc6edf	0.023002086
204	0xbc85964d	-0.01630702
205	0x3cde75f7	0.02715586
206	0x3d3abd54	0.045590714
207	0x3c78658e	0.015160931
208	0x3b360f6f	0.0027780195
209	0x3e0602b8	0.13086975
210	0xbc747c44	-0.014922205
211	0xbcdce330	-0.0269638
212	0xbe27cb15	-0.16386063
213	0xbdb47c68	-0.08812791
214	0xbe1d81b2	-0.15381506
215	0xbdcb2f27	-0.09921103
216	0xbe1cb4dd	-0.15303369
217	0xbe20f27a	-0.15717497
218	0xbe34e86e	-0.1766679
219	0xbdbece9f	-0.093167536
220	0xbe2d7051	-0.16937377
221	0xbe41e4b3	-0.18934898
222	0xbe2a3f92	-0.16625813
223	0xbdbf94e0	-0.093545675
224	0xbd3362ab	-0.04379527
225	0xbde1d8e3	-0.11027696
226	0xbd8b5c7a	-0.06804748
227	0xbe00d28a	-0.12580314
228	0xbe154620	-0.14577532
229	0xbe17a54d	-0.14809151
230	0xbe5745f1	-0.21022774
231	0xbda8be66	-0.082394406
232	0x3ce9a255	0.028519789
233	0x3c944f37	0.018104179
234	0x3c79875b	0.015230025
235	0xbd13d213	-0.036089014
236	0x3db54a31	0.088520415
237	0x3d9e97d5	0.077438034
238	0xbd7919a3	-0.060815465
239	0x3cbf2320	0.023332179
240	0xbcd1e293	-0.025620734
241	0xbd68cb52	-0.056834526
242	0x3da9e6d0	0.08295977
243	0x3d166c30	0.03672427
244	0x3d512ab1	0.051066104
245	0xbd909731	-0.070600875
246	0xbabde079	-0.0014486454
247	0xbc2a1220	-0.010380298
248	0x3d5fb657	0.054617252
249	0xbc9b05bb	-0.018923631
250	0xbcdb2f09	-0.026755827
251	0xbd6c1e8a	-0.05764631
252	0x3d9c1aac	0.07622275
253	0x3d9f848f	0.077889554
254	0x3b58b5d3	0.003306736
255	0x3d92191f	0.07133698

fcIn.bias f4 [30]
0	0xbcf6e07b	-0.030136338
1	0xbe127284	-0.14301497
2	0xbd17f1ef	-0.03709596
3	0xbd797993	-0.060906958
4	0x3dc64c4e	0.09682523
5	0xbd5b3b01	-0.053523067
6	0x3c627f46	0.01382429
7	0xbe320214	-0.17383605
8	0x3d93f629	0.07224686
9	0x3e9da6d5	0.30791345
10	0x3d555bb4	0.052089408
11	0xbd1464d5	-0.036228973
12	0x3d76f1a1	0.06028903
13	0xbd608d7f	-0.05482244
14	0xbe76fc92	-0.24119785
15	0x3cab2bd7	0.020894928
16	0x3e1fc043	0.15600686
17	0x3d1a012c	0.037598774
18	0xbb83f4cd	-0.0040269853
19	0xbd7dc65c	-0.06195675
20	0x3d96ae43	0.073574565
21	0x3c541f6e	0.012946947
22	0x3e124818	0.14285314
23	0x3d9f2265	0.07770232
24	0x3d61ecb6	0.055157386
25	0xbd28867b	-0.041143876
26	0x3e20554c	0.15657538
27	0x3d54c60f	0.051946696
28	0xbd6a0c35	-0.057140548
29	0x3d8d9c88	0.069146216

fcOut.weight f4 [2, 30]
0	0xbe06fac9	-0.13181604
1	0x3e56223d	0.20911498
2	0x3d42c1e1	0.04754818
3	0xbedb24e0	-0.4280157
4	0x3e87c68b	0.26518664
5	0xbece5e25	-0.40306202
6	0xbe790bdf	-0.24320935
7	0xbeb41ced	-0.3517832
8	0xbdccffca	-0.100097254
9	0x3e320e3e	0.17388245
10	0x3e0f2548	0.13979065
11	0xbf0d42f9	-0.5518032
12	0x3f39ee21	0.7262898
13	0x3f314542	0.69246304
14	0xbec271c6	-0.37977427
15	0xbf051184	-0.5197985
16	0xbe525ffb	-0.20544426
17	0xbe5e016b	-0.21680228
18	0xbe3d801e	-0.18505904
19	0x3e1169a7	0.1420046
20	0x3ec1680c	0.37774694
21	0x3d9a5f0a	0.075376585
22	0xbe1fac99	-0.15593185
23	0x3d8af3f0	0.06784809
24	0xbe649fb4	-0.22326547
25	0x3ec9e753	0.394343
26	0xbe060204	-0.13086706
27	0xbdae77cc	-0.08518943
28	0xbf4b70e5	-0.7946914
29	0xbe040ccf	-0.12895511
30	0xbc25b6d5	-0.010114391
31	0xbe0a1b0f	-0.13486885
32	0x3e03d66f	0.12874769
33	0xbe208677	-0.15676294
34	0x3e093c32	0.13401869
35	0x3d50db9b	0.050990682
36	0xbe6db5b7	-0.2321385
37	0x3f1c3a95	0.6102689
38	0x3e37ea27	0.17960416
39	0x3d1cb064	0.038254157
40	0xbc4ac2bd	-0.012375531
41	0x3dcaf217	0.09909456
42	0x3ea5d33e	0.32387727
43	0x3ec61dfe	0.38694757
44	0xbd4a711e	-0.049424283
45	0x3de18160	0.110110044
46	0xbe154f9d	-0.14581151
47	0xbd4fc2b5	-0.050722796
48	0x3dcf3928	0.101183236
49	0xbe2174f9	-0.15767278
50	0xbdfd6baa	-0.12374051
51	0x3dfa7a30	0.12230337
52	0xbea99b2f	-0.33126208
53	0xbdbb103f	-0.09133958
54	0xbe95a029	-0.29223755
55	0x3ed28fc4	0.4112531
56	0xbe29e80d	-0.16592427
57	0xbe029b7d	-0.12754627
58	0x3e340990	0.17581773
59	0xbd720706	-0.05908873

fcOut.bias f4 [2]
0	0x3ef68105	0.4814531
1	0x3fa89ff0	1.3173809
