PyTorch/lightning_logs/version_19/checkpoints/epoch=99-step=11900.ckpt (torch, 19995 bytes, 4 tensors)

fcIn.weight f4 [30, 126]
000000 94 f1 33 bd c1 56 d8 3c 78 95 9e bd 92 c8 88 3d
       -0.04393156 0.026408555 -0.07743353 0.06678881
000010 7c de a5 bc 46 6e 97 3c 77 8d 3e 3b 46 b8 64 bd
       -0.02024769 0.0184852 0.002907602 -0.0558398
000020 0e 22 e7 bc 3f 9c 92 3c 92 1b 8c 3d 73 18 03 bd
       -0.02821448 0.01789677 0.06841196 -0.03200574
000030 82 12 8c bd b6 4b 0a bd d2 91 2c 3c d3 f9 24 bd
       -0.068394676 -0.03376361 0.010532813 -0.040277313
000040 67 28 b0 bd 0e 07 25 bc d1 ba 66 3d 0e 85 8a 3c
       -0.08601456 -0.010072483 0.056330506 0.016909149
000050 83 c5 08 bd d5 8f a8 bc 2f f0 6a bc ec ca a2 bd
       -0.033391487 -0.020576397 -0.014339491 -0.079488605
000060 9e 50 ae 3d 0c 1e 9a bd ce fb 65 bd 59 9f 6d 3d
       0.0851147 -0.07525262 -0.056148343 0.058013294
000070 bb 56 4a 3d bd 6f 02 3d 2d a5 74 3d fa 77 53 3d
       0.04939912 0.031844843 0.059727836 0.05162809
000080 6b 67 aa bc 43 01 9c bd c5 59 a8 3d fa 53 83 3d
       -0.020801267 -0.07617428 0.08220247 0.06412502
000090 16 58 2d bd 98 5d 93 3d fd 3d 88 bd d0 de 28 3c
       -0.042320333 0.07195586 -0.06652448 0.010307029
0000a0 20 d0 82 3d 4a f6 82 3d 2d 94 2e 3d 2d e0 d5 bd
       0.06387353 0.06394632 0.04262178 -0.10443149
0000b0 45 ba ac bd 0c 44 be bd bd 8e 35 bd bc 88 b3 bd
       -0.084339656 -0.09290323 -0.04432558 -0.087663144
0000c0 ed 4a cf bd 3c e1 10 bd 75 1b 65 bd a6 21 f1 bd
       -0.10121713 -0.03537105 -0.05593439 -0.11773996
0000d0 3a 77 59 3d 7a e1 1a bd 5e c7 ae bd ec fb 84 bc
       0.05309222 -0.037812687 -0.0853412 -0.016233407
0000e0 89 79 09 3c c3 67 06 3d 5c 3b a3 bd 0f 96 a2 bd
       0.008390793 0.0328138 -0.07970306 -0.07938778
0000f0 d5 ce 6e bd 9d a8 31 3d e9 87 cc 3c b4 11 84 3d
       -0.05830272 0.043373693 0.02496715 0.06448689
000100 84 8e ca bd db b7 11 3d 61 d1 65 bc 83 67 81 bd
       -0.09890464 0.03557573 -0.014026971 -0.063185714
000110 0c c8 64 bd 0f ff f5 bb 0b f4 31 bd 7b a1 b4 bd
       -0.055854842 -0.007507212 -0.043445628 -0.088198625
000120 28 b5 ce bd bd 73 3d 3d 8c df 82 bd 64 2f 7d bd
       -0.100931466 0.046252955 -0.063902944 -0.061812773
000130 2c 4d 72 bd ce c0 18 3d 4b 39 67 bd 15 30 23 bd
       -0.059155628 0.037293248 -0.056451123 -0.039840776
000140 7f f9 78 3d d6 c8 20 bd 3d f5 56 3d 53 23 8f bd
       0.060784813 -0.039254032 0.05247997 -0.069891594
000150 ce 66 0f bd ef 9e cc 3c 2d 50 39 bc a8 7a a5 bc
       -0.03501015 0.02497813 -0.011310619 -0.020200089
000160 ba 2d 2b bd 19 0b c9 3d 33 55 7b 3d 25 25 d1 bc
       -0.041791655 0.0981657 0.06136055 -0.025530407
000170 e8 d2 00 bd 67 75 e2 bb c3 7f 8b 3c f9 8a b4 3d
       -0.031451136 -0.006910968 0.017028695 0.088155694
000180 f9 b2 d9 bc 0e 95 59 3d 1b ab 20 bd 88 5b a2 bb
       -0.026574599 0.053120665 -0.03922568 -0.004954759
000190 33 30 59 3d 90 ee 7b bc 9b e9 75 3d 12 1a b6 3d
       0.053024482 -0.015376702 0.060037237 0.08891691
0001a0 3e e7 01 bd a5 c7 a8 bc 48 93 1d bc 4a 48 2c 3c
       -0.03171467 -0.02060301 -0.009617634 0.010515282
0001b0 f4 36 d6 bc cd fb 9f bd f4 0a 8c 3d 75 f6 a6 3d
       -0.02614925 -0.07811699 0.06838027 0.08152477
0001c0 a4 37 d9 bc 8e 65 01 3d b9 56 b5 bd 24 dc 9b 3d
       -0.02651579 0.03159099 -0.08854432 0.07610348
0001d0 7f c4 bc 3c 62 dc aa 3d a5 26 88 b9 9d 22 6e bd
       0.023042915 0.08342816 -0.00025968734 -0.05813848
0001e0 a4 42 bb ba eb 20 96 bc 95 5d a5 3d 7a 9c 91 bd
       -0.0014286828 -0.018326243 0.0807449 -0.07109924
0001f0 31 e8 8b 3d fa f1 8a 3c e7 bc 27 bd 64 a0 16 bb
       0.06831396 0.016961087 -0.040951636 -0.0022983784
000200 a8 0d c0 3b ac b8 40 3d 32 c7 96 bd 86 0d a8 bc
       0.005861003 0.047051117 -0.07362212 -0.020514261
000210 36 60 ac bd 24 82 a2 3d 06 ea 86 bd ef ce b6 bd
       -0.08416788 0.079349786 -0.06587605 -0.08926188
000220 2a d5 3c bd 61 cb f5 3c b5 40 f6 bc 2a df 27 3d
       -0.046101727 0.030004205 -0.030060152 0.04098431
000230 db bb dc bc 9b 68 0f 3d 5c be 20 bd 03 76 85 bd
       -0.026945045 0.03501187 -0.03924404 -0.065166496
000240 35 38 28 bd 6e cb be bd f1 e1 69 3d 64 5b a5 3d
       -0.04106923 -0.09316145 0.05710024 0.08074072
000250 d2 57 4c bd df 4f 87 bd 04 ef b8 3d c0 d5 76 3d
       -0.04988844 -0.06607031 0.090299636 0.06026244
000260 26 4b 9a 3c 0e fd b6 3c 4f 62 86 bd 1c 32 1b 3d
       0.018834662 0.022337463 -0.065617196 0.037889585
000270 82 61 46 3d c4 15 9f bd fb 2c e8 3c 68 3c ff bc
       0.048432834 -0.07767823 0.02834176 -0.031156734
000280 2b 2f 48 3d 6f 3c ca bc 08 f3 cb 3b a9 d0 0c bd
       0.048873108 -0.02468702 0.00622404 -0.03437868
000290 22 27 a9 bc 94 0f 18 3d 4e 9f 9a bd e1 11 82 b9
       -0.020648543 0.03712423 -0.07549916 -0.00024808853
0002a0 c3 ed 5e bc 44 86 b7 bd 9b 80 4f bd 7b a8 cc bd
       -0.0136064915 -0.08961156 -0.050659757 -0.099930726
0002b0 e8 09 ef bd f4 a7 42 bb be 7b 09 bc 69 c1 48 bd
       -0.11671811 -0.0029702159 -0.008391319 -0.049012575
0002c0 e7 bf e8 bd 3a 5e be bc fc 7e d5 bd 10 6c c5 bd
       -0.113647275 -0.02323829 -0.10424611 -0.09639752
0002d0 ef dd e3 bd 52 58 bc 3a 12 84 94 bd 6c 10 93 3c
       -0.11126315 0.0014369583 -0.07251753 0.017952166
0002e0 3a 28 54 bd a4 08 af bd 3e f7 6c bd 0b 0c bc bd
       -0.051796176 -0.0854657 -0.057852976 -0.091819845
0002f0 c0 85 3b bc 1a fc 80 bd 87 d2 04 3d 85 ae 30 3d
       -0.011445463 -0.062980846 0.032427337 0.043135185
000300 0d 57 af 3b 3b 8f 50 bd a8 ea 13 3d 29 d3 bf bd
       0.0053509534 -0.050917845 0.036112458 -0.093664475
000310 71 b2 5b bd b0 83 79 bd 4b df 78 3c e1 bb bc bd
       -0.05363697 -0.060916603 0.015189956 -0.092155226
000320 40 46 0f 3d 8c cc d5 bc 31 3e 61 bc d5 e0 79 3c
       0.034979105 -0.026098512 -0.013747738 0.015251358
000330 02 ed 62 bc a9 0f 1a 3d af db ba 3c 2b 70 51 3d
       -0.013850452 0.03761259 0.022809831 0.051132362
000340 6e 3d 4d bd 1a 07 cd bd 9e 2d 18 bc d8 32 2a 3d
       -0.050107412 -0.1001112 -0.00928822 0.041552395
000350 c7 7c 41 3d e7 97 f1 3d f6 63 51 3d 70 0a 78 3d
       0.047238138 0.11796551 0.05112072 0.06055683
000360 25 1a 61 3a 84 9f 72 3d 23 bf d9 3d c5 b8 bd 3c
       0.00085869647 0.059234157 0.106321596 0.023159394
000370 47 ad 67 3d 60 a5 91 3d a7 8d 2c bd d6 35 67 ba
       0.056561735 0.07111621 -0.042127278 -0.0008819973
000380 33 5b b0 3d c3 6e ee 3c 98 90 15 3d 94 27 ab 3d
       0.08611145 0.02910555 0.03651485 0.08357158
000390 08 87 95 3d 85 a3 80 3c 42 fa eb bc d1 2a cb 3b
       0.07301146 0.015702972 -0.028805856 0.0062001725
0003a0 64 e6 95 3c 0c 8f b0 bd 52 24 52 bd ac 81 93 3d
       0.018298335 -0.08621034 -0.05130417 0.07202467
0003b0 30 d2 fe 3c c4 63 b7 3c 87 f5 5d bd 5f b6 8c bd
       0.031106085 0.02238644 -0.05418923 -0.06870722
0003c0 bb 7d e2 3c a5 77 ad 3d 1d e7 29 3d 83 4f 16 bd
       0.027647844 0.08470086 0.041480172 -0.036696922
0003d0 2e 16 93 3d 02 bc 95 bc 25 d1 46 3d b9 5b b9 bc
       0.07181965 -0.018278126 0.0485393 -0.022626745
0003e0 00 3b f3 3c 0a 18 09 ba cb f4 b4 3c 08 83 07 3d
       0.02969122 -0.00052297174 0.022089383 0.033083946
0003f0 99 d0 3e bd 93 0a 85 3d dc c0 3d bd b8 25 12 bd
       -0.046585653 0.064961575 -0.046326503 -0.035680503

fcIn.bias f4 [30]
000000 c7 42 47 ba 69 b5 b7 3c e2 27 95 3e 94 5c 86 bc
       -0.0007601198 0.02242537 0.2913199 -0.016401567
000010 b1 68 12 be 21 8d 8c bd e5 8e 8d bd af 57 3e 3e
       -0.14297749 -0.06862856 -0.069120206 0.18588136
000020 8e 50 f2 3d 89 a4 ef 3d 36 76 d5 3d b3 ec 72 3d
       0.11831771 0.117013045 0.104229376 0.059307765
000030 62 ed 1b bd 36 a0 ca 3c ef 44 ee ba 33 19 b5 bd
       -0.038068183 0.024734598 -0.0018178503 -0.08842697
000040 71 49 f4 3c 8f 47 85 3c 6f ac b7 3d 6c 54 a7 3d
       0.029820176 0.016269473 0.08968436 0.08170399
000050 a2 9d 1d 3d b7 d5 f4 3d ec bd fa 3d 08 4b df bd
       0.03848041 0.11954825 0.12243256 -0.10902983
000060 eb 15 3d 3d a9 a6 0f 3e 5a b2 4a 3e 0c ec 54 3e
       0.04616348 0.1402842 0.19794598 0.2079317
000070 ba e7 e7 3d 29 51 b3 3d
       0.11323495 0.087557144

fcOut.weight f4 [2, 30]
000000 8f 76 84 be 3b 7f 34 3e 2b 45 7b 3e be 85 54 be
       -0.25871703 0.1762666 0.24538104 -0.20754144
000010 77 c1 4d 3d 20 0d 19 3d e8 65 b6 3e 19 b8 2b bf
       0.05023333 0.037366033 0.35624623 -0.67077786
000020 fb df 13 bf 80 0d 7f bd 35 7c ab bd 0a c3 bc be
       -0.5776364 -0.062268734 -0.083733 -0.36867553
000030 bb 6f ab bd 91 3e 09 bf 5b 9b d3 3e 9d 43 03 3e
       -0.0837092 -0.53611094 0.41329464 0.12818761
000040 7a 05 e2 bd 3e b4 31 3e 10 3b 0c bd b5 d8 d9 bd
       -0.11036201 0.17353913 -0.034236014 -0.10637037
000050 36 b1 22 bf 40 05 46 3e 91 78 c9 3e 5a b8 4c bf
       -0.6355165 0.1933794 0.39349797 -0.799688
000060 3a 27 6e 3e 90 95 24 3d b0 16 c0 bc e5 a7 7b 3e
       0.23257151 0.040181696 -0.023448318 0.24575765
000070 c8 a6 07 be 85 d5 77 be 08 60 2e bd ab e3 04 be
       -0.13247216 -0.24202545 -0.04257205 -0.12977473
000080 be a0 43 3e f2 c9 86 3c 9b cc f4 3c 00 c3 13 be
       0.19104287 0.016453717 0.02988272 -0.14429855
000090 11 af ef 3e 9d 27 36 be d8 94 6d bd 3f ad 27 bc
       0.46813253 -0.17788549 -0.058003277 -0.010234176
0000a0 a4 09 33 3e 8e 95 23 3e 7f 83 f4 bd 18 fb 1d 3e
       0.17484146 0.1597502 -0.119391434 0.15427816
0000b0 c2 6b c2 3b 70 af 34 3d 48 38 13 3f 4e a1 41 3f
       0.005933256 0.044112623 0.57507753 0.75636756
0000c0 22 1b 2a be 53 73 53 3e 9b 82 48 be 76 db 17 be
       -0.16611913 0.20649461 -0.19581072 -0.14829811
0000d0 0a d7 b7 3c d5 d4 9f 3d 69 73 30 bd ac 50 55 3e
       0.022441406 0.07804266 -0.043078814 0.20831555
0000e0 e2 02 33 be c0 f9 84 be 63 68 2d 3e b7 68 90 bd
       -0.17481568 -0.25971794 0.16934352 -0.07051223

fcOut.bias f4 [2]
000000 7a d5 49 3d c4 b2 52 3f
       0.049275853 0.82304025
