PyTorch/lightning_logs/version_6/checkpoints/epoch=99-step=11900.ckpt (torch, 19995 bytes, 4 tensors)

fcIn.weight f4 [30, 126]
00000000: 47ca fb3a 6c46 293d 207d 8e3d 7edf abbd
00000010: c4ef 993c f332 5abd 1512 033d 5f53 7bbd
00000020: a6af 3dbc 4ef5 553d d307 843d 225c 3d3d
00000030: 6f06 b4bb 6806 6c3d 38d3 b0bd 62b1 b0bd
00000040: a8ca c1bd fd17 883c d871 e2bd f2ee 9dbd
00000050: da6b f33c b69a 9fbd 64b9 fabc 7dc7 983d
00000060: 732d 5e3d 5b39 8c3d 89b4 113c 8eda ff3c
00000070: 3294 fe3c fef0 a43d ee2a 3abd a0d3 1ebd
00000080: 3a62 833d a562 54bd 6aab 34bb ddfb 073d
00000090: 26be 17bd e410 8abd adce 51bd 0083 b03d
000000a0: f14c 993d 151d f43c 30ef e1bc 62c4 37bb
000000b0: d076 11bd 300a e2bc f45e 683c 2612 f4bd
000000c0: dcc1 cabc adb7 00be ef29 87bc 1194 d8bd
000000d0: 76ff 9cbd 3244 bfbd f2e9 22bd a9ab 06be
000000e0: 5a46 14bd 6d2b bebc 370d 97bc ec6b d6bd
000000f0: e873 ecbc b79f debd 896e 04be 6b38 693c
00000100: 2b3a 803d db81 9ebd 115a 5f3c c6a1 5dbd
00000110: 0ada e4bd 414f 88bd 13ab d43c 9547 1e3b
00000120: 6561 63bd e8a8 c7bc feff 4fbb 2e97 4b3c
00000130: b4c4 9abc f88b 7d3d e145 7ebb 3ef4 253c
00000140: 5296 8dbd ab83 43bc eb3a 703c 2773 e5bc
00000150: 22ca cd3d c620 1d3e 7023 af3d fd59 4c3d
00000160: 64a0 8e3d ee1a e63d f0e4 863d a58d fd3d
00000170: a448 163d e53e 9d3d 02f1 1f3e 6188 ce3d
00000180: 2bde 8f3d 10dc 273e 204a ba3d 19f1 c73d
00000190: 986a 4a3d ca45 c53d 57f9 033e f102 353d
000001a0: f039 a53d 8dae 55bd a0a8 063d 86ea 08bd
000001b0: e5bf 7bbd d469 a1ba 416c 0e3d 641f 34bc
000001c0: 163d 4b3d 6930 bb3b 4b47 b23d e06f 943a
000001d0: 4eaf 883d 1266 adbd 7959 4cbd 8377 903d
000001e0: eb95 8e3d a584 9fbd 0758 753d 9603 1dbd
000001f0: 0b66 0bbd 7387 b33d 3fca e53c d050 d7bc
00000200: 9a23 0fbd f881 7e3d d3c3 ae3c ad37 0b3d
00000210: 69f5 6f3c 8491 0dbc c03d f03d e075 9d3c
00000220: cfd2 b9bc da0c 0c3e 6d33 ca3d 4e38 be3d
00000230: 7d0d c13d f898 e73d c803 a93b fabc fe3d
00000240: 08f0 823d e21c 8a3d 4bb4 783d ecec 1abb
00000250: bb24 9bbc 026f 973d e316 103d e3e3 3abc
00000260: a127 c33b 127c 7f3d b418 aabc 9273 c0bc
00000270: a3bc d0bb d475 dfbc 2e94 e13d 9772 cd3d
00000280: de1f f63c 1f30 083c 78e7 183d 0c49 c3bc
00000290: e943 e8bc 7e05 2dbb 0a6e 183d 934e c73d
000002a0: 8325 3d39 c7e6 b13d ab14 a13d 937e 9e3d
000002b0: 909c 03bc 6f54 893d d9ba e43c d3be 42bd
000002c0: 2dae d63b 6984 23bd 346b 873d effa a5bd
000002d0: 293a 563d 0a88 10bd ad2d 963d c2fe 3bbd
000002e0: f293 06bd 5cf4 47bc 4aea 09bd ea2b 6e3d
000002f0: 90d2 943d 290b ccbc 92a3 a7bd f4a3 893d
00000300: 1654 c13c 4723 87bc 76e6 70bd cd2d b7bc
00000310: bccc 60bd c141 59bd 957b cabc 5be4 c0bd
00000320: 9999 95bc 4829 043d fc0c bcbc 9732 b6bd
00000330: ee96 a93c 45a9 c13b c77c 823d 14b3 2f3d
00000340: 77e3 143c 07c7 a4bc bde3 eabd 166f 0abe
00000350: 17ca 39bd 6465 24bd fdf9 22bd 85f9 bbbd
00000360: ed89 efbd 07fe a4bd f482 1cbe 6e14 babd
00000370: db47 b3bd 4913 f7b9 dade 97bc fb04 47bd
00000380: b772 3dbd b97d dabc ba81 22be e2c8 9fbc
00000390: d79a bc3b be25 11bd 5d76 21be c0de d33c
000003a0: a2ab b7bb 6689 5c3d b69d 16bd 112f 30bd
000003b0: 0071 24bc c17f 69bd 9733 66bd fb45 763c
000003c0: 652f 8e3d 0a26 4e3d d94d 17bd 5b7d 533d
000003d0: 4287 25bc e693 8bbd 940a a0bd 76a3 39bd
000003e0: 34a2 3c3c 85bd 42bd 6135 713d 703c d4ba
000003f0: 79c1 503d de99 7cbd 283f 8a3d 188d af3c
0.0019210064 0.041326925 0.069574594 -0.08392237 0.018791087 -0.053271245 0.031999666 -0.061358806
-0.011577522 0.052235894 0.06446805 0.046230443 -0.005493931 0.057623297 -0.08634037 -0.08627583
-0.09462482 0.016613001 -0.1105687 -0.07711591 0.029714514 -0.07793181 -0.03060598 0.07459924
0.054242563 0.06846877 0.008893141 0.031232145 0.031076524 0.08053778 -0.045451097 -0.03877604
0.064152196 -0.051851887 -0.002756799 0.03319918 -0.037046574 -0.06741503 -0.051222492 0.08618736
0.074853785 0.029799024 -0.027579874 -0.0028040637 -0.0355137 -0.027592748 0.014182795 -0.11917524
-0.024750642 -0.12570067 -0.016499488 -0.105751164 -0.07665913 -0.09339179 -0.03977389 -0.1315142
-0.036199905 -0.023214066 -0.018438919 -0.10469803 -0.028863862 -0.10870307 -0.12932791 0.0142346425
0.06261095 -0.07739612 0.013632313 -0.054109357 -0.111744 -0.066557415 0.02596048 0.0024151553
-0.055512805 -0.024372533 -0.0031738277 0.012426181 -0.018892623 0.061901063 -0.0038798975 0.010129033
-0.06913437 -0.011933248 0.014662485 -0.02800901 0.100483194 0.15344533 0.08551681 0.049890507
0.06964186 0.11235605 0.06586635 0.12380532 0.03669037 0.07678012 0.15619281 0.10084606
0.07024797 0.16392541 0.090961695 0.097627826 0.049418062 0.09632452 0.12888084 0.04419226
0.08067691 -0.052168418 0.032875657 -0.033426784 -0.0614623 -0.0012314864 0.034771208 -0.010993812
0.049618803 0.005712558 0.08705004 0.0011324845 0.06674062 -0.08466734 -0.049890015 0.07054045
0.06962188 -0.07788972 0.059898403 -0.038333498 -0.034032863 0.08766069 0.02805054 -0.026283652
-0.03494606 0.062135667 0.02133361 0.033988643 0.014645913 -0.008640651 0.11730528 0.019221246
-0.02268353 0.13676777 0.0987309 0.09288083 0.09426401 0.11308473 0.0051579215 0.12438388
0.063934386 0.0674379 0.060718816 -0.0023639752 -0.018938413 0.0739422 0.035178076 -0.0114068715
0.005955652 0.062374182 -0.020763732 -0.023492608 -0.0063701435 -0.027277865 0.11014591 0.10031622
0.030044492 0.008312254 0.03733012 -0.023838542 -0.028352695 -0.0026400979 0.037214316 0.09731784
0.00018038419 0.086865954 0.0786527 0.07738986 -0.008032933 0.067055576 0.027921127 -0.047545265
0.006551525 -0.039921198 0.06612244 -0.081045024 0.05230156 -0.035285987 0.07332931 -0.045897253
-0.032855935 -0.012204256 -0.0336707 0.05814735 0.07266724 -0.024907665 -0.081854954 0.06720725
0.023599666 -0.016496314 -0.058813535 -0.022360707 -0.05488275 -0.053041223 -0.024717132 -0.09418555
-0.018261718 0.03226593 -0.02295541 -0.08896368 0.020701852 0.005910071 0.06371456 0.04289539
0.009087435 -0.020114435 -0.11469219 -0.13518938 -0.045358744 -0.040135756 -0.03978919 -0.091784514
-0.11696229 -0.08056264 -0.1528433 -0.09085928 -0.0875394 -0.0004712588 -0.018538881 -0.048588734
-0.04625198 -0.026671277 -0.158698 -0.019504968 0.005755763 -0.035436384 -0.15767808 0.025863051
-0.005605177 0.05384197 -0.0367715 -0.043013636 -0.010036707 -0.0570066 -0.056201544 0.015031333
0.069426335 0.050329246 -0.036939476 0.05163322 -0.010103049 -0.06815319 -0.078145176 -0.045321904
0.011513282 -0.04754402 0.058888797 -0.0016192328 0.05096576 -0.061670177 0.06750327 0.021429583

fcIn.bias f4 [30]
00000000: f40a 163e a7e4 063d dd12 613d 8356 d83c
00000010: f529 90bd 98ce 16be 7064 dcbd a557 dd3c
00000020: 3467 1b3e 93e5 9c3c f65e ba3d e9c7 a63d
00000030: 95bf 233d 3ea5 6a3e 2b2c 47bd ae61 3e3d
00000040: 6353 fb3d 1f3c 953c a317 753c 4ffe 86be
00000050: 4002 1e3d 8fd1 aabd 61e9 d03d dced 3ebd
00000060: e2e6 1e3e 2d7a bc3d 9ee4 853c cdf4 3cbc
00000070: 0544 8fbb 21d9 6bbd
0.14652616 0.032932904 0.05494963 0.02640844 -0.07039253 -0.14727247 -0.107613444 0.027019331
0.15176088 0.019152438 0.091001436 0.081435986 0.03997763 0.22914597 -0.048626106 0.046479873
0.12271764 0.018217145 0.014959249 -0.26365897 0.038576365 -0.083407514 0.102007635 -0.04661356
0.15517762 0.09202991 0.016344365 -0.011532974 -0.004372122 -0.057580117

fcOut.weight f4 [2, 30]
00000000: a9c3 083f 4b58 293f 5ee8 71be 0a57 2a3e
00000010: 932a 8a3e 2ad4 e9bb ad71 043e bdc1 4dbd
00000020: 5cdb 493e 73cd 72be 46f5 a1be 982d dabe
00000030: 37ab 20be 681c 543e 95d1 bb3e b3e5 67be
00000040: 8864 11bf 0dd8 a83e 84df 27bf 50ac 31bf
00000050: 0fba 97bb b62b 3cbe 0023 debe a83c 813e
00000060: db15 38be 3941 943e 0ddf 44be b895 64be
00000070: 960b f0be e0b2 653e 0360 2d3f 5ca5 d43d
00000080: c944 dd3e 26ac 11bd fd4d 473e 51fd 213e
00000090: 68ab a73e 6dad ccbb e7e0 f9bd 69d1 61be
000000a0: 5673 983e 1a10 123e 1f85 ebbd 4fc8 e13c
000000b0: 4996 073e d21d 3b3e 0a01 1c3d b7c1 1f3e
000000c0: 9e8c 193e 4671 3bbe 2279 cabd 0adf 4fbe
000000d0: 4058 873b 94e9 1e3e b8d0 2e3e 6484 81be
000000e0: 91ae 32be ff4b c33e 631b 9c3d b57b a3bc
0.53423554 0.6615035 -0.23623797 0.16634765 0.26985607 -0.0071358876 0.12933989 -0.05023359
0.19712585 -0.23711185 -0.3163244 -0.4261291 -0.15690313 0.20713961 0.36683336 -0.22646217
-0.56794024 0.32977334 -0.6557543 -0.69403553 -0.004630334 -0.1837605 -0.43386078 0.2524159
-0.17977087 0.2895601 -0.19225712 -0.22322738 -0.4688384 0.22431517 0.6772463 0.10383102
0.4321654 -0.035564564 0.19463344 0.15819289 0.3274796 -0.00624626 -0.122011 -0.2205254
0.29775494 0.14263955 -0.115 0.027561335 0.13240923 0.18273094 0.03808693 0.1560124
0.14995047 -0.18304929 -0.098863855 -0.20299926 0.0041303933 0.1551879 0.17071807 -0.2529632
-0.17449404 0.38143918 0.07622411 -0.019956449

fcOut.bias f4 [2]
00000000: 767c 463e a2c8 963f
0.19383416 1.1779978
