PyTorch/lightning_logs/version_3/checkpoints/epoch=99-step=11900.ckpt (torch, 19995 bytes, 4 tensors)

fcIn.weight f4 [30, 126]
000000 4f c2 87 bd 7a 0a aa 3d 41 a7 88 bb a2 75 c1 3d
       -0.06628858 0.083027795 -0.004170329 0.09446265
000010 d9 91 82 3c af 10 4c bd 17 c9 24 3c 6d 68 87 bc
       0.015938686 -0.0498206 0.010057709 -0.016529286
000020 ff 68 8a bc 9c e3 43 bd 41 e3 51 3d e1 c2 09 3d
       -0.01689577 -0.047824487 0.051242117 0.033633117
000030 26 c7 ff 3c e1 1e ae bc 03 12 c7 3d c8 2c 57 bd
       0.031222891 -0.021254959 0.09720232 -0.05253294
000040 42 3a bd 3d 5b 7c 62 bd d5 c8 4d bb 71 3c 21 bd
       0.092396274 -0.055294376 -0.0031400223 -0.039364282
000050 d8 79 16 bd 73 35 3a bd 5c a4 f5 bc bf f8 af bd
       -0.036737293 -0.04546113 -0.0299856 -0.085923664
000060 96 9e 58 3c 19 d2 05 bd 01 c3 82 bd 77 fa a2 3b
       0.013221404 -0.032671068 -0.0638485 0.0049737054
000070 05 75 d2 bc 86 d6 96 3d 00 c6 09 3d ea 90 80 bd
       -0.025690565 0.07365136 0.033636093 -0.0627764
000080 0d 0b 8a 3d d2 8a 4f 3b 61 41 68 3c 04 05 e4 bc
       0.06740389 0.0031668437 0.014175744 -0.027834423
000090 1e df 77 bd fe 9b 24 3d 6f 89 5c 3c 7b ac 3b 3d
       -0.060515516 0.04018783 0.013460501 0.045818787
0000a0 07 77 2c bd 6b 73 e6 3c 52 63 c9 bd 8e b5 7e bd
       -0.0421057 0.028131207 -0.09833397 -0.062184863
0000b0 f9 13 9b bd f9 cb 10 bd 9a 76 1f bd 97 29 2e 3d
       -0.07572169 -0.035350773 -0.038931467 0.042520132
0000c0 92 65 9f bd cf 40 b4 bd e1 e8 8b bd 9c b4 a9 bb
       -0.07783045 -0.08801424 -0.068315275 -0.005179001
0000d0 46 5f c4 3b e3 b0 c9 bc 44 20 ec bc ce 04 70 3d
       0.005992803 -0.024620479 -0.02882398 0.058598332
0000e0 65 c3 88 bd ce ec 6b bd 18 2a bf bd 33 80 8b bd
       -0.066778935 -0.05759888 -0.093342006 -0.068115614
0000f0 a9 68 c0 3b 16 5d 97 3d df 61 92 3d 8b 2d 05 bb
       0.0058718515 0.073908016 0.07147574 -0.0020321335
000100 4f fe aa bd ce cc a1 bd b3 ca 82 bd 59 b9 3d bd
       -0.08349287 -0.079003915 -0.06386318 -0.04631934
000110 c7 de 80 bd 5e 80 4a 3d c7 9e a9 bd 4a 74 12 3d
       -0.062924914 0.049438827 -0.082822375 0.035755433
000120 0c 8a 89 bd 62 08 8c 3d 75 6d 11 bd b0 a2 d6 b9
       -0.067157835 0.068375364 -0.035504777 -0.00040938472
000130 de 05 97 3b cb 4e 0f 3c 9c 77 f9 bb 8b 5f 4b 3d
       0.0046088537 0.008746813 -0.0076131355 0.049651664
000140 b9 b1 bb 3c 3f 7b c9 bd 33 a2 fe bc 73 62 8d 3d
       0.022911893 -0.098379605 -0.031083202 0.06903543
000150 9a 05 b8 3c bd 8e c5 bc 1c 2e 34 bd 4c 88 af 3d
       0.022463609 -0.024115914 -0.043989286 0.085709184
000160 f0 f5 d8 3c 85 67 00 bc d5 e0 8d 3d d5 aa 3d bd
       0.02648446 -0.007837181 0.06927649 -0.046305496
000170 f3 f8 5a 3d 24 b0 a8 bb 94 26 fa 3c a0 a2 ce bd
       0.053460073 -0.0051479507 0.030535974 -0.10089612
000180 09 5d c3 bc c0 38 79 bc eb d6 16 bd b7 34 80 bd
       -0.023848074 -0.015211284 -0.036826055 -0.062600546
000190 5f de d7 3c b4 47 16 3d 5c 9a fa bc 18 09 c6 3c
       0.026351152 0.036689475 -0.030591182 0.024174258
0001a0 b5 ea 3a bd 5c 7a 53 3d 63 63 b7 bd dc 46 a5 bd
       -0.04563399 0.051630363 -0.089545034 -0.08070156
0001b0 67 91 64 bd 11 97 2b 3d 32 fa 8d bd e0 ff 2f 3d
       -0.05580273 0.041892115 -0.069324866 0.04296863
0001c0 aa 76 6d 3d 0b 6d 67 bd 54 15 c2 3c 25 9b 95 3d
       0.057974495 -0.056500476 0.02369181 0.07304982
0001d0 4e 7f 26 bd 09 4c 2a 3d 42 0a 11 3c ab 22 4a bd
       -0.04064875 0.04157642 0.008852543 -0.04934947
0001e0 55 47 98 3d db 92 73 bc d9 18 e2 3c 32 4f a3 bb
       0.074354805 -0.014866556 0.027599739 -0.004983806
0001f0 32 25 20 bc 8c 15 14 bb 6d 0f 8a 3d 76 a8 c2 bd
       -0.009774493 -0.002259585 0.067412235 -0.095047876
000200 8c 98 02 bc b1 31 74 bd b9 23 d3 bd 5f 08 92 bd
       -0.00797094 -0.059617702 -0.10309548 -0.07130503
000210 f1 a9 9e 3c fe b5 48 3d 67 fc a2 bd 55 3f c1 bd
       0.019368144 0.049001686 -0.07958298 -0.09435908
000220 6e 20 b0 bd 74 df 91 bd 3d 13 d7 3c 0c 5f 83 3d
       -0.085999355 -0.071226984 0.02625429 0.06414613
000230 f7 72 02 bd 2e 9b 92 3c a8 56 ac 3c 2f 6d 90 bd
       -0.03184792 0.017896261 0.021037415 -0.07052075
000240 70 1a ee 3c 03 3c 4e bc 9d 65 73 3d 05 d0 60 bd
       0.02906534 -0.01258755 0.059423078 -0.054885883
000250 53 c5 75 3d a7 7d b1 3d 3c cd 1a 3d 01 1f 22 3d
       0.060002636 0.086665444 0.037793383 0.03958035
000260 cf ea bb bc 12 fc 91 3d 30 74 d9 bc 6c f2 25 3d
       -0.022939114 0.07128157 -0.02654466 0.040514395
000270 d4 3b 9b bd 83 41 9e 3d 6b 61 b1 3c a8 3f 7d 3d
       -0.07579771 0.07727339 0.021652898 0.061828285
000280 94 41 47 3d 59 a6 44 bd b9 92 75 3d 07 71 54 bd
       0.048646525 -0.048010204 0.05995438 -0.051865604
000290 4e 9a 4c 3c 65 3c 44 bd 43 60 8e 3d 03 4f 19 bd
       0.012487961 -0.04790916 0.06951954 -0.037428867
0002a0 a7 9e 52 3d dd 99 94 3c ca c0 26 bc aa 05 15 bc
       0.051420834 0.018139774 -0.0101778 -0.009095589
0002b0 b7 2d 68 bd 2e 9a 21 3d e7 09 ce bc 58 da 9c 3d
       -0.056684222 0.039453678 -0.025151206 0.07658833
0002c0 18 6f 8e bd 9c 4d ae 3d a4 0c c9 3c 02 70 b4 3d
       -0.06954783 0.085108966 0.02454216 0.08810426
0002d0 5f fd 6c 3d e8 12 82 3d 65 97 9d bd e0 56 16 3d
       0.05785882 0.06351262 -0.07694892 0.036703944
0002e0 33 ca 1e bd e3 9c 08 3d 44 80 8c bd 64 f4 b1 bc
       -0.03876705 0.033352744 -0.06860402 -0.02172298
0002f0 6e a3 2b 3d a9 12 38 3d bd f6 9b 3d 06 7b 21 3d
       0.041903906 0.04493967 0.07615421 0.039423965
000300 73 a2 04 bb fe 6d 98 3d 68 c7 ca 3c 2b d0 c7 bb
       -0.002023843 0.07442854 0.024753287 -0.0060978136
000310 52 57 b4 bc 80 a9 4e bc ab ba da 3b 9d 46 84 3c
       -0.022014294 -0.012613654 0.0066750846 0.016146952
000320 a8 96 08 bc 3b e9 11 3d c3 a6 d4 bb b9 69 6a bc
       -0.0083367005 0.035622817 -0.006489606 -0.014307433
000330 7c d6 97 3d 70 d8 a1 3d 9a e9 62 bd 67 55 81 3d
       0.074139565 0.0790261 -0.05539856 0.06315117
000340 5a 88 9a bc 4e b8 02 bd a9 fa 85 3d f2 2d 7e bd
       -0.018863846 -0.031914048 0.0654195 -0.062055536
000350 93 fc 15 3c ab 5c 00 bd 39 83 82 bd cf 77 58 bd
       0.009154457 -0.031338375 -0.06372685 -0.052848633
000360 35 e4 c2 bc 37 cb 70 3d f6 09 3c bd 5e cd ff bc
       -0.023790458 0.05878755 -0.045907937 -0.031225856
000370 88 fa 9f bd 8f d6 82 3d 06 87 97 bd eb 68 05 bd
       -0.07811457 0.0638858 -0.073988006 -0.03257076
000380 9d 49 9f 3d f4 53 0c bd a2 a0 c4 bc 01 51 1c bd
       0.077777125 -0.03425975 -0.024002377 -0.03816319
000390 94 dc 2d 3c f0 b3 a3 bb b0 46 47 3d 40 0b b3 3c
       0.010611672 -0.0049958155 0.048651397 0.02185595
0003a0 dd 14 3c b9 47 0f a2 bd 98 a2 ef bb 09 59 a9 3d
       -0.0001793685 -0.0791307 -0.007313084 0.08268935
0003b0 73 ac 76 bd 29 e3 8c bd 88 5e 6d 38 a7 61 82 bc
       -0.060223054 -0.06879265 5.6593242e-05 -0.015915705
0003c0 30 fa 9f 3c f2 48 fd 3b 9c 08 e4 3c 9a fe a2 3d
       0.019528478 0.007729643 0.027836137 0.07958718
0003d0 eb 39 c5 bb bd c6 9c bc 9d 49 65 bd e1 95 6b bd
       -0.0060188673 -0.019137735 -0.055978406 -0.057515983
0003e0 20 5c 15 3d 99 f1 2a 3c 68 95 8b bc 18 9a 86 bd
       0.03646481 0.010433578 -0.017039016 -0.0657236
0003f0 b7 ce bd bc 81 59 73 bd 4b fa 01 bd ec 5c 64 bd
       -0.023169858 -0.05941153 -0.03173284 -0.05575268

fcIn.bias f4 [30]
000000 0a 18 b7 3c a9 3b 02 bd d1 43 05 bc 4c 5c b3 bd
       0.02235033 -0.031795178 -0.0081338445 -0.087578386
000010 36 74 e0 bc 6b c7 05 be fd f7 a5 3d eb 71 5f bd
       -0.027399164 -0.13064353 0.08103941 -0.054552
000020 9d 7a 36 3e fe 13 78 3d ba b9 47 3e e4 a9 ac be
       0.17820211 0.06056594 0.19504443 -0.33723366
000030 6f 51 67 3c b1 31 64 be 85 1d 75 bc 15 dd 64 bd
       0.014118536 -0.22284581 -0.014960651 -0.055874903
000040 ed 17 12 3d 03 ec be 3c d6 e8 bc 3d f0 69 57 bd
       0.03566735 0.023305899 0.092240974 -0.052591264
000050 29 b5 95 3d 14 ed 06 3e 85 3d da bb 2e ad b2 3d
       0.07309944 0.13176376 -0.0066601657 0.08724438
000060 22 f8 98 3d ff a9 37 3e 71 67 4b 3b ee 98 eb bc
       0.074692026 0.17935942 0.0031036998 -0.028759446
000070 51 a1 95 bd 37 d0 f4 bc
       -0.07306159 -0.02988444

fcOut.weight f4 [2, 30]
000000 61 19 e6 3d 26 ee 8c 3e f0 ff d5 bd e3 03 aa be
       0.112353094 0.27525443 -0.10449207 -0.3320609
000010 93 46 b9 bd 52 8f 2f be d0 91 8f 3e 11 09 41 bd
       -0.09046664 -0.17144516 0.28040934 -0.047127787
000020 ef b0 3d bf 72 25 e5 3d e2 28 14 3e 5f 59 e8 3e
       -0.74098104 0.11188783 0.1446872 0.45380685
000030 58 aa 42 3f a7 18 b2 be 0e 38 79 be ef b1 69 bd
       0.76041174 -0.34784433 -0.2433779 -0.057054456
000040 f0 7f 9b be 2c b8 9f 3d b9 94 b1 3e 5b 8f ff 3d
       -0.30371046 0.077988 0.3468378 0.12478515
000050 d4 05 83 be bc e8 03 be 16 fe 61 bd fd 98 80 be
       -0.25590384 -0.1288175 -0.055173956 -0.2511672
000060 2f 69 55 be 6d 8a 60 3c 1a 52 87 3d 49 1b 80 bf
       -0.20840906 0.013704878 0.066074565 -1.0008327
000070 6c 03 da 3e 6e f5 bc 3c 5e 91 1a be a3 e0 34 3e
       0.42580736 0.023066249 -0.15094516 0.17663817
000080 36 4f f6 bd 1a 95 e2 bb af 01 37 3d 86 af 31 3e
       -0.12026827 -0.006914747 0.04467934 0.17352113
000090 31 ed 00 bd 2a 82 44 bd 05 de 00 be 21 a4 5b bd
       -0.031476203 -0.047975697 -0.12584694 -0.053623322
0000a0 4e dc a9 3d 9b 8f 32 3e df 6b 90 ba 26 5d 8e 3e
       0.08293973 0.17437594 -0.0011018476 0.27805442
0000b0 06 8b c7 bd 53 1e 53 be c7 ec 4a be ad 34 49 be
       -0.097433135 -0.20617037 -0.19816886 -0.19649
0000c0 49 1f 70 3e 79 6c 22 3d 56 b2 15 3f 63 ba a4 b9
       0.23449434 0.03965423 0.58475244 -0.00031419387
0000d0 cf 47 c0 bd 2d ec 69 be ba c9 da 3e 3b be d4 3b
       -0.093886964 -0.22844 0.4273203 0.006492404
0000e0 30 7b a9 bc ce 0b e0 3d 32 17 87 3e 30 16 de 3e
       -0.020688623 0.109397516 0.26384884 0.43376303

fcOut.bias f4 [2]
000000 2f 42 7d 3e 07 71 41 3f
       0.24732278 0.7556309
