PyTorch/lightning_logs/version_14/checkpoints/epoch=99-step=11900.ckpt (torch, 19995 bytes, 4 tensors)

fcIn.weight f4 [30, 126]
0	0x3dd5b91c	0.104356974
1	0x3da7e21a	0.08197422
2	0xbd74d34e	-0.05977183
3	0x3d4d9ef7	0.05020043
4	0xbc57d222	-0.013172658
5	0x3d194752	0.037421532
6	0xbd8c6551	-0.06855262
7	0x3c8ce7a8	0.017200306
8	0xbd87299b	-0.065997325
9	0x3d4a5037	0.049392905
10	0x3d0f932f	0.035052475
11	0x3d5e8414	0.05432518
12	0x3b0c15f0	0.002137538
13	0xbc97fa1f	-0.018551884
14	0xbcee8901	-0.029118063
15	0xbd0cff35	-0.034423072
16	0xbcfdf29b	-0.030999472
17	0xbd39c343	-0.04535223
18	0x3d5a73b8	0.053333014
19	0x3d79fa81	0.061029915
20	0x3dac41a7	0.0841096
21	0x3d8b71d2	0.06808819
22	0xbb1e6161	-0.002416693
23	0xbbb74f66	-0.005594182
24	0xbd8223c5	-0.06354479
25	0x3cbd15e9	0.023081737
26	0xbc625e5b	-0.013816441
27	0x3da62c05	0.08113865
28	0x3d974e10	0.07387936
29	0xbd7685da	-0.060186245
30	0x3d424417	0.047428217
31	0xbd48f1c6	-0.049058698
32	0x3d5cdc00	0.053920746
33	0xbdb4f09a	-0.088349536
34	0xbdb5aaf4	-0.08870497
35	0x3d63a365	0.055575747
36	0x3cf09651	0.029368551
37	0x3d3f1cfb	0.046658497
38	0xbd5a8268	-0.05334702
39	0xbd02508e	-0.031815104
40	0xbde269f8	-0.11055368
41	0xbdb9f51b	-0.09079953
42	0xbda897d2	-0.082320824
43	0xbce25375	-0.027627686
44	0x3d05ed55	0.03269704
45	0xbd5d06ef	-0.05396169
46	0x3d6a6a9c	0.057230577
47	0xbc68a606	-0.014199739
48	0x3d1fa12e	0.038972072
49	0x3d20c54f	0.03925067
50	0xbd48a148	-0.048981935
51	0xbda82efb	-0.08212086
52	0xbdba1e7e	-0.09087847
53	0xbd9aa6ee	-0.075513706
54	0xbd8771f2	-0.0661353
55	0x3d60b05b	0.054855686
56	0xbbb4e25c	-0.005520148
57	0x3cd5171c	0.026011996
58	0x3d8bb342	0.068213
59	0xbdb51ac3	-0.08842995
60	0x3afa2fa3	0.0019087683
61	0xbd61aa39	-0.055093978
62	0x3d8e75b6	0.06956045
63	0x3d047f8d	0.032348204
64	0x3d6f9101	0.058487896
65	0xbd647125	-0.055771966
66	0xbcc7d496	-0.024393361
67	0xbc28df00	-0.010307074
68	0xbc6be881	-0.014398695
69	0xbd4a490c	-0.04938607
70	0xbddf2520	-0.10895753
71	0x3cf277f1	0.029598208
72	0x3cc1a213	0.023636853
73	0x3d6da04c	0.0580142
74	0xbd929354	-0.07157007
75	0x3bfccd59	0.007714909
76	0xbce2934b	-0.027658125
77	0xbc7ed404	-0.015553478
78	0x3d6d7a73	0.057978105
79	0xbc30d19a	-0.01079216
80	0xbdc87564	-0.097880155
81	0xbc8b8f6f	-0.017036168
82	0x3d2888d5	0.04114612
83	0xbd11c00c	-0.03558354
84	0x3d6c4946	0.057687066
85	0xbbedb379	-0.007254061
86	0x3da954c2	0.082681194
87	0xbcba782a	-0.022762377
88	0x3d9b4cf2	0.075830355
89	0x3c5ee962	0.0136054475
90	0xbbfdc496	-0.007744382
91	0x3d0bef0f	0.03416353
92	0x3cc01d6a	0.023451526
93	0x3df43b9e	0.119254336
94	0x3d148c87	0.03626683
95	0x3e0b7a45	0.13620861
96	0x3a721bb0	0.0009235693
97	0x3e10e7bd	0.14150901
98	0x3cdc219d	0.026871497
99	0x3e0d7b35	0.13816531
100	0x3d3afe56	0.04565271
101	0xbbdca341	-0.0067333286
102	0xbb443426	-0.002993831
103	0x3e1d1005	0.15338142
104	0x3d8f7752	0.070051804
105	0x3d11819c	0.035523996
106	0xbce37cbe	-0.027769443
107	0xbce9b5d0	-0.028529078
108	0x3db27f31	0.08715666
109	0x3d448d39	0.047986243
110	0x3d823664	0.063580304
111	0x3c9257ba	0.017864097
112	0x3d985666	0.07438354
113	0xbd623711	-0.055228297
114	0x3dae5b23	0.08513477
115	0x3d2b0342	0.041751154
116	0xbd52086a	-0.051277556
117	0xbd92dd94	-0.07171169
118	0xbd9d9d4c	-0.076960176
119	0x3d81c906	0.0633717
120	0xbcd5cd7b	-0.026098957
121	0x3d908e44	0.07058385
122	0x3d85e74d	0.06538258
123	0xbcdc65f0	-0.026904076
124	0x3d15fe57	0.03661951
125	0xbcb473f5	-0.022027949
126	0x3da9fd52	0.0830027
127	0x3da7cb0a	0.081930235
128	0xbd125aa5	-0.035730977
129	0x3d556ce8	0.052105814
130	0xbd1e45e7	-0.038640883
131	0xbd766809	-0.06015781
132	0xbccd326f	-0.025048463
133	0x3cafda84	0.021466501
134	0x3d09ab21	0.033610467
135	0xbccfc93a	-0.025364507
136	0xbdafc20b	-0.08581933
137	0xbda07a30	-0.078358054
138	0xbaeb3732	-0.0017945527
139	0xbdb23c35	-0.0870289
140	0xbc8c0568	-0.017092422
141	0x3d282376	0.041049443
142	0x3d50aa78	0.05094382
143	0x3d7870e2	0.06065453
144	0x3dacae64	0.084317
145	0xbd54b701	-0.05193234
146	0x3d00f356	0.031482063
147	0x3db0abe1	0.08626533
148	0x3d9f95d5	0.0779225
149	0xbd8c7307	-0.06857877
150	0xbcf51915	-0.029919187
151	0xbd3d80aa	-0.04626528
152	0xbd707da8	-0.058713585
153	0xbd3f494e	-0.04670077
154	0xbccf8788	-0.025333181
155	0x3d2b55ee	0.041829996
156	0xbd9ae442	-0.07563068
157	0x3c951306	0.018197548
158	0x3d060751	0.03272182
159	0x3d8de70c	0.06928834
160	0xbd3facf6	-0.046795808
161	0xbcb99613	-0.022654569
162	0xbd7df985	-0.06200554
163	0x3c7564d3	0.014977652
164	0x3de3feec	0.11132607
165	0x3d123867	0.03569832
166	0x3de2ee62	0.11080624
167	0x3bf1b32a	0.0073760943
168	0xbcf47c0c	-0.029844306
169	0xbde4d134	-0.11172715
170	0xbd08db3e	-0.03341221
171	0xbdbc2a0e	-0.09187709
172	0x3c1018f5	0.008795013
173	0xbdcec6e2	-0.10096528
174	0xbd831150	-0.063997865
175	0x3d2d6cad	0.04233997
176	0x3cef0d1e	0.02918106
177	0xbdaf374a	-0.085554674
178	0x3d246467	0.040134814
179	0xbd2d4ded	-0.042310644
180	0xbc1f44a4	-0.009720955
181	0xbd868240	-0.06567812
182	0x3d7ff61e	0.062490575
183	0xbd5f77ba	-0.05455754
184	0x3d409211	0.0470143
185	0x3d36f7dd	0.044669975
186	0xbd5d9093	-0.054092955
187	0xbdae102f	-0.084991805
188	0x3b849d76	0.004047091
189	0xbda27191	-0.07931817
190	0xbdc3e80e	-0.09565745
191	0xbd312722	-0.04325021
192	0xbc9e511d	-0.019325787
193	0x3d56ba5a	0.052423812
194	0xbd635773	-0.05550332
195	0x3c88ca1c	0.016697936
196	0x3d8a5988	0.06755358
197	0xbdb1cc29	-0.086815186
198	0xbd28ff36	-0.041259013
199	0x3c44fc33	0.01202302
200	0x3d280a5b	0.0410255
201	0x3d4dd91f	0.05025589
202	0xbd97c993	-0.07411494
203	0x3d6001a9	0.054689083
204	0xbc9b26d2	-0.01893941
205	0xbda80832	-0.08204688
206	0x3c90e77d	0.017688507
207	0xbd81032f	-0.06299435
208	0xbd7400c1	-0.05957103
209	0x3c83b5f9	0.016077982
210	0x3c38e1fd	0.011284349
211	0xbd4e8219	-0.05041704
212	0x3d3601bb	0.044435244
213	0x3dacf965	0.08446006
214	0xbd6cf030	-0.05784625
215	0xbd38e90e	-0.045144133
216	0xbca26f4a	-0.019828457
217	0x3dbbc1ef	0.09167849
218	0xbcae3c19	-0.021268891
219	0x3c26d716	0.010183116
220	0x3c04ef9e	0.00811377
221	0xbccb99e2	-0.02485365
222	0xbd943b50	-0.072378755
223	0x3d3e4b77	0.046458688
224	0xbd08780b	-0.033317607
225	0xbd3517e6	-0.044212244
226	0xbd207a61	-0.03917921
227	0xbbbd0beb	-0.005769243
228	0xbb1ee7b8	-0.0024247002
229	0x3c41e948	0.011835404
230	0xbda37ed2	-0.079831734
231	0x3cc8dd03	0.02451945
232	0x3d87d86d	0.06633077
233	0xbd6315f2	-0.05544085
234	0x3dad0556	0.084482834
235	0x3d805358	0.062658966
236	0x3caf8579	0.02142595
237	0x3d9ee478	0.07758421
238	0xbcc91524	-0.024546213
239	0x3d700403	0.058597576
240	0x3ce1660b	0.027514478
241	0xbd154608	-0.03644374
242	0xbae0a4e0	-0.001713898
243	0xbc34fdca	-0.011046836
244	0x3bcc1698	0.0062282793
245	0x3dacf1a0	0.08444524
246	0x3d828a4f	0.063740365
247	0x3cc1d59d	0.023661429
248	0x3c8b164f	0.016978411
249	0xbd9b76af	-0.075909965
250	0x3ba2c41e	0.0049672266
251	0xbcddc91a	-0.027073432
252	0xbcd23d8a	-0.02566411
253	0x3c3faaf9	0.011698478
254	0xbdc40d3a	-0.09572835
255	0x3d69f17b	0.05711506

fcIn.bias f4 [30]
0	0x3d56b62a	0.05241982
1	0x3e0c43a3	0.13697676
2	0x3d32f26f	0.043688234
3	0x3d86798b	0.06566151
4	0xbc4c9844	-0.012487475
5	0xbd4b8ee2	-0.04969681
6	0xbd8312e8	-0.064000905
7	0xbe2ec61a	-0.17067757
8	0xbec7f297	-0.3905227
9	0x3d2ea1e7	0.04263487
10	0xbc4da60e	-0.012551798
11	0x3d267c81	0.04064608
12	0x3e1f1dc2	0.15538695
13	0xbcec6901	-0.028858664
14	0x3e1f392f	0.15549158
15	0x3e15404a	0.14575306
16	0xbc43c997	-0.011949918
17	0x3d8396bf	0.06425237
18	0xbca8d6ca	-0.020610232
19	0xbc73464f	-0.014848306
20	0x3ddcefc7	0.107879214
21	0x3d5773e9	0.052600775
22	0xbd8c35db	-0.068462096
23	0x3d9d7132	0.07687606
24	0x3e0ba583	0.13637356
25	0xbe568f3c	-0.20953077
26	0x3dacbefb	0.08434864
27	0x3d6da255	0.05801614
28	0xbdbd0218	-0.09228915
29	0x3dc03571	0.09385193

fcOut.weight f4 [2, 30]
0	0x3d8f69f6	0.07002632
1	0xbd44ca33	-0.048044395
2	0xbe376351	-0.1790898
3	0xbead9505	-0.33902755
4	0xbe17ab2d	-0.14811392
5	0xbe2fb208	-0.17157757
6	0xbf225801	-0.63415533
7	0xbed2db86	-0.41183108
8	0x3ec5232a	0.3850339
9	0x3d303f5f	0.043029185
10	0x3f05496f	0.52065176
11	0x3e600b1a	0.21879235
12	0xbe2f0bc1	-0.17094328
13	0x3f2f7290	0.68534184
14	0x3ed05951	0.40693143
15	0x3f161cac	0.586375
16	0xbd711eec	-0.05886738
17	0x3f2640b6	0.6494249
18	0xbdd02371	-0.1016301
19	0x3d255281	0.040361885
20	0xbdd013f5	-0.101600565
21	0xbeda360a	-0.42619354
22	0x3dc05e86	0.09393029
23	0xbeff7465	-0.4989349
24	0x3e9d2382	0.30691153
25	0x3e91f48f	0.28506896
26	0xbd3de28e	-0.046358638
27	0x3d3399d8	0.04384789
28	0x3db8c93f	0.0902276
29	0xbdbfc80c	-0.09364328
30	0xbe196580	-0.14980125
31	0xbd2383ad	-0.039920498
32	0xbda92351	-0.08258689
33	0xbcb11c30	-0.021619886
34	0xbd8092d8	-0.06278008
35	0xbe1eb71a	-0.15499535
36	0x3e046b5a	0.12931576
37	0x3e8d283a	0.27569753
38	0x3e692aa5	0.22770174
39	0x3b3f1eaa	0.0029162564
40	0x3ce7dc77	0.028303368
41	0xbdc8606a	-0.097840145
42	0x3db63b84	0.088980705
43	0xbdaf0f15	-0.085477985
44	0x3cd926c0	0.026507735
45	0x3e6ace96	0.22930369
46	0xbddf65cf	-0.1090809
47	0x3f22c4ae	0.6358136
48	0xbd634d56	-0.055493675
49	0xbe615f45	-0.22008999
50	0xbd16fc51	-0.03686172
51	0x3e0f53af	0.13996767
52	0xbe1a0e64	-0.15044552
53	0x3f2edd28	0.6830621
54	0x3e71bd6a	0.23607412
55	0xbd2785a0	-0.04089892
56	0xbe23a114	-0.15979415
57	0xbe1a649b	-0.1507744
58	0xbe8ffdbf	-0.2812328
59	0xbc994bed	-0.018712962

fcOut.bias f4 [2]
0	0x3d2bdade	0.041956775
1	0x3f825166	1.0181091
